lightning_logs/version_8/checkpoints/epoch=7-step=400.ckpt (torch, 142110 bytes, 21 tensors)

model.param_proj.proj.0.weight f4 [1, 35]
0.09036789 0.07278934 0.02050462 -0.18666267 0.16126457 -0.06393758 0.15498987 -0.17033592
0.16675447 0.2272171 0.20528178 -0.1694145 0.087243155 0.07834239 0.21747628 0.15872592
0.07803449 -0.04446813 -0.09046984 0.10165578 0.011337258 -0.23862374 -0.051569983 -0.033058584
0.20534357 0.13179925 -0.13355821 0.004897689 0.07407814 0.17715311 0.004808364 -0.057507966
0.15035519 0.12542365 -0.20624909
00000000: cd12 b93d 9412 953d 4ef9 a73c 8024 3fbe
00000010: 8a22 253e b5f1 82bd aab5 1e3e 8a6c 2ebe
00000020: afc1 2a3e 99ab 683e 6335 523e ff7a 2dbe
00000030: 8aac b23d fa71 a03d 1ab2 5e3e 0c89 223e
00000040: 8cd0 9f3d 3724 36bd 4048 b9bd e830 d03d
00000050: e8bf 393c c859 74be 0c3b 53bd 7068 07bd
00000060: 9645 523e 62f6 063e 7cc3 08be cb7c a03b
00000070: 48b6 973d a067 353e 7b8f 9d3b 798d 6bbd
00000080: b6f6 193e 0f6f 003e f632 53be

model.param_proj.proj.1.weight f4 [1, 35]
0.20031111 0.012412473 0.10035453 0.16084151 -0.22063984 -0.19946921 -0.038180802 -0.1443416
-0.030737258 -0.07596275 -0.10590263 0.13306281 -0.047060218 -0.1312794 -0.07590785 -0.089817315
-0.08750084 0.19639027 0.10195935 0.013466298 -0.12354336 0.045410767 -0.030881638 -0.17290297
-0.01725165 -0.0087197535 -0.12000823 0.06714265 -0.19671431 -0.034604926 -0.13101396 0.06964583
-0.08521111 -0.07718019 -0.1317325
00000000: 5b1e 4d3e af5d 4b3c ad86 cd3d a3b3 243e
00000010: 69ef 61be a841 4cbe 7963 1cbd 49ce 13be
00000020: b4cc fbbc 5c92 9bbd 7ae3 d8bd 9e41 083e
00000030: 37c2 40bd 1b6e 06be 9375 9bbd 24f2 b7bd
00000040: a433 b3bd 881a 493e 10d0 d03d bfa1 5c3c
00000050: 4d04 fdbd a400 3a3d 7dfb fcbc 7a0d 31be
00000060: 5553 8dbc 4cdd 0ebc e0c6 f5bd 1682 893d
00000070: 7a6f 49be e5bd 0dbd 8628 06be 79a2 8e3d
00000080: 2a83 aebd a610 9ebd e2e4 06be

model.param_proj.proj.2.weight f4 [1, 35]
-0.1601907 0.12422976 0.31783286 0.099998295 0.21477158 -0.19906314 -0.2661264 0.27105385
0.16563943 -0.3107144 -0.22516291 0.06302766 0.09873905 -0.19192143 -0.16355805 0.29692978
-0.07480172 -0.24539118 0.31848007 -0.183673 0.33947968 0.15181217 0.16526675 -0.1042012
-0.1340557 -0.21961446 -0.30096212 -0.22740512 -0.23109852 -0.20143619 -0.22669953 -0.13899486
-0.27341217 0.08358159 0.23504469
00000000: 0809 24be 2c6c fe3d fdba a23e e8cb cc3d
00000010: 15ed 5b3e 35d7 4bbe b841 88be 92c7 8a3e
00000020: 629d 293e f515 9fbe 1b91 66be a514 813d
00000030: b337 ca3d 0d87 44be c37b 27be 2e07 983e
00000040: a531 99bd d347 7bbe d20f a33e c614 3cbe
00000050: 48d0 ad3e a674 1b3e b03b 293e 7067 d5bd
00000060: e645 09be 9de2 60be b517 9abe e3dc 68be
00000070: 17a5 6cbe 4a45 4ebe ec23 68be ab54 0ebe
00000080: aefc 8bbe d32c ab3d 8eaf 703e

model.rnn.weight_ih_l0 f4 [140, 37]
-0.02309029 -0.1207041 -0.12811074 -0.07243237 0.07084541 -0.077291474 -0.006567099 -0.16632895
-0.09842888 0.08763814 -0.06199275 -0.053118177 -0.009319581 -0.0563718 -0.09025266 -0.09018005
-0.08982254 -0.18149745 0.024486814 -0.06254189 -0.042543735 0.017375477 -0.18755586 -0.00981826
-0.06629546 -0.08984713 -0.09865221 0.048920397 -0.15506992 -0.099785745 -0.099907294 -0.051079612
0.06767156 0.048505355 -0.061525516 0.053772002 -0.0333912 0.042651962 0.19654213 -0.055539895
0.024579 0.13193917 -0.09270664 0.0096671255 -0.011186344 0.079113066 0.083499536 -0.03745746
0.114083424 -0.08247815 -0.033804744 -0.04660377 -0.08425635 0.041374933 0.13399853 -0.09100972
0.15301332 0.03686946 -0.0009766347 0.11496306 -0.02144567 0.07420377 0.1379204 -0.064948104
-0.010130387 0.19212225 0.09208032 -0.032657534 0.09007831 -0.13414334 -0.15769461 0.112760544
-0.08530294 -0.0864254 0.1511384 -0.11194053 0.03835099 0.18307856 0.15930156 -0.17560865
-0.107288435 0.13575378 0.07313435 0.058878753 0.13946594 -0.09358488 0.09014289 -0.023600644
0.14184077 -0.12969874 0.039960627 0.1825624 -0.11803413 0.07633829 0.07831525 0.16412552
0.13051271 0.039531816 -0.0499152 0.07028106 0.15439993 -0.07487452 -0.029960962 -0.11671962
0.19885772 -0.015186409 0.011666142 -0.12797326 0.059213948 0.01223759 -0.009343604 -0.079936124
-0.048563894 0.17414388 -0.15206648 -0.060780708 0.04218588 0.14541173 0.045424655 0.14137089
0.076752685 0.077681825 -0.10613646 0.04043298 -0.08993694 0.028894527 -0.060092956 0.13999729
0.055576496 0.15983008 -0.030753966 0.0263115 0.14751583 0.030604457 0.1939036 -0.05829696
0.051069688 -0.025791146 0.17305209 0.1423447 -0.13479814 0.09968189 -0.028676627 0.012930696
0.17823513 -0.052062977 -0.109660976 -0.029928176 0.06967017 -0.002434577 0.05901261 -0.049719427
-0.119157575 0.006194328 -0.08237946 -0.14244159 -0.036384076 -0.0066866814 0.1598807 -0.07128897
-0.09768406 0.04595521 0.058221858 -0.1076253 0.10087406 -0.058301236 0.06232415 -0.052717086
0.13209766 0.056216925 -0.107670695 0.00094846886 -0.08170807 0.1138331 0.21207832 -0.098861046
-0.050763134 -0.06738729 -0.031967394 -0.021033501 0.04429698 -0.04514592 -0.10259331 -0.13013098
0.122351885 -0.117841 0.101482235 -0.019663803 0.040054232 0.015156031 0.06033327 -0.061008852
0.08694998 -0.01654241 0.1784394 -0.015443569 -0.04454523 0.062652245 -0.11081506 0.10924086
0.01910805 -0.033796825 -0.0366407 0.03351623 0.11871872 0.20111737 0.15261723 0.14221644
0.03115185 0.0020488282 -0.071099974 0.027470658 -0.017759703 0.16147716 -0.06763469 0.073822685
-0.0076442105 -0.104640454 -0.0020744237 0.041793242 0.1001177 0.042874824 0.16599484 0.18721446
0.01026857 0.06477864 0.07506936 -0.0851721 0.04586543 0.12078794 -0.048949677 -0.04560131
-0.10476762 -0.023764528 -0.113044865 0.047754135 0.0052202116 -0.14698236 0.0653398 -0.08902209
0.116503336 0.13029827 -0.122548886 -0.045452666 0.17627823 0.14388512 -0.028746003 0.16150208
-0.14539304 0.07709863 0.16126156 0.10386347 -0.08750968 0.11222805 0.0417703 -0.020722058
00000000: d927 bdbc b633 f7bd 762f 03be 6c57 94bd
00000010: 6617 913d fe4a 9ebd d230 d7bb 2352 2abe
00000020: 1595 c9bd a07b b33d 1cec 7dbd 7292 59bd
00000030: 28b1 18bc 1ee6 66bd 63d6 b8bd 51b0 b8bd
00000040: e1f4 b7bd 78da 39be 9298 c83c f615 80bd
00000050: 5742 2ebd 0457 8e3c a50e 40be c4dc 20bc
00000060: eac5 87bd c601 b8bd 2b0a cabd c160 483d
00000070: a6ca 1ebe 785c ccbd 329c ccbd db38 51bd
00000080: 6397 8a3d 8dad 463d 2e02 7cbd 0840 5c3d
00000090: 36c5 08bd d3b3 2e3d 5742 493e cd7d 63bd
000000a0: e659 c93c 101b 073e fbdc bdbd dd62 1e3c
000000b0: ed46 37bc 0806 a23d ce01 ab3d fe6c 19bd
000000c0: 92a4 e93d 4eea a8bd d876 0abd 98e3 3ebd
000000d0: 988e acbd c378 293d e936 093e 4e63 babd
000000e0: 86af 1c3e 6e04 173d 6c02 80ba c171 eb3d
000000f0: d4ae afbc 25f8 973d 013b 0d3e 8303 85bd
00000100: ecf9 25bc b2bb 443e 9b94 bc3d e8c3 05bd
00000110: fa7a b83d df5c 09be b27a 21be 00ef e63d
00000120: 4fb3 aebd cdff b0bd 06c4 1a3e 1441 e5bd
00000130: ed15 1d3d f278 3b3e f31f 233e c1d2 33be
00000140: 0aba dbbd 0a03 0b3e 76c7 953d d92a 713d
00000150: 29d0 0e3e 6ea9 bfbd d69c b83d 2356 c1bc
00000160: b53e 113e bfcf 04be c1ad 233d a3f1 3a3e
00000170: e1bb f1bd 4057 9c3d bf63 a03d 8510 283e
00000180: 20a5 053e 1dec 213d e173 4cbd 84ef 8f3d
00000190: 041b 1e3e d057 99bd b170 f5bc b20a efbd
000001a0: 5ca1 4b3e 6ad0 78bc 5923 3f3c 6c0b 03be
000001b0: 538a 723d 2c80 483c ea15 19bc 8db5 a3bd
000001c0: efea 46bd c652 323e 51b7 1bbe 31f5 78bd
000001d0: 1acb 2c3d d0e6 143e 340f 3a3d 88c3 103e
000001e0: 8330 9d3d a617 9f3d 135e d9bd 0d9d 253d
000001f0: dc30 b8bd 37b4 ec3c 0824 76bd 735b 0f3e
00000200: 2ea4 633d 7faa 233e beef fbbc 378b d73c
00000210: 640e 173e 33b6 fa3c aa8e 463e cbc8 6ebd
00000220: 732e 513d f447 d3bc 9134 313e cfc2 113e
00000230: 8608 0abe 0526 cc3d 3feb eabc 45db 533c
00000240: 4583 363e fd3f 55bd ef95 e0bd ef2b f5bc
00000250: 3caf 8e3d 6d8d 1fbb 35b7 713d 99a6 4bbd
00000260: e308 f4bd caf9 ca3b 90b6 a8bd 35dc 11be
00000270: 7807 15bd f31b dbbb c4b7 233e f4ff 91bd
00000280: 950e c8bd 883b 3c3d 0b7a 6e3d a76a dcbd
00000290: 0f97 ce3d 47cd 6ebd 9c47 7f3d dfed 57bd
000002a0: 9c44 073e b843 663d 7482 dcbd aba2 783a
000002b0: 9056 a7bd 5421 e93d 0f2b 593e a977 cabd
000002c0: 01ed 4fbd 5902 8abd 3ef0 02bd 734e acbc
000002d0: c070 353d eeea 38bd 711c d2bd 0e41 05be
000002e0: a093 fa3d 9f56 f1bd ebd5 cf3d fc15 a1bc
000002f0: e80f 243d 0051 783c 0520 773d 6be4 79bd
00000300: d512 b23d f383 87bc d1b8 363e 0607 7dbc
00000310: 0f75 36bd d24f 803d 02f3 e2bd acb9 df3d
00000320: 7c88 9c3c 8a6e 0abd 8f14 16bd 5048 093d
00000330: cd22 f33d b6f1 4d3e b147 1c3e 30a1 113e
00000340: 2a32 ff3c a245 063b dd9c 91bd 250a e13c
00000350: cc7c 91bc 455a 253e 0e84 8abd 5930 973d
00000360: 497c fabb bc4d d6bd 0ef3 07bb 642f 2b3d
00000370: 820a cd3d 839d 2f3d 8dfa 293e 26b5 3f3e
00000380: 813d 283c aaaa 843d f7bd 993d b66e aebd
00000390: 64dd 3b3d ab5f f73d 757f 48bd 70c8 3abd
000003a0: 6890 d6bd d4ad c2bc 1184 e7bd d799 433d
000003b0: 4f0e ab3b 8b82 16be e0d0 853d 3751 b6bd
000003c0: 4d99 ee3d e96c 053e e9fa fabd 932c 3abd
000003d0: 4882 343e 9f56 133e bd7c ebbc cd60 253e
000003e0: eae1 14be e3e5 9d3d c021 253e 5fb6 d43d
000003f0: 4638 b3bd d2d7 e53d 5617 2b3d 4ec1 a9bc

model.rnn.weight_hh_l0 f4 [140, 35]
0.109971225 -0.20300364 0.034203667 0.016132163 -0.21994574 -0.039037388 0.029303085 0.070445016
-0.01991413 -0.091194354 0.04202729 -0.04676047 0.13873574 -0.11252906 0.19075412 0.028779069
-0.16441697 0.14143805 -0.19603181 0.19693545 -0.05609811 -0.062378444 0.0063439207 -0.019652613
-0.07009878 0.14326195 0.17006856 -0.08948751 -0.07170228 0.043247126 -0.057604387 -0.078368686
0.06832553 0.048233926 -0.03526577 -0.12681739 -0.08703343 0.10407035 0.022432411 -0.067864396
0.10405327 0.08427388 0.015826013 -0.067373715 0.07564223 -0.027609443 0.021197936 -0.0032828508
-0.19435745 0.066752695 0.030786559 -0.060989037 -0.11212043 -0.18742582 -0.056855515 0.03426357
-0.09923315 -0.20760667 0.11304707 0.07398968 0.14588311 0.1250466 -0.0067559886 -0.14371581
0.040293 -0.08464025 0.07091604 0.17254636 -0.14758316 -0.031149425 0.10190378 -0.0803243
-0.07293149 0.14521857 -0.17448926 0.122517996 -0.02576722 -0.12244012 0.036560256 0.09340249
0.0668435 -0.030184181 -0.054706745 0.16846325 0.037594795 -0.12820686 0.06462324 0.058260206
-0.2215914 0.19596931 0.035068545 0.081814915 0.030505732 0.05782684 0.10790801 0.13360855
0.07353102 0.20478101 0.057014376 -0.011853554 0.11586029 -0.11904056 -0.057158623 0.06960085
0.13963522 0.171716 -0.13194942 0.044908404 0.021444408 -0.10221886 0.006619773 0.11506441
-0.15619925 0.06520601 0.082419366 0.064481 0.02503239 -0.056685068 0.02740475 -0.002960845
0.021254286 -0.034195475 0.20716144 -0.1640957 0.2346427 0.025604673 -0.0057309465 0.11378823
0.086857356 -0.08985261 -0.0013044456 0.10678387 0.19873929 0.100620516 -0.067931585 0.14222804
0.029152224 0.08519835 -0.11442639 -0.011700385 -0.10665908 -0.123012446 0.06553641 0.23597577
0.012517974 0.012100193 -0.08682983 -0.16654079 0.12078036 0.20356353 0.118887484 0.11647792
-0.11455941 0.058516793 -0.059841607 -0.016526427 -0.08909503 -0.09284292 -0.009310432 0.10285992
-0.026418967 -0.14088732 -0.06823102 -0.12321614 0.09964395 0.044580452 0.08631029 0.049154904
-0.083262764 -0.114227444 0.23474975 -0.15874037 0.19553971 -0.22039929 -0.0072628455 0.053592663
-0.03009849 -0.095231354 0.07719061 0.034106545 -0.12200977 -0.14162931 -0.22194551 -0.090815656
-0.07577736 0.09111538 -0.067511395 -0.10815239 0.045761716 -0.040160146 -0.08331707 0.004208576
0.11907748 0.040190868 -0.013385875 -0.06576699 0.05850715 0.029579911 -0.049168997 0.06805154
-0.09512768 0.12896423 0.055152405 -0.08190115 0.13791583 0.12848817 0.08688058 -0.009819246
-0.1398062 -0.13476501 -0.039268762 0.05296633 -0.0921019 -0.10670135 -0.095070824 -0.045910724
0.1599107 0.06159231 -0.044655494 0.1044667 -0.06590349 0.036454998 -0.2010643 0.13661441
0.1652947 -0.07396653 -0.10611453 0.121852055 -0.11359713 0.120701954 -0.23692945 -0.15077268
-0.07830019 -0.10109754 0.018562693 -0.1365841 -0.042750895 -0.09383541 -0.08164367 -0.069443606
0.15168671 -0.09867313 -0.042859707 0.04137045 -0.08660973 0.19913496 0.012496638 0.08652871
-0.0060939062 -0.10919059 -0.018006237 0.13643599 0.07625641 -0.0666691 -0.0072622295 -0.14510693
00000000: 9838 e13d 30e0 4fbe 2519 0c3d 9927 843c
00000010: 7539 61be abe5 1fbd 060d f03c 7a45 903d
00000020: f522 a3bc 1bc4 babd cf24 2c3d e887 3fbd
00000030: be10 0e3e a375 e6bd 0c55 433e 15c2 eb3c
00000040: ec5c 28be 23d5 103e 90bc 48be 72a9 493e
00000050: 22c7 65bd 8a80 7fbd aae0 cf3b 84fe a0bc
00000060: f38f 8fbd 43b3 123e 7426 2e3e 3a45 b7bd
00000070: a5d8 92bd e623 313d 94f2 6bbd c37f a0bd
00000080: 41ee 8b3d f090 453d d772 10bd 6bdc 01be
00000090: 953e b2bd d622 d53d 2dc4 b73c 7dfc 8abd
000000a0: e119 d53d c997 ac3d 8ea5 813c 3bfb 89bd
000000b0: 50ea 9a3d 332d e2bc 4ba7 ad3c 1925 57bb
000000c0: a405 47be a3b5 883d 1834 fc3c a4cf 79bd
000000d0: 659f e5bd 8eec 3fbe 54e1 68bd f557 0c3d
000000e0: c03a cbbd d896 54be 3985 e73d e787 973d
000000f0: 6262 153e 370c 003e 5761 ddbb 3d2a 13be
00000100: 460a 253d de57 adbd 6e3c 913d feaf 303e
00000110: 0a20 17be 142d ffbc eeb2 d03d 1181 a4bd
00000120: 1b5d 95bd 2db4 143e 50ad 32be b7ea fa3d
00000130: c715 d3bc e3c1 fabd 35c0 153d ce49 bf3d
00000140: 3fe5 883d d144 f7bc 2e14 60bd a181 2c3e
00000150: 00fd 193d a948 03be 3059 843d 41a2 6e3d
00000160: dbe8 62be 2eac 483e 09a4 0f3d 948e a73d
00000170: 28e7 f93c d6db 6c3d e0fe dc3d aed0 083e
00000180: 6e97 963d 1db2 513e e887 693d 6935 42bc
00000190: 2948 ed3d 8acb f3bd 291f 6abd e48a 8e3d
000001a0: 89fc 0e3e 52d6 2f3e c01d 07be e0f1 373d
000001b0: 2fac af3c 1f58 d1bd aeea d83b e4a6 eb3d
000001c0: b2f2 1fbe bb8a 853d 7ccb a83d 9d0e 843d
000001d0: ba10 cd3c 9a2e 68bd ed7f e03c bc0a 42bb
000001e0: 781d ae3c 8e10 0cbd 2122 543e b408 28be
000001f0: 2d46 703e e4c0 d13c aaca bbbb ce09 e93d
00000200: 45e2 b13d a504 b8bd eef9 aaba 80b1 da3d
00000210: 5082 4b3e 2112 ce3d b71f 8bbd 3aa4 113e
00000220: a5d0 ee3c 797c ae3d 6258 eabd f9b2 3fbc
00000230: 1370 dabd f3ed fbbd f437 863d a2a3 713e
00000240: 3018 4d3c e33f 463c d7d3 b1bd ab89 2abe
00000250: b25b f73d f572 503e 487b f33d fa8b ee3d
00000260: 209e eabd 4eaf 6f3d 791c 75bd 6e62 87bc
00000270: 7577 b6bd 6e24 bebd c88a 18bc 39a8 d23d
00000280: 976c d8bc c444 10be b4bc 8bbd be58 fcbd
00000290: 2112 cc3d fe99 363d 73c3 b03d a756 493d
000002a0: ab85 aabd 14f0 e9bd 3d62 703e d68c 22be
000002b0: 903b 483e 5ab0 61be 2afd edbb fb83 5b3d
000002c0: 1c91 f6bc a808 c3bd 1c16 9e3d 4eb3 0b3d
000002d0: 42e0 f9bd 4607 11be af45 63be 8ffd b9bd
000002e0: 2931 9bbd b39a ba3d 6a43 8abd 007f ddbd
000002f0: a370 3b3d f77e 24bd 24a2 aabd 18e8 893b
00000300: e5de f33d 2e9f 243d 6e50 5bbc d8b0 86bd
00000310: 31a5 6f3d 9251 f23c 6e65 49bd 9b5e 8b3d
00000320: 4dd2 c2bd 330f 043e 7de7 613d cabb a7bd
00000330: cf39 0d3e 6792 033e 72ee b13d e7e0 20bc
00000340: 5b29 0fbe d7ff 09be 48d8 20bd 39f3 583d
00000350: ec9f bcbd 3d86 dabd 7eb4 c2bd e20c 3cbd
00000360: a1bf 233e 3848 7c3d aee8 36bd a3f2 d53d
00000370: 69f8 86bd d651 153d cde3 4dbe a6e4 0b3e
00000380: 0443 293e c47b 97bd 9352 d9bd 928d f93d
00000390: 9da5 e8bd 9632 f73d a29d 72be 2764 1abe
000003a0: da5b a0bd 3a0c cfbd ca10 983c b4dc 0bbe
000003b0: 901b 2fbd c82c c0bd cc34 a7bd 7338 8ebd
000003c0: c353 1b3e 2315 cabd a98d 2fbd 1074 293d
000003d0: 7160 b1bd 09ea 4b3e b3be 4c3c f735 b13d
000003e0: 64af c7bb 519f dfbd d181 93bc e0b5 0b3e
000003f0: 522c 9c3d cf89 88bd fff7 edbb e996 14be

model.rnn.bias_ih_l0 f4 [140]
-0.115630955 0.046010964 0.08296243 -0.10625382 0.054746523 -0.042781543 0.12197694 -0.064537935
0.13666645 -0.07123872 0.09244072 -0.008921382 0.1463326 0.031901125 -0.0061099804 0.005706245
-0.05931328 -0.044908352 -0.04146933 -0.037028346 -0.07085387 0.038548194 0.11501431 -0.19003876
-0.14465773 -0.04052309 -0.06675986 -0.0034951952 0.052710403 -0.06101507 0.008360604 -0.14824003
0.042303935 -0.17146456 -0.086065136 0.085096635 -0.01997934 0.026271392 0.13956629 0.23055105
-0.1316322 0.19479774 0.0061725373 0.12281772 0.19432761 0.17681603 0.049338605 -0.041488707
-0.13065265 0.0102727385 0.103833064 0.1291037 -0.08223677 0.05214026 0.020166002 0.035642296
0.020465454 0.28902712 -0.13228162 0.12462113 0.10156432 -0.05931367 0.21219793 0.06778859
0.19736217 0.09975545 0.07565983 0.14543259 0.06371111 -0.036960542 0.1739401 0.14722896
-0.09515371 0.0884405 -0.17930575 0.09196935 0.10169201 -0.16869372 0.05930616 0.22174987
0.16134982 0.13300711 0.09369583 -0.06946391 -0.12514299 0.07560591 -0.08840063 0.07777584
0.1146013 -0.13111581 0.047564283 -0.16918986 0.023843179 0.02786544 0.1381101 0.17731479
0.14286396 -0.074778534 -0.11982314 0.20652448 0.05522875 0.06473158 0.20471393 0.036695454
-0.22168927 0.1776375 0.063101515 0.13288797 -0.08094357 0.23888123 -0.15656234 -0.009962769
0.22392538 0.14154664 0.042197283 -0.04467877 -0.036082238 0.13303004 -0.13231324 0.14619832
0.14639024 -0.1490621 0.073605 0.11787221 -0.017840346 0.007958209 0.13643429 0.13814247
-0.21628492 -0.17790899 0.19622287 0.054022677 -0.06101403 -0.0068988623 0.05611071 0.2191498
-0.12096838 0.0043800217 0.04124717 -0.11111582
00000000: eccf ecbd fe75 3c3d 35e8 a93d 9a9b d9bd
00000010: e43d 603d b33b 2fbd 0ccf f93d 772c 84bd
00000020: 4af2 0b3e 9be5 91bd 8f51 bd3d fd2a 12bc
00000030: 37d8 153e c1aa 023d 3b36 c8bb 74fb ba3b
00000040: 7bf2 72bd d2f1 37bd bfdb 29bd 09ab 17bd
00000050: d51b 91bd b6e4 1d3d 9f8c eb3d 8599 42be
00000060: 2821 14be 8afb 25bd 65b9 88bd a50f 65bb
00000070: dde6 573d f0ea 79bd eafa 083c 3ccc 17be
00000080: e446 2d3d 6894 2fbe eb42 b0bd 2547 ae3d
00000090: b6ab a3bc 1a37 d73c 77ea 0e3e 9315 6c3e
000000a0: 97ca 06be 0f79 473e ff42 ca3b db87 fb3d
000000b0: d1fd 463e 430f 353e 4717 4a3d 10f0 29bd
000000c0: cfc9 05be fd4e 283c 6ea6 d43d c333 043e
000000d0: c06b a8bd 0691 553d 2c33 a53c a8fd 113d
000000e0: 2ba7 a73c 5dfb 933e d574 07be 5d39 ff3d
000000f0: f400 d03d e4f2 72bd 6a4a 593e bfd4 8a3d
00000100: 4f19 4a3e 964c cc3d 8af3 9a3d 48ec 143e
00000110: f87a 823d f063 17bd 5b1d 323e 30c3 163e
00000120: f3df c2bd 4b20 b53d ed9b 37be 6d5a bc3d
00000130: e743 d03d 0cbe 2cbe 04eb 723d 6612 633e
00000140: e338 253e 0433 083e 99e3 bf3d 1843 8ebd
00000150: 7c25 00be 45d7 9a3d 640b b5bd f148 9f3d
00000160: 16b4 ea3d 3943 06be c4d2 423d 1b40 2dbe
00000170: c552 c33c 1046 e43c bc6c 0d3e 0292 353e
00000180: ee4a 123e 7d25 99bd d665 f5bd 277b 533e
00000190: 8b37 623d fe91 843d 87a0 513e f94d 163d
000001a0: 8302 63be 9be6 353e 5e3b 813d c913 083e
000001b0: bec5 a5bd 489d 743e e151 20be e23a 23bc
000001c0: b24c 653e 9af1 103e 0fd7 2c3d 1601 37bd
000001d0: f8ca 13bd 0739 083e 1f7d 07be 03b5 153e
000001e0: 53e7 153e bca3 18be 38be 963d fc66 f13d
000001f0: eb25 92bc 2663 023c 6eb5 0b3e 3875 0d3e
00000200: cb79 5dbe c62d 36be a6ee 483e e246 5d3d
00000210: d9e9 79bd da0f e2bb 58d4 653d ce68 603e
00000220: 45be f7bd 4986 8f3b cbf2 283d b190 e3bd

model.rnn.bias_hh_l0 f4 [140]
0.005414917 -0.06390342 -0.06262735 0.17510945 0.11261888 0.12264941 0.09047451 0.12863933
0.024134656 0.026855752 0.2027695 0.10413335 -0.020721609 0.07525081 0.17043625 -0.04106812
0.009559968 0.20453511 -0.02895054 -0.0709469 0.10490007 0.198462 -0.035430856 -0.19180354
-0.0059655784 0.17475626 -0.08797073 0.028863769 0.16656101 -0.09962339 0.06200849 -0.24578421
-0.0063531897 -0.1320889 -0.09221163 0.071460694 0.16328236 0.10137993 -0.004466114 0.12231911
0.1297765 0.055654168 0.16824578 -0.032095954 -0.032110494 0.15405041 0.18032476 0.1738239
0.09405179 -0.032895565 0.13680229 -0.079848945 0.219504 -0.06271124 0.040507067 0.15552217
0.0530699 0.12273441 -0.15217371 -0.0049195653 -0.010646851 -0.10114691 0.048790153 -0.033732593
0.005124408 0.22599556 0.1818561 0.06721622 0.14533903 0.11662233 0.040047232 -0.058447402
-0.06250918 -0.11158551 0.0150848925 0.17312594 0.106470846 -0.085819036 -0.21119963 0.1692949
-0.054732207 -0.10539274 -0.20584436 -0.07029148 0.093966566 -0.19474073 -0.00896884 0.032928847
0.036631297 0.14689657 -0.015682068 -0.11940759 -0.061224516 0.0512568 0.074649185 0.13412568
-0.08381174 0.21288422 0.193954 0.05993242 0.038772028 0.024823949 -0.01232459 -0.16374929
-0.19303267 0.19975972 -0.11270518 0.018443817 -0.15972267 0.13012804 -0.10624716 0.057160974
0.12836568 0.09280197 -0.04194661 -0.05719317 -0.06800089 -0.040940963 -0.13545176 0.06104744
0.26132312 -0.12367885 0.11675091 0.27456653 0.16933988 0.17039128 0.059034478 0.022729503
-0.2061391 -0.20036398 0.2298662 0.12678893 0.13726422 -0.039442476 0.12995155 0.20836921
-0.0017433274 0.083848424 -0.13985494 0.08951349
00000000: 9e6f b13b ccdf 82bd c542 80bd e44f 333e
00000010: baa4 e63d 9d2f fb3d b34a b93d 07ba 033e
00000020: 0bb6 c53c 9800 dc3c cfa2 4f3e de43 d53d
00000030: 5dc0 a9bc 191d 9a3d d786 2e3e 0c37 28bd
00000040: 69a1 1c3c a771 513e af29 edbc 9c4c 91bd
00000050: d9d5 d63d 9f39 4b3e f21f 11bd 2668 44be
00000060: e67a c3bb 4ef3 323e 002a b4bd b673 ec3c
00000070: f88e 2a3e 5907 ccbd 9dfc 7d3d dbae 7bbe
00000080: 6b2e d0bb 5042 07be 73d9 bcbd fc59 923d
00000090: 7e33 273e 48a0 cf3d 7b58 92bb 7182 fa3d
000000a0: 21e4 043e a0f5 633d 9f48 2c3e 0c77 03bd
000000b0: 4b86 03bd 64bf 1d3e 0ea7 383e e4fe 313e
000000c0: 3a9e c03d 80bd 06bd e615 0c3e d887 a3bd
000000d0: a8c5 603e c06e 80bd bdea 253d 3441 1f3e
000000e0: d35f 593d 2e5c fb3d 6dd3 1bbe 4e34 a1bb
000000f0: 2170 2ebc 1c26 cfbd 2fd8 473d 302b 0abd
00000100: a6ea a73b 616b 673e 7c38 3a3e a8a8 893d
00000110: c1d3 143e b0d7 ee3d 9108 243d 8b66 6fbd
00000120: d004 80bd f286 e4bd a026 773c ed47 313e
00000130: 630d da3d e4c1 afbd b744 58be a45b 2d3e
00000140: e12e 60bd 26d8 d7bd ddc8 52be fbf4 8fbd
00000150: 8b71 c03d 1d6a 47be 0bf2 12bc 66e0 063d
00000160: b30a 163d 0e6c 163e ae77 80bc f78b f4bd
00000170: 8fc6 7abd a6f2 513d ace1 983d 3e58 093e
00000180: 7da5 abbd 52fe 593e e19b 463e b27b 753d
00000190: 6bcf 1e3d 985b cb3c 14ed 49bc e5ad 27be
000001a0: 5baa 45be d08d 4c3e f9d1 e6bd 7d17 973c
000001b0: 578e 23be 4940 053e 1c98 d9bd a021 6a3d
000001c0: 4b72 033e f60e be3d 35d0 2bbd 6343 6abd
000001d0: 0d44 8bbd b6b1 27bd deb3 0abe e10c 7a3d
000001e0: 25cc 853e 564b fdbd 1a1b ef3d fc93 8c3e
000001f0: 6f67 2d3e 0d7b 2e3e 23ce 713d 3933 ba3c
00000200: 2116 53be 372c 4dbe 0c62 6b3e f5d4 013e
00000210: fe8e 0c3e 6f8e 21bd 0512 053e bd5e 553e
00000220: 5c80 e4ba b9b8 ab3d 2236 0fbe d952 b73d

exp_avg f4 [1, 35]
-9.975363e-05 0.0024515574 0.0029326316 0.0032859256 -0.0010339933 -0.003449576 -0.0034208985 0.00022639496
0.00015647119 -0.0029679446 -0.0036321355 0.0032846245 -0.0020923647 -0.003314158 -0.0023866375 4.9349288e-05
1.638326e-05 0.000989201 0.002923964 -0.0032405672 0.00027385162 0.0033997607 0.00010238403 -0.00280215
-0.0034466009 -0.0035697452 -0.0001256032 -0.0033587143 -0.0032629673 -0.0032667802 -0.0033708126 -0.0033053793
-0.003525152 -0.0026889015 0.0034576228
00000000: d332 d1b8 4faa 203b 6531 403b af58 573b
00000010: 0f87 87ba 4812 62bb 2731 60bb 6f64 6d39
00000020: 6a12 2439 d981 42bb 1f09 6ebb db42 573b
00000030: 0e20 09bb 5832 59bb 2269 1cbb 65fc 4e38
00000040: c86e 8937 14a8 813a fa9f 3f3b b25f 54bb
00000050: be93 8f39 85ce 5e3b 02b7 d638 47a4 37bb
00000060: 5ee0 61bb 63f2 69bb 5ab4 03b9 e01d 5cbb
00000070: 82d7 55bb 7a17 56bb dae8 5cbb 109f 58bb
00000080: 3d06 67bb 4838 30bb 4999 623b

exp_avg_sq f4 [1, 35]
1.1468145e-06 0.001720758 0.0039100833 0.007757579 0.0006965582 0.0048180674 0.0036385488 3.1298732e-06
8.338595e-05 0.005741796 0.000746498 0.006385174 0.002151569 0.0036547692 0.0015855278 1.1846379e-05
5.832333e-08 0.0067567867 0.0001333532 0.0020208391 1.0976393e-05 0.0017452675 1.7778246e-05 0.0055799065
0.00789442 0.00049740076 8.438233e-06 0.0017095214 0.0072577554 0.0015841065 0.0064144563 0.004470438
0.0033042075 0.0037807843 0.0061846226
00000000: 3fec 9935 0f8b e13a 2820 803b 4a33 fe3b
00000010: 3b99 363a e1e0 9d3b b874 6e3b d00a 5236
00000020: 7edf ae38 ad25 bc3b a2b0 433a b93a d13b
00000030: 5601 0d3b da84 6f3b 7cd1 cf3a cfbf 4637
00000040: 2e7f 7a33 0968 dd3b bad4 0b39 0e70 043b
00000050: 4027 3837 76c1 e43a 7e22 9537 a6d7 b63b
00000060: 9957 013c 0064 023a ef91 0d37 0512 e03a
00000070: 77d2 ed3b cba1 cf3a 5c30 d23b c17c 923b
00000080: 678b 583b 09c7 773b 60a8 ca3b

exp_avg f4 [1, 35]
0.088101566 -0.037086606 -0.08459616 0.012243707 -0.09035747 0.08206211 0.07506929 -0.096805006
-0.067894 0.09588008 0.08364242 -0.0072098626 -0.05949112 0.005071731 0.08450259 -0.09869625
0.013689664 0.091369316 -0.086694434 0.08793767 -0.058865666 -0.03264702 -0.09108679 0.0012362076
0.0011230521 0.027360007 0.09191774 0.09377159 0.06969245 0.0942146 0.090893954 0.0018996613
0.08675818 -0.061454773 -0.021073265
00000000: 986e b43d 20e8 17bd c040 adbd d499 483c
00000010: 560d b9bd 2e10 a83d eebd 993d b441 c6bd
00000020: 020c 8bbd c65c c43d b84c ab3d b640 ecbb
00000030: f6ac 73bd c330 a63b b20f ad3d 4221 cabd
00000040: 9d4a 603c d61f bb3d da8c b1bd aa18 b43d
00000050: 201d 71bd e2b8 05bd b68b babd 3e08 a23a
00000060: 6033 933a 1822 e03c 5e3f bc3d 520b c03d
00000070: eaba 8e3d 96f3 c03d 9c26 ba3d 0efe f83a
00000080: 46ae b13d 00b8 7bbd d7a1 acbc

exp_avg_sq f4 [1, 35]
1.0579275 1.0059441 1.0687147 0.002296259 1.0889224 1.033692 1.0907074 1.0923506
0.33159113 1.0472965 1.0757321 0.0031685024 0.13431486 0.00083758996 0.8922314 1.0565877
0.0047261524 1.0587045 0.94320875 1.0931134 0.9912659 0.02633656 0.8306228 0.00031855967
0.00027785843 1.0861977 1.0889874 1.0810727 0.77743983 1.0902019 1.072217 0.00023742588
1.0686787 0.54421294 0.008162185
00000000: 2b6a 873f c7c2 803f a5cb 883f d57c 163b
00000010: cf61 8b3f 0550 843f 4d9c 8b3f 25d2 8b3f
00000020: 50c6 a93e d00d 863f 97b1 893f a6a6 4f3b
00000030: d689 093e b691 5b3a 4769 643f 443e 873f
00000040: d7dd 9a3b a183 873f 2176 713f 24eb 8b3f
00000050: 9ac3 7d3f c5bf d73c b2a3 543f 5b04 a739
00000060: 87ad 9139 8708 8b3f f063 8b3f 9760 8a3f
00000070: 4c06 473f bc8b 8b3f 683e 893f 86f5 7839
00000080: 77ca 883f 8a51 0b3f afba 053c

exp_avg f4 [1, 35]
0.014303364 -0.017374016 -0.0156295 -0.0016039787 -0.013941187 0.015753167 0.016461838 -0.014332832
-0.011430731 0.015353637 0.015999954 -0.001418196 -0.0047106706 0.001198255 0.014852694 -0.013996764
-0.0005581234 0.013804398 -0.01490949 0.015920423 -0.015122006 -0.00059786695 -0.013792222 0.001159246
0.0014870956 0.01811027 0.0143923815 0.015622393 0.014304983 0.015660582 0.0156014105 0.0014512689
0.01577191 -0.009927858 -0.002441311
00000000: a858 6a3c f453 8ebc 7009 80bc 983c d2ba
00000010: 9469 64bc c90c 813c fada 863c 41d4 6abc
00000020: f647 3bbc d28d 7b3c 5612 833c c3e2 b9ba
00000030: f85b 9abb c40e 9d3a b758 733c af52 65bc
00000040: 074f 12ba d72b 623c ef46 74bc 8c6b 823c
00000050: 4ac2 77bc 2cba 1cba c6f8 61bc d7f1 973a
00000060: a6ea c23a fd5b 943c 06ce 6b3c 11f5 7f3c
00000070: 735f 6a3c 9f4a 803c 0f9d 7f3c 8138 be3a
00000080: 1834 813c 74a8 22bc 67fe 1fbb

exp_avg_sq f4 [1, 35]
0.014589193 0.009319387 0.021964058 0.00033969697 0.017348927 0.016952455 0.027258372 0.022618124
0.002562823 0.014357792 0.020215241 0.0006060636 0.0005239107 0.00021975163 0.0068702046 0.010367699
5.605146e-06 0.012444236 0.006760589 0.025254885 0.007857551 0.00025889676 0.006531809 0.0019232673
0.00094651827 0.022062872 0.014478943 0.022286374 0.0084248865 0.02208613 0.015244557 0.00036806933
0.018752767 0.006740221 0.0003591806
00000000: 8307 6f3c 58b0 183c f8ed b33c 5b19 b239
00000010: 561f 8e3c e0df 8a3c f34c df3c a549 b93c
00000020: 09f5 273b f23c 6b3c 6f9a a53c 3de0 1e3a
00000030: 0d57 093a 216d 6639 741f e13b 48dd 293c
00000040: d613 bc36 e9e2 4b3c ee87 dd3b 55e3 ce3c
00000050: f5bc 003c 89bc 8739 c908 d63b 2416 fc3a
00000060: c41f 783a 32bd b43c 1739 6d3c ea91 b63c
00000070: 8908 0a3c f9ed b43c 4ec4 793c 6ef9 c039
00000080: 679f 993c 12dd dc3b 6750 bc39

exp_avg f4 [140, 37]
9.55564e-06 4.6414684e-06 6.053381e-06 5.0111544e-06 1.763897e-05 4.3882083e-06 -3.887094e-06 -7.829939e-07
6.4526694e-06 1.1370985e-05 1.8470356e-06 6.10833e-06 1.537261e-05 9.1841175e-06 7.2643406e-06 4.280689e-06
3.3388617e-06 5.0636136e-06 2.489089e-06 1.5085542e-05 2.603876e-05 7.517643e-06 6.6730263e-06 7.5300895e-06
4.574899e-06 4.5022944e-06 4.9903883e-06 3.02682e-06 2.7672393e-06 2.9265293e-06 0.00071680034 -5.156938e-10
-0.008557146 -6.8641352e-06 -8.5856e-06 -3.946279e-07 0.0022505429 -4.487859e-06 -2.3967668e-06 -4.1318917e-06
-7.055368e-06 -7.1093223e-06 -2.6805096e-06 -6.646678e-06 -4.0883565e-06 -1.2760969e-06 -6.4994165e-06 -7.561904e-06
-4.683861e-06 -5.0842145e-06 -5.3301633e-06 -4.1967887e-06 -4.523964e-06 -2.7873837e-06 -3.3829065e-06 -7.964039e-06
-3.9038905e-06 -4.73498e-06 -2.6963005e-06 -5.7113914e-07 -2.5011875e-06 -2.3015357e-07 -2.2120433e-07 -2.0873064e-07
-1.2937308e-07 -1.2736311e-07 -1.2965192e-07 -9.886198e-05 9.090527e-10 -8.310511e-05 1.2549492e-06 1.4045515e-06
-2.029819e-06 -0.00033937654 4.5450442e-06 1.6568172e-06 -2.3974583e-06 6.914842e-07 1.0560269e-06 7.3179194e-06
7.7517126e-07 2.9760508e-06 1.7113307e-06 4.09236e-06 4.050933e-06 4.4558974e-06 2.6271978e-06 3.2513394e-06
4.2995675e-06 4.8574275e-06 2.31698e-06 3.1431105e-06 1.8210374e-06 5.8258356e-06 3.0304736e-06 2.168157e-06
2.8291233e-06 2.9140429e-06 7.039468e-07 1.5183551e-06 1.3104124e-06 1.3195532e-06 1.1742543e-06 1.223205e-06
-0.00013925477 -1.5338346e-10 0.00024740264 -1.4704094e-07 2.721183e-06 1.4736418e-06 -0.00046875022 2.0414923e-06
2.5280967e-06 1.7716959e-06 3.8771204e-06 4.2852935e-06 4.215582e-06 2.184556e-06 3.9126753e-06 4.186872e-07
3.0983936e-06 9.902928e-07 2.4440424e-06 2.08342e-06 4.7773783e-06 1.3342899e-06 2.9026882e-07 9.544369e-07
2.6379412e-06 2.5172674e-06 -1.7374591e-06 -1.7072031e-06 -2.986294e-06 -1.8476223e-06 -1.4333261e-06 -1.967328e-07
-3.3509034e-06 -6.455415e-07 -1.2151406e-06 -1.2732502e-06 -1.0723011e-06 9.262105e-05 -2.8958896e-10 4.784965e-05
-3.856108e-07 -2.8784393e-07 7.4169e-07 0.00032113402 5.425883e-05 5.8686273e-05 3.3413988e-05 5.300338e-05
5.0785533e-05 4.3297256e-05 5.2955835e-05 3.385416e-05 1.9085703e-05 2.8350007e-05 3.841796e-05 9.252996e-06
5.926289e-05 1.9564843e-05 2.267652e-06 2.990126e-05 3.278595e-05 3.5557354e-05 5.3598905e-07 2.497163e-05
4.1420462e-05 8.52544e-06 1.5188349e-05 2.3655555e-05 -8.995002e-07 9.76308e-07 1.1405401e-06 2.6769112e-06
2.8886113e-06 2.7851431e-06 0.00033004765 -2.1242445e-10 -0.0017987211 -5.946586e-06 -2.3719003e-06 5.563367e-06
0.0010769241 -1.4740709e-05 -7.1557074e-06 -5.4328684e-06 -1.62977e-05 -6.1615146e-06 -1.1153663e-05 6.316463e-07
-3.606001e-06 -2.6593943e-06 -6.2917698e-06 -4.1676676e-06 2.7519982e-06 -8.969039e-06 -6.7339615e-06 -2.706299e-06
-6.458483e-06 -1.2266698e-05 -1.1897673e-05 -9.19541e-06 -6.7566907e-06 -5.1631387e-06 -3.3833278e-06 -4.65973e-06
-4.2084093e-06 -1.6834794e-06 -7.3892016e-07 -1.185751e-06 -7.88088e-07 -9.68402e-07 -1.6588216e-06 -0.0003025408
-7.7214006e-11 -8.946088e-05 -7.1629177e-07 4.953174e-06 1.1544162e-05 -0.0010372846 -2.1672866e-05 -1.7328482e-05
-2.2035665e-05 -1.2972829e-06 -2.8260833e-05 -1.692675e-05 5.435975e-06 -2.6310709e-06 -3.458103e-05 1.8474278e-06
-1.0950907e-06 -3.148232e-05 -4.967362e-06 -1.1648137e-05 -1.9631303e-05 -1.1959548e-07 -2.1205109e-05 -7.0375313e-06
-1.7532602e-05 4.9801824e-06 -3.204637e-05 -1.5252385e-06 -1.1507644e-05 -1.3397815e-05 1.7728331e-07 -1.777494e-06
1.0802469e-07 -5.559613e-07 -6.2676e-07 -6.6896285e-07 -8.7548906e-05 1.1323432e-09 0.002239447 3.6138783e-06
00000000: 2951 2037 e9bd 9b36 261e cb36 7d25 a836
00000010: 66f7 9337 6c3e 9336 e26d 82b6 ee2e 52b5
00000020: 0284 d836 02c6 3e37 a9e7 f735 28f6 cc36
00000030: 6ef4 8037 7c15 1a37 36c0 f336 d7a2 8f36
00000040: 3511 6036 1ce8 a936 390a 2736 e917 7d37
00000050: d06d da37 1040 fc36 dce8 df36 faaa fc36
00000060: 1582 9936 6a12 9736 1c73 a736 5f20 4b36
00000070: cfb4 3936 6465 4436 a8e7 3b3a bac0 0db0
00000080: 4633 0cbc 7952 e6b6 df0a 10b7 3fdd d3b4
00000090: d87d 133b 6a96 96b6 24d8 20b6 aea4 8ab6
000000a0: 26bd ecb6 9d8c eeb6 cee2 33b6 8706 dfb6
000000b0: b72e 89b6 5b46 abb5 9015 dab6 43bc fdb6
000000c0: 0f2a 9db6 1299 aab6 c1d9 b2b6 24d2 8cb6
000000d0: 8ecc 97b6 e30e 3bb6 e405 63b6 499d 05b7
000000e0: 2afe 82b6 2be1 9eb6 17f2 34b6 6250 19b5
000000f0: 13da 27b6 2220 77b4 2f84 6db4 711f 60b4
00000100: cde9 0ab4 4ec1 08b4 7336 0bb4 1f54 cfb8
00000110: e6e0 7930 b748 aeb8 ba6f a835 0684 bc35
00000120: 0638 08b6 59ee b1b9 a281 9836 ce5f de35
00000130: 05e4 20b6 6f9e 3935 cfbc 8d35 738c f536
00000140: 5d15 5035 2ab8 4736 e0b0 e535 1b51 8936
00000150: 40ed 8736 de83 9536 ea4e 3036 9631 5a36
00000160: 0145 9036 fcfc a236 6a7d 1b36 3aee 5236
00000170: 5e6a f435 8c7b c336 245f 4b36 a780 1136
00000180: f8db 3d36 e08e 4336 dbf6 3c35 49ca cb35
00000190: 6de1 af35 811b b135 129b 9d35 012d a435
000001a0: eb04 12b9 9ba5 28af d2b5 8139 4ee2 1db4
000001b0: 919d 3636 f2c9 c535 97c2 f5b9 9200 0936
000001c0: 5fa8 2936 02cb ed35 3618 8236 64ca 8f36
000001d0: 9373 8d36 639a 1236 a049 8336 eec7 e034
000001e0: ffed 4f36 34ea 8435 5404 2436 e2d0 0b36
000001f0: 5e4d a036 da15 b335 3ed6 9b34 341a 8035
00000200: 7c07 3136 53ee 2836 a432 e9b5 0d23 e5b5
00000210: 2468 48b6 d2fb f7b5 b660 c0b5 803d 53b4
00000220: 15e0 60b6 4649 2db5 ea17 a3b5 8be4 aab5
00000230: fceb 8fb5 8c3d c238 0634 9faf 2cb2 4838
00000240: f205 cfb4 f888 9ab4 8c18 4735 e15d a839
00000250: fa93 6338 e825 7638 ff25 0c38 f24f 5e38
00000260: 8d02 5538 139a 3538 e51c 5e38 a1fe 0d38
00000270: 3c1a a037 2dd1 ed37 f822 2138 513d 1b37
00000280: 0b91 7838 2e1f a437 f72d 1836 78d4 fa37
00000290: a583 0938 6b23 1538 e3e0 0f35 2b7a d137
000002a0: e2ba 2d38 7c08 0f37 76d1 7e37 eb6f c637
000002b0: 2f75 71b5 b009 8335 a914 9935 fca4 3336
000002c0: f7d9 4136 65e8 3a36 3f0a ad39 2b90 69af
000002d0: 11c3 ebba c988 c7b6 f02c 1fb6 f5ac ba36
000002e0: 9427 8d3a dd4e 77b7 0f1b f0b6 fc4b b6b6
000002f0: 0bb7 88b7 02bf ceb6 9e20 3bb7 678e 2935
00000300: a0fe 71b6 0c78 32b6 e41d d3b6 fed7 8bb6
00000310: f8ae 3836 bb79 16b7 4af4 e1b6 dd9d 35b6
00000320: f2b5 d8b6 11cd 4db7 1e9c 47b7 fc45 1ab7
00000330: 88b7 e2b6 063f adb6 210d 63b6 c75a 9cb6
00000340: f635 8db6 e9f3 e1b5 355a 46b5 1826 9fb5
00000350: ff8c 53b5 0afa 81b5 ada4 deb5 579e 9eb9
00000360: 9fcb a9ae f29c bbb8 3247 40b5 7133 a636
00000370: ccad 4137 7ff5 87ba 20ce b5b7 a25c 91b7
00000380: 3bd9 b8b7 4d1e aeb5 ad11 edb7 ebfd 8db7
00000390: ab66 b636 7491 30b6 190b 11b8 23f5 f735
000003a0: 08fb 92b5 e20b 04b8 51ad a6b6 5e6c 43b7
000003b0: e7ad a4b7 286a 00b4 a0e1 b1b7 ef23 ecb6
000003c0: fa12 93b7 711b a736 8769 06b8 ccb6 ccb5
000003d0: f410 41b7 2dc7 60b7 445b 3e34 3b92 eeb5
000003e0: 34fb e733 5f3d 15b5 9f3e 28b5 c792 33b5
000003f0: 769a b7b8 c9a0 9b30 b0c3 123b f585 7236

exp_avg_sq f4 [140, 37]
2.282289e-08 2.1390633e-08 1.8937769e-08 1.9612898e-08 2.1166151e-08 1.9516817e-08 2.5232783e-08 2.1745455e-08
1.873815e-08 1.6666942e-08 2.1342952e-08 1.8768791e-08 2.180721e-08 1.8863924e-08 1.3837624e-08 1.5130734e-08
1.9051347e-08 1.566117e-08 1.901595e-08 2.5218835e-08 1.9370317e-07 5.653143e-09 4.2730948e-09 4.820936e-09
1.0128451e-09 1.0151958e-09 9.93908e-10 2.6483943e-10 2.2401217e-10 2.6659927e-10 5.0026456e-06 1.2561372e-19
0.00062450423 1.0202228e-09 2.9367029e-09 1.4129822e-08 5.757098e-05 1.3159489e-08 1.3533504e-08 1.239975e-08
1.5514306e-08 1.8451976e-08 1.3065993e-08 1.2802206e-08 1.19296475e-08 1.3376497e-08 1.8153722e-08 1.2705525e-08
1.6453257e-08 1.6716692e-08 2.1204315e-08 1.7603357e-08 1.4560874e-08 1.4766055e-08 1.667116e-08 2.1754918e-08
1.2189859e-08 1.02828075e-08 4.8323887e-09 5.169975e-09 4.6312665e-09 1.2625163e-09 1.223158e-09 1.1418521e-09
3.462668e-10 3.6366504e-10 3.446668e-10 5.350638e-08 3.8376688e-19 4.3533935e-05 2.2076935e-10 6.57128e-11
5.8904305e-11 6.0306877e-07 7.661275e-09 2.3336577e-08 2.2575419e-08 1.0389836e-08 1.5091112e-08 7.77492e-09
1.2881068e-08 2.0531884e-08 1.3658296e-08 7.513506e-09 7.858499e-09 1.443126e-08 1.4802991e-08 2.1893529e-08
7.822446e-09 7.675977e-09 1.7288832e-08 1.1445368e-08 8.2292235e-09 5.8102456e-09 9.514875e-09 5.815001e-09
5.8126157e-09 8.187228e-09 2.0964044e-09 2.3932378e-09 2.258005e-09 6.717597e-10 6.360517e-10 6.1043226e-10
1.9377183e-07 1.13093805e-20 5.9366816e-05 1.317266e-10 1.9146412e-10 2.576417e-10 2.3195541e-06 2.1364768e-09
6.9672526e-09 4.944718e-09 7.2377366e-09 4.9141584e-09 2.2018563e-09 6.164297e-10 2.9189577e-09 2.0328089e-10
2.275712e-09 3.2152453e-10 1.263843e-09 4.5946152e-10 4.3489976e-09 1.1922887e-09 2.8127786e-10 1.0670126e-09
5.329187e-09 3.752854e-09 1.5772726e-09 1.782628e-09 2.6606786e-10 2.833728e-10 1.8308728e-10 1.2917757e-10
3.2861713e-10 1.7577839e-10 3.800842e-11 4.055426e-11 6.718416e-11 1.2646042e-07 4.0037865e-20 3.2267474e-06
1.5021964e-09 1.9485531e-10 5.1838367e-10 1.4864977e-06 1.3331483e-07 1.2793687e-07 1.3062417e-07 1.4106163e-07
1.2954571e-07 1.3294441e-07 1.2874234e-07 1.1848413e-07 1.283241e-07 1.3850178e-07 1.551531e-07 1.1684771e-07
1.4835484e-07 1.2912281e-07 1.340095e-07 1.0754547e-07 1.3093427e-07 1.1673649e-07 1.3263208e-07 1.02688524e-07
1.08033596e-07 2.9016443e-08 2.8640692e-08 2.9524637e-08 6.3317565e-09 6.2648375e-09 5.645986e-09 1.6189425e-09
1.6399919e-09 1.385743e-09 2.8825143e-06 2.1626385e-20 0.002057782 1.5002644e-09 5.2164917e-10 1.543392e-09
3.4381977e-05 9.647635e-08 1.03424796e-07 8.874069e-08 5.5196626e-08 8.329548e-08 7.181927e-08 1.04553564e-07
8.022395e-08 7.62755e-08 6.073177e-08 8.120332e-08 9.736998e-08 7.351367e-08 8.226246e-08 7.741631e-08
5.757292e-08 7.047024e-08 7.202315e-08 6.9506086e-08 4.5881468e-08 5.46275e-08 1.38891565e-08 1.21238575e-08
1.5581367e-08 1.6899088e-09 2.0082147e-09 2.1966953e-09 3.2704184e-10 2.9302655e-10 3.1084282e-10 3.963202e-06
2.8773865e-21 2.0008805e-05 6.5911915e-10 1.4285089e-09 7.943108e-09 4.661298e-05 4.2781807e-07 3.99666e-07
4.7270703e-07 3.789954e-07 4.188676e-07 3.9493278e-07 4.4679734e-07 3.9106143e-07 5.156441e-07 4.7919366e-07
4.6839776e-07 4.81259e-07 4.3983687e-07 4.360133e-07 3.8524118e-07 4.3135495e-07 3.6739445e-07 3.3115316e-07
4.0130791e-07 3.0566926e-07 3.152387e-07 6.354999e-08 8.223765e-08 7.753508e-08 7.4805016e-09 7.1096657e-09
7.4310713e-09 1.387892e-09 1.3686854e-09 1.3405312e-09 1.0537163e-07 5.902333e-19 3.269683e-05 1.6377415e-10
00000000: 110c c432 80be b732 98ac a232 3879 a832
00000010: dcd0 b532 efa5 a732 7abf d832 c3ca ba32
00000020: a1f5 a032 fe2a 8f32 a655 b732 0239 a132
00000030: 9052 bb32 350a a232 84ba 6d32 d6f8 8132
00000040: 5ba6 a332 4787 8632 8458 a332 cea0 d832
00000050: b9fc 4f34 923d c231 8ad2 9231 67a5 a531
00000060: 5234 8b30 0787 8b30 079a 8830 d698 912f
00000070: d24d 762f 8390 922f 66dc a736 6b4c 1420
00000080: c5b5 233a e637 8c30 06cf 4931 9dbf 7232
00000090: 5e78 7138 0b14 6232 fb80 6832 ad06 5532
000000a0: 5244 8532 5380 9e32 d878 6032 b3f0 5b32
000000b0: 25f3 4c32 75ce 6532 75f0 9b32 7d47 5a32
000000c0: 1855 8d32 6598 8f32 c824 b632 3136 9732
000000d0: 6727 7a32 ccad 7d32 4534 8f32 92df ba32
000000e0: 916b 5132 44a8 3032 240a a631 95a3 b131
000000f0: 0d21 9f31 d884 ad30 0c1c a830 59ef 9c30
00000100: b85c be2f 4eed c72f 8a7b bd2f e3ce 6533
00000110: 3689 e220 3598 3638 0cbd 722f 0581 902e
00000120: 2d88 812e 92e2 2135 a59e 0332 ad75 c832
00000130: dfeb c132 fb7e 3232 b5a1 8132 7692 0532
00000140: 894b 5d32 175e b032 d2a5 6a32 c014 0132
00000150: 0b02 0732 5aed 7732 3e50 7e32 6110 bc32
00000160: 7b63 0632 4edf 0332 8b82 9432 43a1 4432
00000170: 8260 0d32 76a3 c731 dd76 2332 4acd c731
00000180: 4fb8 c731 cfa7 0c32 5610 1031 4976 2431
00000190: 3e2b 1b31 e3a6 3830 29d6 2e30 5acb 2730
000001a0: 980f 5034 cfa0 551e a200 7938 bed5 102f
000001b0: 5c84 522f d9a3 8d2f a3a9 1b36 4cd1 1231
000001c0: 9a64 ef31 33e6 a931 ceaf f831 65d9 a831
000001d0: 774f 1731 6271 2930 d996 4831 7c82 5f2f
000001e0: c062 1c31 8ec2 b02f 86b3 ad30 7697 fc2f
000001f0: 306e 9531 eedd a330 57a2 9a2f 2ba6 9230
00000200: 061c b731 74f2 8031 59c7 d830 a600 f530
00000210: b945 922f 2dc9 9b2f 7d4e 492f 4108 0e2f
00000220: c0a8 b42f 3845 412f ad29 272e 0a5c 322e
00000230: 52bd 932e 2dc9 0734 cf12 3d1f 198b 5836
00000240: d675 ce30 e53e 562f 027e 0e30 ac83 c735
00000250: 4d25 0f34 055f 0934 b341 0c34 ba76 1734
00000260: 4119 0b34 7bbf 0e34 6d3c 0a34 5771 fe33
00000270: 76c9 0934 14b7 1434 2998 2634 b5ed fa33
00000280: 784b 1f34 02a5 0a34 40e4 0f34 bff3 e633
00000290: f096 0c34 90b0 fa33 a169 0e34 9d85 dc33
000002a0: 1900 e833 d53f f932 8c05 f632 5d9d fd32
000002b0: b88e d931 1842 d731 9efe c131 7a81 de30
000002c0: 1666 e130 7f74 be30 3871 4136 6441 cc1e
000002d0: dadb 063b dc31 ce30 cc63 0f30 471f d430
000002e0: 5e35 1038 6f2e cf33 621a de33 b691 be33
000002f0: 5511 6d33 2de0 b233 103b 9a33 ee86 e033
00000300: 9547 ac33 e6cc a333 a56b 8233 ff61 ae33
00000310: b619 d133 91de 9d33 44a8 b033 1140 a633
00000320: 1846 7733 6d55 9733 25ab 9a33 6043 9533
00000330: 350f 4533 929f 6a33 289d 6e32 4a49 5032
00000340: cad7 8532 6142 e830 e300 0a31 acf4 1631
00000350: 0ccb b32f d217 a12f 3de3 aa2f a5fb 8436
00000360: c068 591d 95d8 a737 632d 3530 3055 c430
00000370: 2976 0832 4e82 4338 deae e534 ad91 d634
00000380: 5cc8 fd34 bb78 cb34 b9e0 e034 2607 d434
00000390: 5cdf ef34 13f3 d134 cb6a 0a35 f0a1 0035
000003a0: 1978 fb34 de2f 0135 b822 ec34 3615 ea34
000003b0: 25d3 ce34 f994 e734 4f3e c534 58c9 b134
000003c0: 5773 d734 dd1a a434 143e a934 fa78 8833
000003d0: a09a b033 5c81 a633 9883 0032 4849 f431
000003e0: 6554 ff31 1cc0 be30 561c bc30 c03d b830
000003f0: ab48 e233 c434 2e21 f423 0938 5312 342f

exp_avg f4 [140, 35]
0.00045230376 -4.9244034e-05 -0.0004971669 0.00013018993 -0.00053928024 0.00043659197 0.00033957476 -0.0006755319
-0.00037475253 0.00061339105 0.0005135696 -7.95934e-05 -0.0003622268 6.538182e-05 0.00052035245 -0.00066370156
0.00016605681 0.0005602096 -0.00041632177 0.00054199144 -0.00022733434 -0.00034578834 -0.0005938966 1.11790205e-05
3.5025125e-06 -0.00016066847 0.00058509776 0.0006296262 0.00038584173 0.00052302924 0.00058818393 6.121548e-06
0.00053071114 -0.0003371796 -0.00017687224 -7.576488e-05 -7.1724906e-05 6.227657e-05 -3.389577e-05 7.787098e-05
-5.906184e-05 -3.7463607e-05 9.6872005e-05 4.9338818e-05 -9.549714e-05 -5.7605805e-05 1.6708453e-05 7.600307e-05
-1.4241977e-05 -7.051663e-05 0.00010478531 -4.090318e-05 -8.2642786e-05 7.540895e-05 -6.482627e-05 -2.726049e-06
8.933111e-05 8.575923e-05 -3.3641427e-06 -1.4555312e-06 8.625111e-05 -8.20559e-05 -8.808002e-05 -4.397196e-05
-9.206694e-05 -7.758454e-05 -5.9351423e-06 -6.5410844e-05 3.1882122e-05 4.010892e-05 -9.77606e-05 -7.712585e-05
8.439097e-05 -4.148845e-05 9.9872734e-05 -7.472107e-05 -4.5710214e-05 0.00012678957 6.301582e-05 -0.0001228261
-7.813014e-05 2.6338048e-05 9.46083e-05 -2.2292907e-05 -9.436775e-05 0.00013626176 -5.6759236e-05 -0.000104477454
9.848369e-05 -8.571328e-05 -8.318584e-06 0.00011381491 0.00011424233 -4.253718e-06 -5.562191e-07 0.000104092396
-0.00010735478 -0.00011361819 -6.2998115e-05 -0.00011677096 -0.00010524262 -4.149146e-06 -8.806889e-05 4.1834828e-05
4.987094e-05 6.952483e-05 5.8897218e-05 -5.5992834e-05 3.2377167e-05 -7.0885646e-05 5.3902913e-05 3.4101147e-05
-8.948606e-05 -4.6017183e-05 8.8019624e-05 5.1265873e-05 -1.525947e-05 -7.033785e-05 1.4928656e-05 6.607096e-05
-9.782632e-05 3.9872244e-05 7.518145e-05 -6.808732e-05 5.550609e-05 5.1786933e-06 -8.234347e-05 -7.956627e-05
3.4225477e-06 1.4055619e-06 -7.539912e-05 7.5172546e-05 8.032484e-05 4.160895e-05 8.4808395e-05 6.9980146e-05
5.551457e-06 5.7545254e-05 -2.8717515e-05 -3.6707646e-05 0.00021092879 0.00011446702 -0.0001994137 8.850428e-05
-0.00023245325 0.00018182001 0.0001220766 -0.0002990152 -0.00015423687 0.00029279923 0.0001943618 -4.5782723e-05
-0.0001944778 4.456679e-05 0.00023059062 -0.00031091814 0.00010826491 0.00024403974 -0.00020184918 0.00021020808
-2.8320512e-05 -0.00024712455 -0.0002643541 1.8020994e-05 1.4965652e-05 -0.00018872888 0.00025178655 0.00026780326
0.00014315173 0.00026818734 0.00024499523 5.3935205e-06 0.00020812482 -0.000118229946 -9.906192e-05 -0.00023473693
-0.00020256046 0.0001924588 -0.000102464706 0.00023920852 -0.0001821056 -0.0001213777 0.00029657446 0.00015103037
-0.00029335625 -0.00018128946 5.290671e-05 0.00023143226 -4.6179106e-05 -0.00021433283 0.00032040535 -0.00012514614
-0.00025367187 0.00023494719 -0.00020785083 -1.4456165e-05 0.00027042674 0.00026339456 -1.101491e-05 -9.0915e-06
0.00026122585 -0.00025284736 -0.00027036777 -0.00014100071 -0.00028312518 -0.00024259188 -1.7512762e-05 -0.00020808313
0.00010121495 0.000121505254 -4.34927e-05 7.5667806e-05 5.5014152e-05 -5.1843544e-06 6.2289066e-05 -5.527998e-05
-5.6604145e-05 7.2164665e-05 4.844623e-05 -6.2640254e-05 -6.216603e-05 -2.5317665e-06 2.0922293e-05 -3.6009865e-06
-5.307432e-05 6.566034e-05 -8.9921843e-07 -6.1477636e-05 2.7679653e-05 -6.551986e-05 6.0608767e-05 3.5966684e-06
6.367339e-05 -1.9718852e-06 -8.842949e-06 -5.6535944e-05 -6.2888415e-05 -6.918036e-05 -4.661553e-05 -4.850418e-05
-5.687974e-05 -4.395897e-06 -6.163189e-05 5.3945056e-05 1.023804e-05 2.7031417e-06 -7.5928865e-06 -1.285219e-05
-7.6025494e-06 4.177489e-06 1.3578565e-05 4.4432563e-06 4.044589e-07 -2.3446896e-06 1.4026832e-05 1.2582439e-05
00000000: 2f23 ed39 618b 4eb8 4e54 02ba 9883 0839
00000010: 7c5e 0dba 62e6 e439 f408 b239 2e16 31ba
00000020: 6f7a c4b9 facb 203a 13a1 063a 62eb a6b8
00000030: 42e9 bdb9 991d 8938 4368 083a 42fc 2dba
00000040: 891f 2e39 08db 123a c345 dab9 6e14 0e3a
00000050: 9960 6eb9 ed4a b5b9 baaf 1bba 878d 3b37
00000060: b50c 6b36 1d79 28b9 3f61 193a 800d 253a
00000070: cd4a ca39 e61b 093a 5b30 1a3a b267 cd36
00000080: 6c1f 0b3a 7bc7 b0b9 c876 39b9 f6e3 9eb8
00000090: 046b 96b8 7b9a 8238 4e2b 0eb8 aa4e a338
000000a0: 2bb9 77b8 3e22 1db8 c327 cb38 27f1 4e38
000000b0: a345 c8b8 c39d 71b8 2129 8c37 d663 9f38
000000c0: d3f0 6eb7 54e2 93b8 2fc0 db38 758f 2bb8
000000d0: 8250 adb8 df24 9e38 57f3 87b8 2af1 36b6
000000e0: 4657 bb38 a3d9 b338 88c3 61b6 ac5b c3b5
000000f0: b6e1 b438 6d15 acb8 9ab7 b8b8 886e 38b8
00000100: 1014 c1b8 e2b4 a2b8 7c26 c7b6 2e2d 89b8
00000110: 2bb9 0538 a03a 2838 d304 cdb8 a0be a1b8
00000120: 0ffb b038 e203 2eb8 c472 d138 92b3 9cb8
00000130: f8b8 3fb8 d1f2 0439 5c27 8438 e1ca 00b9
00000140: cdd9 a3b8 87f0 dc37 7268 c638 a701 bbb7
00000150: 4de7 c5b8 7de1 0e39 c410 6eb8 e81a dbb8
00000160: 0789 ce38 f8c0 b3b8 0c90 0bb7 eaaf ee38
00000170: 6295 ef38 29bb 8eb6 164f 15b5 2e4c da38
00000180: a923 e1b8 4d46 eeb8 db1d 84b8 efe2 f4b8
00000190: b4b5 dcb8 e538 8bb6 a0b1 b8b8 ce77 2f38
000001a0: 842c 5138 dccd 9138 6808 7738 d9d9 6ab8
000001b0: b8cc 0738 71a8 94b8 d015 6238 d407 0f38
000001c0: 76aa bbb8 9302 41b8 2d97 b838 5006 5738
000001d0: 7601 80b7 5882 93b8 1776 7a37 948f 8a38
000001e0: 1b28 cdb8 7f3c 2738 bcaa 9d38 1aca 8eb8
000001f0: 36cf 6838 a3c4 ad36 d0af acb8 d1dc a6b8
00000200: ecae 6536 bda6 bc35 981f 9eb8 f4a5 9d38
00000210: 1274 a838 4585 2e38 29db b138 4ec2 9238
00000220: a746 ba36 bf5c 7138 65e6 f0b7 89f6 19b8
00000230: c42c 5d39 030e f038 b519 51b9 609b b938
00000240: b2be 73b9 f0a6 3e39 b001 0039 24c5 9cb9
00000250: a5ba 21b9 d982 9939 99cd 4b39 d306 40b8
00000260: bdec 4bb9 3aed 3a38 b3ca 7139 ba02 a3b9
00000270: 480c e338 ebe4 7f39 7aa7 53b9 4d6b 5c39
00000280: d691 edb7 7f90 81b9 0299 8ab9 ca2b 9737
00000290: fc14 7b37 86e5 45b9 3802 8439 f267 8c39
000002a0: 001b 1639 7f9b 8c39 b472 8039 fdf9 b436
000002b0: 153c 5a39 38f2 f7b8 77bf cfb8 b723 76b9
000002c0: 6966 54b9 c4ce 4939 52e2 d6b8 0cd4 7a39
000002d0: 9af3 3eb9 288c feb8 8d7d 9b39 e85d 1e39
000002e0: 9ccd 99b9 8518 3eb9 26e8 5d38 a0ac 7239
000002f0: 70b0 41b8 88be 60b9 14fc a739 a939 03b9
00000300: 43ff 84b9 285c 7639 88f2 59b9 c288 72b7
00000310: 10c8 8d39 3818 8a39 aecc 38b7 b287 18b7
00000320: 24f5 8839 9990 84b9 26c0 8db9 97d9 13b9
00000330: 6b70 94b9 4360 7eb9 5fe8 92b7 e430 5ab9
00000340: 5d43 d438 a3d0 fe38 ee6b 36b8 d8af 9e38
00000350: ffbe 6638 44f5 adb6 30a1 8238 6ddc 67b8
00000360: 3d6a 6db8 1c57 9738 be32 4b38 bb5d 83b8
00000370: 225f 82b8 6be7 29b6 4882 af37 7aa8 71b6
00000380: 1e9c 5eb8 20b3 8938 d261 71b5 8eed 80b8
00000390: 9a31 e837 b567 89b8 2b36 7e38 4b5e 7136
000003a0: 6488 8538 bb54 04b6 2d5c 14b7 0221 6db8
000003b0: f6e2 83b8 ec14 91b8 0b85 43b8 f770 4bb8
000003c0: 2892 6eb8 7880 93b6 5e40 81b8 1043 6238
000003d0: 0cc4 2b37 9f67 3536 66c6 feb6 bc9f 57b7
000003e0: 6719 ffb6 5b2c 8c36 7ecf 6337 4817 9536
000003f0: 6824 d934 7659 1db6 c954 6b37 2a19 5337
