lightning_logs/version_4/checkpoints/epoch=9-step=500.ckpt (torch, 374247 bytes, 69 tensors)

model.param_proj.proj.0.weight f4 [1, 25]
0	0xbd49c7e2	-0.04926289
1	0x3d72955e	0.05922448
2	0x3da4ceb2	0.080472365
3	0xbeab1595	-0.33414903
4	0x3d79f4e4	0.06102456
5	0xbdb6fd85	-0.08935074
6	0xbc620325	-0.013794695
7	0x3caab331	0.020837398
8	0xbe23581b	-0.15951578
9	0xbe3e4d94	-0.18584281
10	0x3e3e7e62	0.18602899
11	0x3dd1a5bc	0.102366894
12	0xbce8af08	-0.028403774
13	0xbe5bb814	-0.21456939
14	0xbe041d69	-0.12901844
15	0x3de17a8c	0.11009702
16	0xbddee1df	-0.10882925
17	0xbddfca6d	-0.109272815
18	0xbdbd85ab	-0.09254011
19	0x3ae82708	0.0017711828
20	0x3dd44df1	0.10366429
21	0x3ca14366	0.019685458
22	0x3e938072	0.28808933
23	0xbdf3fa65	-0.11912993
24	0x3e8af3f0	0.27139235

model.param_proj.proj.1.weight f4 [1, 25]
0	0x3d626991	0.055276457
1	0xbe0319f8	-0.12802875
2	0x3e71c11d	0.23608823
3	0x3c306790	0.010766879
4	0xbde8cc29	-0.113670655
5	0x3de451e7	0.11148434
6	0x3e7f15c9	0.24910654
7	0x3d1823d6	0.03714355
8	0xbd78f2bb	-0.06077836
9	0x3b3cd41a	0.0028812946
10	0xbda31b60	-0.07964206
11	0xbc89b4c2	-0.016809825
12	0x3e5ad883	0.21371655
13	0x3d68776b	0.05675451
14	0x3e2e212d	0.17004843
15	0x3e484962	0.19559243
16	0x3de90570	0.1137799
17	0xbe3ecb07	-0.18632136
18	0xbe4cc2c3	-0.1999617
19	0x3e069268	0.13141787
20	0x3e547ec8	0.20751488
21	0xbdb03a96	-0.086049244
22	0x3de694f8	0.11258882
23	0xbe5eec24	-0.21769768
24	0xbe41aafd	-0.18912883

model.param_proj.proj.2.weight f4 [1, 25]
0	0x3e6fcf2e	0.23418877
1	0x3e24c7af	0.16091798
2	0xbd9571d1	-0.072970994
3	0xbe3684d9	-0.17824115
4	0x3e16aef1	0.14715172
5	0x3e543487	0.20723163
6	0x3d737995	0.05944212
7	0xbe118919	-0.14212455
8	0xbe706bd9	-0.2347864
9	0xbdf26e24	-0.11837414
10	0x3d86b1f3	0.0657691
11	0xbe37b54a	-0.1794025
12	0x3dd762f6	0.10516922
13	0xbe818277	-0.2529485
14	0xbe6deabf	-0.2323408
15	0x3d85be4d	0.065304376
16	0xbe0b1770	-0.1358316
17	0x3e2d57aa	0.16927972
18	0x3e167667	0.14693604
19	0x3ddd0964	0.10792807
20	0xbd5e8a2e	-0.054330997
21	0xbe7c5875	-0.24643119
22	0x3e2d1731	0.16903378
23	0x3cd1c5da	0.025607038
24	0x3d9c07a8	0.07618648

model.rnn.weight_ih_l0 f4 [100, 48]
0	0x3e2bcbee	0.16777012
1	0xbd4bfbf3	-0.049800824
2	0xbd81db8c	-0.06340703
3	0x3d25d1a0	0.040483117
4	0x3e3e34a0	0.18574762
5	0xbe229c00	-0.15879822
6	0xbd0cf660	-0.03441465
7	0xbcaed8e1	-0.02134365
8	0x3cffa603	0.03120709
9	0xbe1ff8a5	-0.15622194
10	0x3d2c1216	0.042009436
11	0x3df84659	0.12122793
12	0x3e3f35e6	0.18672904
13	0x3dbdc691	0.09266389
14	0x3de23adf	0.11046385
15	0xbe30d1b3	-0.17267494
16	0x3dcdbd42	0.10045864
17	0xbe4a4f94	-0.19756919
18	0xbd7b94b0	-0.061421096
19	0xbe14184c	-0.14462394
20	0xbdaec6c2	-0.08534004
21	0x3df8a398	0.12140578
22	0x3baf00ad	0.0053406567
23	0xbe39c432	-0.18141249
24	0xbd5640ee	-0.052308016
25	0x3e217c7d	0.15770145
26	0x3dfda7bd	0.12385509
27	0xbcba5aa6	-0.022748303
28	0x3e265964	0.16245037
29	0x3c87fdd7	0.016600532
30	0x3bd34eea	0.0064486163
31	0x3c48d1ad	0.012257022
32	0x39e76476	0.00044134603
33	0x3db92edb	0.0904214
34	0xbcda63d2	-0.026658926
35	0x3e490842	0.19632056
36	0x3d9d958a	0.07694538
37	0xbe0c9013	-0.13726835
38	0x3cb8ca5b	0.022557428
39	0x3c240276	0.010010352
40	0x3e0377e7	0.12838708
41	0xbdaf766c	-0.08567509
42	0xbcaefeed	-0.021361792
43	0xbdce42a9	-0.10071308
44	0x3d0cb588	0.03435281
45	0xbe8a9bdc	-0.27072036
46	0xbdf5b1ad	-0.119967796
47	0xbd30bc36	-0.043148242
48	0x3deb5b1b	0.11491986
49	0x3de9b85a	0.114121154
50	0xbd20ac92	-0.039227076
51	0x3e46a5cb	0.19399182
52	0x3e6fb750	0.23409772
53	0xbcc804dd	-0.024416381
54	0xbc8f5a91	-0.01749924
55	0x3ecba0c7	0.397711
56	0x3dbe21d0	0.09283793
57	0x3ea13100	0.31482697
58	0x3deee4bc	0.11664721
59	0x3e7cdc91	0.24693514
60	0x3d406bff	0.046977993
61	0x3e3d1b10	0.18467355
62	0x3e148f1b	0.14507715
63	0x3e8be823	0.27325544
64	0x3e0824f3	0.13295345
65	0x3ded32f1	0.11581982
66	0x3d885e73	0.0665864
67	0x3d04acc1	0.032391313
68	0x3e651566	0.22371444
69	0x3e517c82	0.20457652
70	0x3e99fa0e	0.3007359
71	0xbdc2419b	-0.094851695
72	0x3cd4d985	0.025982628
73	0xbd7b13a6	-0.061298035
74	0x3dcfdab5	0.10149137
75	0x3cab9138	0.02094327
76	0x3e85dbd8	0.2614429
77	0x3c8b90a1	0.017036738
78	0x3df403a6	0.119147584
79	0xbcd3c8da	-0.02585261
80	0xbd954582	-0.07288648
81	0x3bff6f9a	0.0077952864
82	0xbcb76780	-0.02238822
83	0x3ca18c90	0.019720346
84	0xbd7684cb	-0.060185235
85	0x3e4c029f	0.19922875
86	0x3cc6b4d9	0.024256157
87	0x3c5efc80	0.013610005
88	0x3e6e18c0	0.23251629
89	0x3dee909f	0.11648678
90	0x3e7f7e9f	0.24950646
91	0xbe09904d	-0.13433953
92	0x3e35c34a	0.17750278
93	0xbe81c09b	-0.2534226
94	0xbcf8f992	-0.030392442
95	0x3e4db0af	0.2008693
96	0x3de18b66	0.11012916
97	0x3dad0bbd	0.084495045
98	0xbd9344ae	-0.07190834
99	0xbd89c793	-0.06727519
100	0xbd374a71	-0.044748727
101	0x3b360a31	0.002777707
102	0x3d2e1361	0.04249895
103	0x3e23df5c	0.16003174
104	0x3ea7df3a	0.32787496
105	0x3d994180	0.07483196
106	0x3e4926bb	0.19643681
107	0x3ea12e1e	0.31480497
108	0x3e5111c0	0.20416927
109	0xbd7c0123	-0.06152452
110	0x3db9acc4	0.090661556
111	0x3ca32bb7	0.019918306
112	0x3e745754	0.23861438
113	0xbc335297	-0.010944984
114	0x3d236d1c	0.039898977
115	0x3e8da935	0.27668157
116	0x3e96e53d	0.2947177
117	0xbc95a85a	-0.018268753
118	0x3e93dab5	0.28877798
119	0x3ea60423	0.3242503
120	0xbcc57aa2	-0.024106327
121	0x3e318443	0.1733561
122	0x3e1d3c91	0.15355136
123	0x3e5acb4a	0.21366611
124	0xbd00d5bc	-0.031453833
125	0xbd730a2b	-0.05933587
126	0x3e388fa8	0.1802355
127	0x3cef0791	0.029178413
128	0x3d6db7cd	0.058036614
129	0x3e2d2b6c	0.16911095
130	0x3d2f8a00	0.042856216
131	0x3e777a06	0.24167642
132	0x3e2927a2	0.16519025
133	0x3df2d0ab	0.118562065
134	0x3dea8b4b	0.11452349
135	0x3e76cee1	0.24102356
136	0x3dba9787	0.09110933
137	0x3d3f2696	0.046667658
138	0xbd8819d4	-0.06645551
139	0xbdcd3292	-0.10019411
140	0x3dea47b9	0.11439461
141	0xbe4ce1fc	-0.20008081
142	0x3e0e3752	0.1388829
143	0x3ea1457a	0.3149832
144	0xbceecbf4	-0.029149987
145	0xbc4951ff	-0.012287616
146	0x3bc40ed4	0.005983213
147	0x3e82d2e7	0.2555153
148	0xbcefd1cd	-0.029274845
149	0x3e3ee1c3	0.18640809
150	0x3e85ba26	0.26118582
151	0x3d7e6b09	0.062113795
152	0xbe1028e1	-0.14078094
153	0x3d3aa36d	0.04556601
154	0xbc1ed244	-0.009693686
155	0x3c2735a0	0.010205656
156	0xbd178f2b	-0.03700177
157	0x3d93e786	0.07221894
158	0x3d59ec89	0.053204093
159	0xbda4754c	-0.08030185
160	0x3da38111	0.07983602
161	0x3e4ff969	0.20309986
162	0xbc1c6f25	-0.009547983
163	0x3e4e9b8b	0.20176522
164	0x3e739831	0.23788525
165	0xbd0c1443	-0.03419901
166	0xbde94aaf	-0.11391198
167	0xbe01ed4c	-0.12688178
168	0xbdf6819b	-0.12036439
169	0xbc65d680	-0.014028192
170	0xbd01ac81	-0.031658653
171	0x3bc22d57	0.005925815
172	0x3e1b4b39	0.15165414
173	0x3e2161b6	0.1575993
174	0x3dae088a	0.084977224
175	0x3e5801eb	0.21094482
176	0x3dd1d128	0.102449715
177	0x3db157b9	0.0865931
178	0x3e5e9d77	0.21739756
179	0x3da8f2ad	0.08249412
180	0xbdd22b79	-0.10262198
181	0xbd4e7b49	-0.050410543
182	0xbdc9fc0b	-0.098625265
183	0xbc479a68	-0.012182809
184	0xbdfebe75	-0.124386705
185	0x3c009b63	0.007849547
186	0xbda0acab	-0.07845434
187	0xbc21872d	-0.009858889
188	0xbcbd86b6	-0.023135524
189	0xbdd1789d	-0.10228083
190	0xbe3b7c46	-0.18309125
191	0x3d828f5c	0.06375
192	0x3cc48195	0.02398757
193	0x3df60d24	0.12014225
194	0xbd8acf98	-0.067778766
195	0xbd3e3900	-0.04644108
196	0x3e55ac1b	0.20866434
197	0x3e82334e	0.25429767
198	0xbd472823	-0.04862226
199	0xbdaa0244	-0.083012134
200	0xbda85a72	-0.08220376
201	0xbd4bde39	-0.049772475
202	0x3d85f10f	0.06540119
203	0xbd1d1e1e	-0.0383588
204	0x3e3a9660	0.18221426
205	0x3c048822	0.008089097
206	0x3e279ef2	0.16369227
207	0x3e3aff28	0.18261397
208	0xbd894278	-0.06702131
209	0x3e2a47b1	0.1662891
210	0x3d659006	0.056045555
211	0xbe287d9e	-0.16454169
212	0x3dda6498	0.10663718
213	0x3e36ee10	0.17864251
214	0x3e0a196f	0.13486265
215	0x3d327076	0.043564282
216	0x3de2d1ec	0.11075196
217	0x3e1182c8	0.14210045
218	0xbe2a879b	-0.16653292
219	0xbe0be663	-0.13662104
220	0x3de54711	0.111951955
221	0xbdf35e26	-0.11883192
222	0xbe0fde67	-0.14049684
223	0xbdfd4528	-0.12366706
224	0xbe2e9af3	-0.17051296
225	0x3bbacb89	0.005700533
226	0xbe1290a3	-0.14312987
227	0x3e13eaba	0.1444501
228	0x3d90056a	0.07032283
229	0xbe4cb1ce	-0.19989702
230	0xbe5105f3	-0.20412426
231	0xbb6b1101	-0.003586829
232	0xbe024c96	-0.12724528
233	0xbd284b35	-0.041087348
234	0x3e163444	0.14668375
235	0xbe3cf6de	-0.18453547
236	0xbd9b8ec9	-0.075955935
237	0x3e0598ee	0.1304662
238	0xbdac52ee	-0.08414255
239	0x3dbb5810	0.09147656
240	0x3e8caced	0.27475682
241	0x3d752e2b	0.059858482
242	0x3e63a1aa	0.22229639
243	0x3e22525a	0.15851727
244	0xbe1cb4e1	-0.15303375
245	0x3e00c5d6	0.12575468
246	0x3d110ee3	0.035414588
247	0x3e7fc923	0.24979071
248	0xbc7969d9	-0.01522299
249	0xba986db4	-0.0011629374
250	0x3df9c806	0.121963546
251	0x3e818080	0.2529335
252	0xbd4c8a92	-0.04993684
253	0x3dd1fb04	0.102529556
254	0xbd1d159b	-0.038350683
255	0x3e0a7785	0.13522156

model.rnn.weight_hh_l0 f4 [100, 25]
0	0x3e0dbfe5	0.13842733
1	0xbd913af5	-0.07091323
2	0x3e004e11	0.1252978
3	0xbdf1ae8b	-0.118008696
4	0x3e06fc85	0.13182266
5	0xba974d98	-0.001154351
6	0x3e1aa8a5	0.15103395
7	0x3e671309	0.22565855
8	0xbdeee607	-0.11664968
9	0xbe13d52a	-0.14436784
10	0x3c1419a0	0.009039313
11	0x3d376d2d	0.044781853
12	0xbe40ac01	-0.18815614
13	0x3d06e44a	0.032932557
14	0x3e1ef810	0.15524316
15	0xbab3b564	-0.0013710675
16	0xbe8c1289	-0.2735789
17	0x3dc2ace1	0.0950563
18	0xbd9c15f4	-0.07621375
19	0x3d3c091c	0.045907125
20	0x3df31158	0.118685424
21	0x3dd1781e	0.10227989
22	0x3e1149f6	0.1418837
23	0x3d8f7d78	0.07006353
24	0x3d91d400	0.07120514
25	0x3e80f092	0.2518354
26	0x3e58e183	0.21179776
27	0x3c47c154	0.012192089
28	0xbf0bb151	-0.5456744
29	0x3df5e0b2	0.12005748
30	0xbda54ec0	-0.08071661
31	0x3e27051a	0.1631054
32	0x3e9536b2	0.29143292
33	0xbe9d58ed	-0.30731907
34	0x3e86b9f6	0.26313752
35	0x3e3f53ca	0.18684307
36	0x3dc3925b	0.095493995
37	0xbe840dfc	-0.2579192
38	0x3ea5d6d5	0.32390466
39	0x3e7da9a5	0.24771746
40	0xbccf7e0d	-0.02532866
41	0xbe8b3771	-0.27190736
42	0xbe74ad5d	-0.23894258
43	0x3eaae964	0.33381188
44	0xbec3ede5	-0.38267437
45	0xbe98f4a8	-0.29874158
46	0xbe65cc5f	-0.22441243
47	0xbe23c5e9	-0.15993465
48	0x3e8d93b2	0.27651745
49	0x3d5b42c6	0.053530477
50	0xbd8bde39	-0.06829495
51	0xbdd01d1d	-0.10161803
52	0x3e58f684	0.21187788
53	0xbea1923e	-0.31556886
54	0x3dcdcc38	0.10048717
55	0x3e0389fd	0.12845607
56	0x3d9e7eed	0.07739053
57	0xbd9b2654	-0.0757567
58	0xbc88217c	-0.01661753
59	0xbcb03907	-0.021511568
60	0x3e895f4e	0.26830524
61	0xbd687733	-0.056754302
62	0x3d8d2b63	0.06893041
63	0x3e5030df	0.20331143
64	0x3e6c57df	0.23080395
65	0xbbbcd038	-0.0057621263
66	0x3dc97f54	0.09838739
67	0x3d4f3692	0.05058915
68	0xbe25d47e	-0.1619434
69	0xbc8cc123	-0.017181939
70	0xbea56862	-0.323062
71	0xbbf4c7cd	-0.007470107
72	0xbe88a1b2	-0.26685864
73	0x3e34152a	0.17586198
74	0xbe32221f	-0.17395829
75	0xbcb8475a	-0.02249496
76	0xbdf674f6	-0.12034027
77	0x3e20cb66	0.1570259
78	0x3d9e61af	0.077334754
79	0x3d9c65a5	0.07636575
80	0x3e19f374	0.15034276
81	0xbcf77eb7	-0.03021179
82	0xbd87a69c	-0.06623575
83	0xbc9fe7ef	-0.019519774
84	0xbe3cc4ee	-0.18434498
85	0x3d8bf384	0.06833556
86	0xbe1709cc	-0.14749831
87	0x3e3d3ae0	0.1847949
88	0x3e03f18b	0.1288511
89	0xbc1edf25	-0.0096967565
90	0x3d5e1c06	0.054225944
91	0xbc71c2e0	-0.0147559345
92	0x3e5c122d	0.21491309
93	0x3bbebc5f	0.0058207954
94	0x3e59eaac	0.21280926
95	0x3e1bf267	0.15229188
96	0xbdd27157	-0.10275524
97	0xbdcb6182	-0.099307075
98	0x3dc0b6f8	0.094098985
99	0xbd42c420	-0.04755032
100	0xbe12c90d	-0.14334507
101	0x3e7d7166	0.2475029
102	0x3e73e512	0.23817852
103	0xbe2bcaed	-0.16776629
104	0x3db79428	0.089638054
105	0x3d86d9ea	0.065845326
106	0x3d4a43cb	0.04938106
107	0xbe29c609	-0.1657945
108	0x3daa263c	0.08308074
109	0xbe02326f	-0.12714551
110	0x3d5057a2	0.050864823
111	0x3d4f2e36	0.05058118
112	0xbe84847a	-0.25882322
113	0xbd8c9085	-0.068635024
114	0xbdb491f7	-0.08816903
115	0x3e064042	0.1311045
116	0x3c331ba2	0.010931881
117	0xbd3c81bf	-0.046022173
118	0x3dab2a83	0.08357718
119	0xbdc52473	-0.09626093
120	0x3d9bea96	0.07613103
121	0x3dc3b77a	0.0955648
122	0xbde4fabc	-0.11180636
123	0xbde71f59	-0.11285276
124	0x3dc438d1	0.09581149
125	0x3deb88ec	0.11500725
126	0xbe4ca0e5	-0.19983251
127	0xbe09c473	-0.13453846
128	0x3d7e4b9c	0.062083825
129	0xbe8ada93	-0.27119884
130	0x3e4acdae	0.19805023
131	0x3d2595b0	0.040425956
132	0xbe4fa1f3	-0.20276622
133	0x3d836395	0.06415478
134	0xbe786e2f	-0.24260782
135	0x3e34288e	0.17593595
136	0xbd4bd10c	-0.04975991
137	0xbe5174ef	-0.20454763
138	0xbe2e0dbb	-0.16997425
139	0x3db08a3d	0.08620117
140	0x3df3e9f1	0.11909855
141	0x3ded149c	0.115761966
142	0xbd8c7c55	-0.06859652
143	0xbd3fac87	-0.046795394
144	0xbdf0d3f4	-0.11759177
145	0xbd995849	-0.07487542
146	0xbbb0c69a	-0.005394769
147	0x3e3991db	0.18122046
148	0x3db6d21d	0.08926795
149	0xbe2c3e21	-0.16820575
150	0x3e2bfc86	0.16795549
151	0xbe0e90e6	-0.13922462
152	0x3ceddd11	0.029036077
153	0xbc3a5a32	-0.011374043
154	0x3da4fd27	0.080560975
155	0xbdb29e3f	-0.08721589
156	0x3df844fc	0.12122533
157	0x3e347296	0.17621836
158	0xbe82af87	-0.25524542
159	0x3e1f30e0	0.15545988
160	0xbdba4660	-0.09095454
161	0x3d3d3336	0.046191417
162	0xbebd3ae9	-0.36959007
163	0x3e4f76e6	0.202602
164	0xbd3839e7	-0.044977095
165	0xbe0ddbab	-0.13853328
166	0x3d07590e	0.033043914
167	0xbe7cf45a	-0.24702588
168	0xbd80dd0b	-0.062921606
169	0xbdf95f23	-0.12176349
170	0xbdf887a8	-0.121352494
171	0xbbbb0a33	-0.005708003
172	0xbe1c4468	-0.1526047
173	0x3e503dee	0.20336124
174	0x3e504c8b	0.20341699
175	0x3de7bb45	0.11315016
176	0x3caaaf56	0.02083556
177	0xbe5ff518	-0.2187084
178	0x3ea3fc28	0.32028317
179	0x3d4e7731	0.05040664
180	0x3d143b76	0.03618952
181	0x3dbf65b9	0.09345574
182	0xbbe81c0d	-0.007083422
183	0x3e0e8d25	0.1392103
184	0x3c8e290b	0.017353555
185	0xbe330d9d	-0.17485662
186	0x3e202bd0	0.15641713
187	0x3e86e49c	0.2634629
188	0xbdf78963	-0.12086751
189	0xbdf62718	-0.12019175
190	0xbdd82d6b	-0.10555538
191	0x3d82ef44	0.063932925
192	0x3d584726	0.052802227
193	0x3d7cb07f	0.061691757
194	0x3ca324c5	0.019914994
195	0xbca33344	-0.019921906
196	0x3e494d5f	0.19658421
197	0xbd9e77b3	-0.077376746
198	0xbd4d903f	-0.050186392
199	0xbd5160b1	-0.051117603
200	0xbc66a4c0	-0.014077365
201	0xbedbb818	-0.4291389
202	0xbe40581b	-0.1878361
203	0xbea45c18	-0.32101512
204	0xbe6e5aa0	-0.23276758
205	0xbde09d64	-0.1096752
206	0xbe958c6f	-0.29208705
207	0xbcf62de9	-0.030051189
208	0xbe1a1ca8	-0.15049994
209	0x3e5b20a4	0.2139917
210	0x3e9e177d	0.30877295
211	0x3dc16f28	0.094450295
212	0xbcb10b19	-0.021611737
213	0xbca398d5	-0.019970337
214	0xbe550c43	-0.20805459
215	0x3e520a37	0.20511709
216	0xbe9cfa3a	-0.30659658
217	0x3d7cd2cb	0.061724465
218	0x3db4bbce	0.088248834
219	0xbd74ff4d	-0.059813786
220	0xbe2f92ce	-0.17145845
221	0x3e3d59ce	0.18491289
222	0x3d8f0d08	0.069849074
223	0x3d08dcfd	0.033413876
224	0xbe64a28e	-0.22327635
225	0x3e18a3bd	0.14906211
226	0xbdc41536	-0.09574358
227	0x3d32144a	0.04347638
228	0xbd464406	-0.048404716
229	0x3d538f21	0.05165017
230	0x3d9a8f60	0.07546878
231	0xbc21eb62	-0.00988278
232	0x3d1cf9d7	0.038324203
233	0xb9413850	-0.00018426892
234	0xbd5346c1	-0.051581148
235	0xbc86607a	-0.016403425
236	0x3d63b934	0.055596545
237	0xbe32abbf	-0.17448328
238	0x3c984836	0.01858912
239	0xbc574625	-0.013139282
240	0x3da60254	0.08105913
241	0x3dbb8108	0.0915547
242	0xbdcaf34e	-0.09909688
243	0xbca9c0a1	-0.020721735
244	0xbd9530bd	-0.07284687
245	0xbcc06207	-0.023484243
246	0x3e239d07	0.1597787
247	0xbd3e8712	-0.04651553
248	0xbe12c2d9	-0.14332141
249	0x3d7095d2	0.05873663
250	0x3e51d8ca	0.20492855
251	0x3cca2032	0.024673555
252	0xbca4be99	-0.020110415
253	0xbeeb37d9	-0.45941046
254	0x3e92e88a	0.28693038
255	0xbe98b537	-0.29825756

model.rnn.bias_ih_l0 f4 [100]
0	0x3de9081e	0.11378501
1	0x3e17a332	0.14808348
2	0xbd761d03	-0.06008626
3	0xbc3819e4	-0.011236642
4	0x3d0b4594	0.0340019
5	0xbde5014f	-0.1118189
6	0x3ca6eeb1	0.020377489
7	0x3e26ff2b	0.16308276
8	0x3d098e80	0.033583164
9	0x3d15c728	0.036566883
10	0x3e159de6	0.14611015
11	0xbc3f2ad4	-0.011667926
12	0x3e2751df	0.16339825
13	0xbdd03fc6	-0.10168414
14	0x3e300c30	0.17192149
15	0xbd020a83	-0.031748306
16	0xbc036cfe	-0.008021591
17	0x3e59ca4a	0.21268573
18	0xbd06a03b	-0.03286765
19	0x3da01952	0.078173295
20	0x3e0b46f9	0.13601293
21	0x3becf52c	0.007231375
22	0x3dfdd730	0.123945594
23	0x3b43c056	0.002986928
24	0xbe2635f9	-0.16231526
25	0x3def1a76	0.11674969
26	0xbe122392	-0.14271381
27	0x3d0d502d	0.03450029
28	0xbdb2889a	-0.08717461
29	0xbd97787b	-0.07396027
30	0xbc908b7a	-0.017644633
31	0x3e2e4a7c	0.17020601
32	0xbb0007fa	-0.0019536004
33	0x3d93f7ed	0.072250225
34	0x3e2f1c29	0.17100586
35	0x3d0d109f	0.03443968
36	0x3e7d5b5f	0.24741887
37	0xbc7cff50	-0.015441731
38	0xbdf7b092	-0.12094225
39	0x3d9b536c	0.07584271
40	0x3d42163c	0.047384486
41	0x3e1015b8	0.14070785
42	0x3ddf2128	0.10894996
43	0x3c887bc4	0.016660579
44	0x3d1ab117	0.037766542
45	0xbc8dcdd1	-0.017310055
46	0x3df68735	0.120375074
47	0x3e2eee04	0.17082983
48	0xbe3b6158	-0.18298852
49	0xbe17c29c	-0.14820331
50	0xbdc82945	-0.097734965
51	0xbe4afc58	-0.19822824
52	0x3e05f05b	0.1307997
53	0xbe517135	-0.20453341
54	0xbcb51ddd	-0.022108966
55	0xbe20b3d6	-0.15693602
56	0x3eac52a5	0.33656803
57	0x3d863c4e	0.06554471
58	0xbd94281b	-0.07234212
59	0xbd247475	-0.040150125
60	0xbdc5a4e8	-0.09650594
61	0x3e0f6f65	0.14007337
62	0x3d4827ae	0.048865966
63	0x3d88d86e	0.06681906
64	0x3dbe1679	0.0928163
65	0x3e06714c	0.13129157
66	0xbe6c9b89	-0.23106207
67	0xbd97e7a2	-0.07417227
68	0x3ced5238	0.028969869
69	0xbe8b6fb8	-0.27233672
70	0xbe18bc12	-0.14915493
71	0xbdf9351b	-0.12168332
72	0xbdd72e43	-0.105068706
73	0x3e6ff1cc	0.23432082
74	0x3c046b9b	0.008082296
75	0x3ddca6ef	0.107740276
76	0x3e5a8035	0.2133797
77	0xbbd73f7c	-0.006568847
78	0xbddbf784	-0.10740569
79	0x3cf5a086	0.02998377
80	0xbdf88882	-0.12135412
81	0xbd558078	-0.05212447
82	0x3dddc007	0.10827642
83	0x3dfc109d	0.12307856
84	0x3e0d665e	0.13808581
85	0x3e358cc6	0.17729482
86	0x3c15baa7	0.00913874
87	0xbd574b89	-0.05256227
88	0x3e32b6dd	0.1745257
89	0x3e0a9bbd	0.13535972
90	0xbe165acc	-0.14683074
91	0xbd798e1b	-0.060926538
92	0x3d0f6aa3	0.035013806
93	0x3de8b013	0.113617085
94	0x3e8119a5	0.25214878
95	0x3df9eb25	0.122030534
96	0x3dd4276a	0.1035908
97	0xbe01ef69	-0.12688984
98	0x3e6734f8	0.225788
99	0x3df12bcc	0.11775932

model.rnn.bias_hh_l0 f4 [100]
0	0x3bd73372	0.006567412
1	0x3dd64915	0.10463158
2	0x3e032237	0.1280602
3	0x3e31b0af	0.17352556
4	0x3e5a5962	0.2132316
5	0x3e319c34	0.17344743
6	0x3e17056d	0.14748164
7	0x3d208322	0.039187558
8	0x3e528a61	0.205606
9	0x3e9104a1	0.28323844
10	0x3ea42e27	0.3206646
11	0xbd41e79d	-0.047340024
12	0x3e97f9c3	0.2968274
13	0x3cc1d1a1	0.02365953
14	0x3d8ac323	0.067755006
15	0x3ea1fd8e	0.3163876
16	0xbc4c2912	-0.012460964
17	0x3c800af3	0.015630221
18	0xbd21d558	-0.0395101
19	0x3df3327f	0.11874866
20	0x3e3495ca	0.17635265
21	0x3e30870e	0.1723902
22	0x3d1a8300	0.037722588
23	0xbda2d5f1	-0.07950962
24	0x3d642ac8	0.055704862
25	0x3e777324	0.24165016
26	0xbe35d69b	-0.17757647
27	0xba893d7a	-0.0010470592
28	0x3e09fc7b	0.1347522
29	0x3e3dbb7c	0.18528551
30	0xbe3070d4	-0.1723054
31	0x3e4f708c	0.20257777
32	0x3d4644d4	0.048405483
33	0xbd3d245e	-0.04617726
34	0xbcda90f3	-0.026680445
35	0x3e17a621	0.14809467
36	0xbdbf4989	-0.093401976
37	0xbd215311	-0.03938586
38	0xbe05ef46	-0.13079557
39	0x3bcf5d58	0.006328266
40	0xbe144e1a	-0.14482918
41	0x3e3c30cc	0.1837799
42	0xbc1f0ddc	-0.009707894
43	0x3e5e5694	0.21712714
44	0xbe18cb34	-0.14921266
45	0xbdab138e	-0.08353339
46	0x3de1abcf	0.11019098
47	0x3d47acfd	0.04874896
48	0x3e0d3985	0.13791473
49	0x3ce9ebb6	0.028554779
50	0xbd1a33cc	-0.037647054
51	0xbe147689	-0.14498343
52	0xbd82d618	-0.063884914
53	0x3d81c225	0.06335858
54	0x3e1f38dc	0.15549034
55	0x3e22dd74	0.1590479
56	0x3a91adcf	0.0011114421
57	0x3cfb8fba	0.030708183
58	0xbe3e2355	-0.18568166
59	0x3e40b948	0.18820679
60	0xbda7049e	-0.081551775
61	0xbddb9141	-0.10721064
62	0xbe0411ba	-0.12897387
63	0x3e5bfd91	0.21483447
64	0x3e77e42b	0.24208133
65	0xbc7067b2	-0.01467316
66	0x3d719c75	0.0589871
67	0x3e435d50	0.19078565
68	0x3d9e04c2	0.07715751
69	0xbe1908e6	-0.149448
70	0xbd429216	-0.0475026
71	0x3db419d4	0.08793989
72	0x3e5b0ca9	0.21391548
73	0x3d38e5e0	0.0451411
74	0x3dac00c8	0.083985865
75	0x3e1e390b	0.15451448
76	0x3d827e6b	0.063717686
77	0xbc1d5527	-0.009602821
78	0x3dbfc8ad	0.09364448
79	0x3dd74828	0.105118096
80	0x3e167afb	0.14695351
81	0x3ea8647b	0.3288916
82	0xbde42a78	-0.11140913
83	0x3e50863e	0.2036371
84	0x3e52d092	0.20587376
85	0x3e4e341c	0.20137066
86	0xbdf9587e	-0.12175082
87	0xbc97a77a	-0.018512476
88	0x3db2e286	0.08734612
89	0x3e4c9f3d	0.1998262
90	0x3dea3d87	0.11437517
91	0x3e754b9f	0.23954628
92	0xbdd96bd2	-0.10616268
93	0x3d9efb67	0.07762795
94	0xbdd35a6c	-0.10319981
95	0x3e9ff7d1	0.31243756
96	0xbe2af7c2	-0.16696075
97	0xbe1d5d13	-0.15367536
98	0x3d514cd3	0.051098656
99	0x3e19b471	0.15010239

model.rnn.weight_ih_l1 f4 [100, 25]
0	0x3e1538d5	0.14572461
1	0xbe9e44aa	-0.30911762
2	0x3e62ef84	0.2216168
3	0xbe7e46e0	-0.24831724
4	0xbda6d890	-0.08146775
5	0xbea12b08	-0.31478143
6	0x3e492bab	0.19645564
7	0x3e813cd8	0.25241733
8	0xbe408cc1	-0.18803693
9	0x3e07bbd4	0.13255244
10	0x3e491f00	0.19640732
11	0xbd112e0b	-0.0354443
12	0xbe8f7248	-0.28016877
13	0x3e1fe3e9	0.15614285
14	0x3d9f8fde	0.07791112
15	0x3d270b66	0.040782355
16	0xbe22bbcf	-0.15891956
17	0x3c520d1b	0.012820507
18	0x3e5962b9	0.21229066
19	0xbe39ff45	-0.18163784
20	0xbe55440b	-0.20826738
21	0xbd1cdc5c	-0.03829609
22	0xbbbd4230	-0.0057757124
23	0x3db3b73e	0.08775185
24	0x3cdd63e9	0.02702518
25	0xbdadbd96	-0.08483426
26	0xbd9cdb93	-0.07659068
27	0x3e338df1	0.17534615
28	0xbee6c503	-0.45072183
29	0x3db05929	0.08610756
30	0xbe7ef35f	-0.24897526
31	0x3e18e1f2	0.14929941
32	0x3d7e0376	0.06201502
33	0xbe9f9cbc	-0.31174266
34	0x3eb7f70c	0.3593067
35	0x3cbefb58	0.02331321
36	0x3e25f01c	0.16204876
37	0xbea96d55	-0.33091226
38	0x3e9e413d	0.30909148
39	0x3e2a2adc	0.16617912
40	0xbe0ed554	-0.13948566
41	0xbdc164d7	-0.09443062
42	0xbd34f758	-0.044181198
43	0xbc8892bb	-0.016671529
44	0xbe415f62	-0.18884042
45	0xbe6d0718	-0.23147237
46	0xbdab7d14	-0.08373466
47	0xbeaf077f	-0.34185407
48	0x3ea9260a	0.33036834
49	0x3e00e330	0.12586665
50	0x3deeeb43	0.11665966
51	0xbe7d1e23	-0.24718527
52	0x3d6094d7	0.054829445
53	0xbe3e13eb	-0.18562286
54	0x3e239058	0.15973032
55	0xbd350d4e	-0.04420214
56	0x3e408aa6	0.1880289
57	0x3e4fa3a6	0.2027727
58	0xbdea2113	-0.1143209
59	0x3d237122	0.039902814
60	0x3e3bd20e	0.18341848
61	0x3e61eace	0.22062227
62	0xbe548168	-0.2075249
63	0x3e47a597	0.19496761
64	0x3e1699c3	0.14707093
65	0xbe48d479	-0.19612302
66	0xbe47c037	-0.19506918
67	0xbdcee6b0	-0.10102594
68	0x3e7a8825	0.24465998
69	0xbe8d5cd2	-0.2760988
70	0xbe669510	-0.225178
71	0xbd365c8e	-0.04452186
72	0xbe70929f	-0.23493432
73	0x3ce464f6	0.027880173
74	0x3e220fa3	0.15826277
75	0x3e087eb5	0.13329585
76	0xbeeae82c	-0.45880258
77	0x3e115aa2	0.1419473
78	0xbe9f014d	-0.3105568
79	0x3e4fb25a	0.2028288
80	0xbeb36652	-0.35039002
81	0x3e45e72e	0.1932647
82	0x3e8dc0ca	0.2768615
83	0xbeb472cf	-0.35243842
84	0x3e9f532a	0.31118137
85	0x3e7697b7	0.24081312
86	0x3e031c07	0.1280366
87	0xbe67b500	-0.2262764
88	0x3e3620e9	0.17785992
89	0x3ec017ba	0.37518102
90	0xbdb947e4	-0.09046915
91	0xbe0bf71d	-0.13668485
92	0xbe1b5c8e	-0.15172026
93	0xbd19e306	-0.037570022
94	0xbdce7cf9	-0.100824304
95	0xbe8ebfba	-0.2788065
96	0xbe9d1893	-0.3068281
97	0xbe2a616c	-0.16638726
98	0x3eab8e72	0.33507115
99	0xb9b259b4	-0.0003401764
100	0x3e454738	0.19265449
101	0xbdd06a0c	-0.10176477
102	0x3e47f736	0.19527897
103	0xbcc79683	-0.024363762
104	0xbe64a13c	-0.22327131
105	0xbe5d12df	-0.2158923
106	0x3dfdc6a7	0.123914056
107	0xbdab77f6	-0.0837249
108	0xbd6ae4f0	-0.057347238
109	0x3e4885ef	0.19582342
110	0x3e222c60	0.1583724
111	0xbd02a84f	-0.031898793
112	0xbd95ab24	-0.07308033
113	0xbe0df358	-0.1386236
114	0x3e1b175f	0.15145634
115	0xbdf74346	-0.12073378
116	0x3dcc202e	0.09967075
117	0x3d20ef84	0.03929092
118	0x3e182349	0.1485721
119	0x3af37739	0.001857496
120	0xbb7a8090	-0.0038223602
121	0x3e25ed9c	0.16203922
122	0xbdcff248	-0.10153633
123	0x3e657629	0.22408356
124	0x3b3d7f13	0.0028914853
125	0x3dad44d0	0.084603906
126	0xbe130469	-0.14357151
127	0x3e2ba71b	0.16762964
128	0xbd5e31e0	-0.054246783
129	0x3e04b372	0.12959078
130	0x3e0575cc	0.13033217
131	0x3ce0215c	0.027359657
132	0x3d772640	0.060339212
133	0x3d9f0624	0.07764843
134	0xbdc16090	-0.09442246
135	0x3dbfe59a	0.09369965
136	0xbc10b16b	-0.008831362
137	0xbe038185	-0.12842377
138	0x3e865453	0.2623621
139	0x3d297d66	0.041379355
140	0xbd95d835	-0.07316629
141	0x3e015389	0.12629522
142	0xbe3bbbeb	-0.18333404
143	0xbde09516	-0.10965936
144	0x3d8de95e	0.06929277
145	0x3c50bd8c	0.012740504
146	0xbe3e4cdf	-0.18584011
147	0xbc9f42ad	-0.019440973
148	0x3e3778e2	0.17917207
149	0xbd93500c	-0.07193002
150	0x3e65e19b	0.22449343
151	0xbdf6c3a1	-0.12049032
152	0x3e18a35a	0.14906064
153	0x3caece7f	0.0213387
154	0xbdb6c963	-0.0892513
155	0xbe1e0fa2	-0.15435651
156	0xbe45d8c3	-0.1932097
157	0xbc7379a1	-0.014860542
158	0x3c9fb194	0.019493856
159	0x3e20be32	0.15697554
160	0x3e411d46	0.18858823
161	0xbc994cdf	-0.018713413
162	0xbe5ea040	-0.21740818
163	0xbe2a2116	-0.16614184
164	0x3e2ef78b	0.17086618
165	0xbd2622c7	-0.04056051
166	0x3e8cefbe	0.2752666
167	0xbd694ecf	-0.056959923
168	0x3e47f3b5	0.1952656
169	0xbe39d028	-0.18145812
170	0x3e1bb564	0.15205914
171	0x3d3b4660	0.04572141
172	0x3d719a1d	0.058984865
173	0x3de814a1	0.1133206
174	0x3e059359	0.1304449
175	0x3d656828	0.056007534
176	0xbe82f6e6	-0.25578994
177	0x3e83f59e	0.2577333
178	0x3d10073e	0.035163157
179	0x3d33dc21	0.043911103
180	0xbe895553	-0.2682291
181	0xbd1bd785	-0.038047332
182	0x3da145da	0.07874651
183	0xbcf5d51c	-0.030008845
184	0x3a632e66	0.00086662767
185	0x3d112518	0.035435766
186	0x3e6824e8	0.22670329
187	0xbe87f1d0	-0.26551676
188	0xbcabe23e	-0.020981904
189	0x3ccf3568	0.02529402
190	0x3db255de	0.08707784
191	0x3d3b7b5f	0.045771953
192	0xbe51597f	-0.20444296
193	0xbc61461f	-0.013749628
194	0x3cbaf650	0.02282253
195	0x3d2a816b	0.04162733
196	0xbdc2c8f7	-0.09510987
197	0x3d5392a0	0.051653504
198	0x3bccc901	0.0062495475
199	0x3e6da190	0.23206162
200	0x3e15b53e	0.1461992
201	0xbedfb74b	-0.4369453
202	0xbd9d1b95	-0.076712765
203	0x3e17dbf1	0.14829995
204	0xbdb8533e	-0.09000252
205	0xbce0762a	-0.027400095
206	0xbe43741b	-0.1908726
207	0x3e4ecd24	0.20195442
208	0xbe7c3d7d	-0.24632831
209	0xbd48d306	-0.049029373
210	0x3e70cbd0	0.23515248
211	0xbcb51d71	-0.022108765
212	0xbea52d24	-0.32261002
213	0xbdb5c232	-0.088749304
214	0x3e856601	0.26054385
215	0x3dc37189	0.095431395
216	0xbddc36c9	-0.10752637
217	0x3c9042e1	0.017610015
218	0x3e5cf637	0.21578299
219	0xbdaabb26	-0.08336477
220	0xbe065812	-0.13119534
221	0x3d5b8e92	0.053602763
222	0xbe37ff60	-0.17968512
223	0x3d7af94f	0.061272915
224	0xbd5a3127	-0.05326953
225	0x3da23ae3	0.07921388
226	0xbe0a9202	-0.1353226
227	0x3e291027	0.16510068
228	0xbc80b68f	-0.01571205
229	0x3e879142	0.2647801
230	0xbd7da60b	-0.06192593
231	0x3da3cf88	0.07998568
232	0x3b1b472d	0.0023693547
233	0x3c79d37e	0.015248178
234	0x3e2a4f6b	0.16631858
235	0x3e59c456	0.21266302
236	0x3e2bb96f	0.16769956
237	0xbe3a6c31	-0.18205334
238	0xbb62f577	-0.0034631172
239	0x3dafd0e9	0.08584768
240	0xbe133543	-0.14375786
241	0x3e014d63	0.12627177
242	0xbe75b695	-0.23995431
243	0x3e42aa39	0.19010247
244	0x3d526de0	0.051374316
245	0xbe23cc2b	-0.15995853
246	0xbe262ea7	-0.16228734
247	0xbd9845ef	-0.07435214
248	0xbd720068	-0.05908242
249	0x3b9741e4	0.004616009
250	0x3d4cff29	0.050048027
251	0xbe62da28	-0.22153533
252	0x3e6d6576	0.23183236
253	0xbea870b3	-0.32898483
254	0x3e310c29	0.17289795
255	0xbe48135b	-0.19538634

model.rnn.weight_hh_l1 f4 [100, 25]
0	0xbd86c76f	-0.06581008
1	0x3e19beff	0.15014265
2	0xbc675cb8	-0.014121227
3	0x3e0197f6	0.12655625
4	0xbd9fb6a3	-0.07798507
5	0xbc62c999	-0.01384201
6	0x3dfb87d8	0.122817695
7	0x3d37be2e	0.044859104
8	0x3d57801a	0.0526124
9	0x3d195206	0.03743174
10	0x3d4de532	0.050267406
11	0x3de1323a	0.10995908
12	0xbe6abe14	-0.22924072
13	0x3e1ac669	0.1511475
14	0x3e5037f4	0.20333844
15	0xbe1193fc	-0.14216608
16	0x3ce41a61	0.02784461
17	0x3cc2acdf	0.023764072
18	0xbe696c85	-0.22795303
19	0xbdf08685	-0.117444076
20	0x3c48d7b3	0.012258458
21	0xbdb823b3	-0.08991184
22	0xbe403995	-0.18771966
23	0x3d556753	0.05210049
24	0xbcee1f96	-0.029067796
25	0xbda20a12	-0.07912077
26	0x3e42335e	0.18964908
27	0xbda8542f	-0.08219182
28	0x3e7c2696	0.24624094
29	0x3e657599	0.22408141
30	0xbdb9a035	-0.0906376
31	0xbdf102df	-0.11768126
32	0x3e5b12b8	0.2139386
33	0xbd682f17	-0.056685533
34	0xbc87d037	-0.016578777
35	0xb9b876c5	-0.00035183705
36	0x3d76830d	0.060183574
37	0xbe3a4fc3	-0.18194489
38	0x3e67c377	0.22633158
39	0x3d985967	0.07438927
40	0x3e04e387	0.1297742
41	0xbd8cd03f	-0.06875657
42	0x3e3aa769	0.18227924
43	0xbd874521	-0.06604982
44	0xbd001c37	-0.031276908
45	0xbe5693cd	-0.20954819
46	0xbd84e365	-0.064886846
47	0xbe8385cf	-0.25688025
48	0xbe4930bf	-0.19647501
49	0xbc81bf4e	-0.015838291
50	0xbe231c36	-0.1592873
51	0xbc40b749	-0.011762449
52	0x3db58580	0.08863354
53	0x3e4d5643	0.20052437
54	0xbd903f48	-0.0704332
55	0xbe5ec366	-0.21754226
56	0x3e13412d	0.14380331
57	0x3d94fb2c	0.0727447
58	0xbd480e0c	-0.04884152
59	0x3dc4e457	0.09613865
60	0xbe54a94e	-0.2076771
61	0xbe07df4f	-0.13268779
62	0xbe0e6dac	-0.13909024
63	0x3e20d3b7	0.15705763
64	0xbe0aa394	-0.13538963
65	0xbda46f55	-0.080290474
66	0x3cbe5ec4	0.023238547
67	0xbe239a3e	-0.15976807
68	0xbe2c5d3a	-0.16832438
69	0x3dfd35c2	0.12363769
70	0xbdbb8d8e	-0.09157859
71	0xbe2fada4	-0.17156082
72	0x3dec62ed	0.11542306
73	0xbdddfe8f	-0.10839569
74	0xbe36742b	-0.17817752
75	0xbe079524	-0.13240486
76	0x3de393ef	0.111122005
77	0x3d368810	0.044563353
78	0x3e27f202	0.16400912
79	0xbd11e6c0	-0.03562045
80	0xbe47a530	-0.19496608
81	0xbe2fac45	-0.1715556
82	0x3e0644ec	0.13112229
83	0x3d992ce3	0.074792646
84	0xbe312141	-0.17297842
85	0xbda19ed7	-0.078916244
86	0x3e612eff	0.21990584
87	0x3c336065	0.010948275
88	0xbbce42d3	-0.006294587
89	0xbdb676e7	-0.089093976
90	0x3e0753f0	0.13215613
91	0xbd6ac0a2	-0.057312615
92	0x3cd79add	0.026318962
93	0x3cee17db	0.02906411
94	0xbd30fd65	-0.043210406
95	0xbe06c7b3	-0.13162117
96	0x3e04cf09	0.12969603
97	0x3db1ae9e	0.08675884
98	0x3d5d12c9	0.053972993
99	0x3d13699f	0.0359894
100	0xbe03cd0a	-0.12871185
101	0x3ccea6fe	0.025226112
102	0x3bc86c19	0.006116402
103	0x3d98439c	0.074347705
104	0xbdfec353	-0.12439599
105	0xbe11f027	-0.14251767
106	0xbe25ad6d	-0.16179438
107	0xbd930a60	-0.07179713
108	0x3df09425	0.11747006
109	0x3e221d3d	0.15831466
110	0xbe196c91	-0.14982821
111	0x3e16c2a4	0.14722687
112	0x3da3f063	0.080048345
113	0xbe20a0d8	-0.15686357
114	0xbe1bd281	-0.1521702
115	0xbe247a1a	-0.16062203
116	0x3d00ff9c	0.031493768
117	0x3e79faf7	0.24412142
118	0x3cea6785	0.028613815
119	0x3e224614	0.15847045
120	0x3e376593	0.17909841
121	0x3ded7595	0.115946926
122	0x3e15d44c	0.14631766
123	0xbd1f0699	-0.03882465
124	0xbd0bb852	-0.03411133
125	0xbd12b6ce	-0.035818867
126	0x3e4ad15c	0.19806427
127	0x3e788052	0.242677
128	0x3d2a131f	0.04152214
129	0x3dc990b2	0.098420516
130	0x3e622bf2	0.22087076
131	0x3d746a50	0.0596717
132	0x3e18dd7b	0.14928238
133	0xbda30128	-0.07959205
134	0x3c9e12e3	0.019296115
135	0xbe445c17	-0.19175754
136	0x3d160377	0.036624398
137	0xbd82af2e	-0.06381069
138	0xbdb4d489	-0.088296
139	0xbd2417f7	-0.040061917
140	0x3e1ad2c4	0.15119463
141	0xbe968d1a	-0.29404527
142	0x3d8da80c	0.06916818
143	0x3d96615d	0.07342789
144	0xbd914254	-0.07092729
145	0x3e968340	0.2939701
146	0xbdd8a2e7	-0.10577946
147	0xbd50e711	-0.051001612
148	0x3d9988ae	0.07496773
149	0x3d304c11	0.043041293
150	0xbdf313df	-0.118690245
151	0x3e15e4ad	0.14638014
152	0xbe1879cd	-0.14890213
153	0xbe04937e	-0.12946889
154	0xbdaaab1f	-0.0833342
155	0x3e00ff12	0.12597302
156	0x3e45acda	0.19304219
157	0x3d2623d3	0.04056151
158	0xbcd4dcae	-0.025984135
159	0x3dce31ca	0.1006809
160	0x3d82b51d	0.06382201
161	0x3e19dcd2	0.15025643
162	0x3cd73e2a	0.02627476
163	0xbe1b2194	-0.15149528
164	0xbbc2ec7c	-0.0059486013
165	0xbd81f716	-0.06345956
166	0x3e3f2745	0.18667324
167	0x3e0480c9	0.12939753
168	0xbde7b6aa	-0.11314137
169	0xbe2af449	-0.1669475
170	0xbdfaaec3	-0.122403644
171	0x3e01d532	0.12678984
172	0xbc2f8514	-0.010712881
173	0x3ba937f1	0.0051641394
174	0xbe0bf3ac	-0.13667172
175	0xbe3cf5cc	-0.18453139
176	0x3dcdf831	0.100571044
177	0xbd264acc	-0.040598676
178	0xbde81e29	-0.113338776
179	0x3e371466	0.17878875
180	0xbcb610f4	-0.02222488
181	0x3e3efb15	0.18650468
182	0x3d8b6a0e	0.06807338
183	0xbe364a17	-0.178017
184	0x3b1eaaec	0.0024210764
185	0x3e1951c4	0.14972597
186	0x3dd34471	0.103157885
187	0x3e2e5fff	0.17028807
188	0xbdf29d0f	-0.11846363
189	0xbdcbe3e5	-0.09955577
190	0xbe5119f3	-0.20420055
191	0x3e190100	0.14941788
192	0xbe1e99c3	-0.15488343
193	0xbdaeb825	-0.085312165
194	0xbdb56cf9	-0.088586755
195	0x3debcd02	0.115137115
196	0xbe1c31b6	-0.15253338
197	0x3db4fd30	0.08837354
198	0xbcebe782	-0.028796915
199	0xbd6c44ba	-0.05768273
200	0x3e338140	0.17529774
201	0x3d987890	0.074448705
202	0xbd94ccd2	-0.07265629
203	0xbe5122cd	-0.20423432
204	0x3cb3fde7	0.021971656
205	0x3e1c15c4	0.15242678
206	0xbd9f5bfb	-0.07781216
207	0x3e1dd0d0	0.15411687
208	0xbe578b9f	-0.21049355
209	0xbe29dd8f	-0.16588424
210	0xbe1a33e5	-0.15058859
211	0xbc91f75c	-0.017818145
212	0x3c623979	0.013807648
213	0xbd4dd4dc	-0.050251827
214	0x3d60c48a	0.054874934
215	0x3daa5359	0.083166786
216	0x3e51d9d9	0.20493259
217	0x3d432aeb	0.04764835
218	0x3e1f689d	0.1556725
219	0xbdddd25b	-0.10831138
220	0xbe14883a	-0.14505091
221	0xbe355d36	-0.17711338
222	0x3ce31312	0.027719054
223	0xbe25d4ee	-0.16194507
224	0xbdc6505d	-0.09683297
225	0xbd82fe7d	-0.06396196
226	0x3e1d17ec	0.15341157
227	0xbe035fd2	-0.12829521
228	0x3e144936	0.14481053
229	0x3e474ee9	0.19463696
230	0xbd7cf9ff	-0.061761852
231	0xbdb3aba9	-0.08772976
232	0xbe05923a	-0.13044062
233	0x3df14bf7	0.11782067
234	0x3d3f6274	0.04672475
235	0xbe6b8dbf	-0.2300329
236	0x3e0bb353	0.13642626
237	0xbd08a987	-0.0333648
238	0xbe36af16	-0.17840227
239	0xbce8f08c	-0.028435014
240	0x3df53732	0.11973418
241	0xbdb5e01f	-0.08880638
242	0x3da09f1b	0.07842847
243	0xbde620b7	-0.112367086
244	0x3db4b897	0.0882427
245	0xbe327e2e	-0.17430946
246	0xbe0456ec	-0.12923783
247	0xbd207011	-0.039169375
248	0x3d04dbdf	0.032436248
249	0x3e219551	0.15779616
250	0xbdfc740e	-0.12326823
251	0x3d5abc97	0.05340251
252	0xbe681b2d	-0.22666617
253	0x3de35128	0.11099464
254	0xbdb224b6	-0.08698408
255	0xbe21bfd3	-0.15795831

model.rnn.bias_ih_l1 f4 [100]
0	0x3e86606e	0.26245445
1	0x3da721bf	0.081607334
2	0x3de239a1	0.11046148
3	0x3d0132cd	0.031542588
4	0x3e2b3ba5	0.16721971
5	0x3e148f6c	0.14507836
6	0x3e4a2b17	0.19743
7	0x3dc38ccc	0.09548339
8	0x3dca725a	0.09885092
9	0xbda2a47f	-0.079415314
10	0x3ea77dd9	0.32713202
11	0xbdbdac65	-0.09261397
12	0x3d7dffef	0.062011655
13	0xbd179f7c	-0.03701733
14	0xbcc9d183	-0.024636036
15	0x3d3259fb	0.043542843
16	0x3dc3600d	0.095398046
17	0x3e94d955	0.2907206
18	0x3e598243	0.21241097
19	0xbd12d969	-0.03585187
20	0x3dce4187	0.10071092
21	0x3e189b62	0.14903024
22	0x3e60b99e	0.21945807
23	0x3e0ca7a0	0.13735819
24	0xbae53ecf	-0.0017490032
25	0x3ddc9d15	0.107721485
26	0x3e06e9f9	0.13175191
27	0xbccbf076	-0.024894934
28	0xbc8bdd0e	-0.01707318
29	0x3e10a623	0.14125876
30	0x3e408aef	0.18802999
31	0xbd09ed7a	-0.03367374
32	0xbc731b9c	-0.014838126
33	0xbe49eaae	-0.1971843
34	0x3da0015d	0.0781276
35	0xbd59ac7a	-0.053143002
36	0x3e7c8bdd	0.24662729
37	0x3e6250d7	0.2210115
38	0x3dec0f2e	0.11526333
39	0x3e396fe1	0.18109085
40	0xbe114a95	-0.14188607
41	0xbd0d4cd4	-0.034497097
42	0xbe43c0ff	-0.19116591
43	0x3c980c83	0.018560654
44	0xbe4e0322	-0.20118383
45	0x3cebb1e1	0.028771343
46	0xbb9e4f9f	-0.004831269
47	0x3e441cd4	0.19151622
48	0xbda17ec3	-0.07885506
49	0xbd97b32c	-0.07407221
50	0x3e5acfbd	0.21368308
51	0x3dd7b373	0.10532274
52	0xbc3dafcf	-0.011577561
53	0x3e3a15bb	0.18172352
54	0xbdb5ada2	-0.088710085
55	0xbe3bbdb2	-0.18334082
56	0x3d0f7173	0.035020303
57	0x3e24baef	0.16086935
58	0x3d90e6d7	0.07075279
59	0xbdc4637e	-0.09589289
60	0xbe594406	-0.21217355
61	0x3be000b0	0.0068360195
62	0xbb81a7f7	-0.0039567905
63	0x3e04b3b3	0.12959175
64	0xbca41fbe	-0.020034667
65	0xbe2e8ec7	-0.17046653
66	0x3e372401	0.17884828
67	0x3e31ba9e	0.17356345
68	0xbe0f02e3	-0.13965945
69	0x3e5a9046	0.21344098
70	0x3e162004	0.1466065
71	0xbe12b3ed	-0.14326449
72	0xbdf7fcf8	-0.12108797
73	0xbd42cd96	-0.047559343
74	0x3c9eb8c2	0.019375209
75	0x3e0620bd	0.13098426
76	0x3d9665e2	0.07343651
77	0x3cbbc156	0.022919338
78	0xbc92060c	-0.017825149
79	0x3d08b185	0.03337242
80	0x3e3f0541	0.18654348
81	0xbce11f48	-0.027480736
82	0xbe01bc7b	-0.12669556
83	0x3e110c44	0.14164835
84	0x3e29e093	0.16589575
85	0x3e89e523	0.2693263
86	0x3e3ec8b6	0.18631253
87	0xbd146725	-0.03623118
88	0xbdd4775a	-0.10374327
89	0x3e6ecdc9	0.23320688
90	0x3dc84a7a	0.0977983
91	0xbd0d6c7c	-0.034527287
92	0x3e0184e1	0.12648346
93	0x3dcc4e07	0.0997582
94	0xbd975c8d	-0.073906995
95	0xbd636fad	-0.055526424
96	0x3a416b0b	0.00073783164
97	0xbdb64ae8	-0.08901006
98	0x3e5741f2	0.2102125
99	0x3d5c7140	0.05381894

model.rnn.bias_hh_l1 f4 [100]
0	0x3d998a02	0.07497026
1	0x3e8fcb8f	0.2808499
2	0x3e84b471	0.25918916
3	0x3e752b9a	0.23942414
4	0xbde71e1c	-0.1128504
5	0x3e5ef3a5	0.2177263
6	0x3b17055f	0.0023043973
7	0x3df42200	0.119205475
8	0xbdb15612	-0.08658995
9	0xbe15c844	-0.14627177
10	0x3e9e5bbb	0.3092936
11	0x3dc0aef6	0.09408371
12	0x3d1e6995	0.03867491
13	0x3e7a6d97	0.24455868
14	0x3e746768	0.23867571
15	0x3e2eebaf	0.17082094
16	0x3d1e8568	0.038701445
17	0x3c8764bf	0.016527532
18	0xbb9da818	-0.004811298
19	0xbdbb5d82	-0.091486946
20	0x3e52cde0	0.20586348
21	0x3ce3eb76	0.027822237
22	0x3e4d87a1	0.2007127
23	0x3e05f32e	0.13081047
24	0x3e5d0d4c	0.21587104
25	0xbd0522a1	-0.032503728
26	0xbd2f6de7	-0.04282942
27	0x3e3307e6	0.17483482
28	0x3d9b2c28	0.075767815
29	0xbdd01619	-0.10160465
30	0x3dcd58f0	0.10026729
31	0x3c898b55	0.016790072
32	0x3d689c58	0.056789726
33	0x3d026852	0.03183777
34	0x3de0407d	0.109498
35	0x3dee65c1	0.11640502
36	0xbd7ea28e	-0.062166743
37	0x3d90bea4	0.07067612
38	0xbdde3729	-0.10850365
39	0x3e1a5872	0.15072802
40	0xbd946efe	-0.072477326
41	0x3e3039b2	0.17209509
42	0xbdb1d316	-0.086828396
43	0x3c85d20f	0.016335515
44	0xbe08e43a	-0.13368312
45	0x3c813bd3	0.015775597
46	0x3ce7235a	0.0282151
47	0x3d86b380	0.06577206
48	0xbe237ffe	-0.15966794
49	0x3de124f9	0.1099338
50	0x3daa76fb	0.08323475
51	0x3e92acc8	0.28647447
52	0x3a63a716	0.00086842605
53	0x3e288dc5	0.16460331
54	0x3e2320d9	0.15930499
55	0xbe310292	-0.17286137
56	0x3db24f3a	0.087065175
57	0x3dfdfd03	0.12401774
58	0xbe1347d3	-0.14382868
59	0xbe066ebe	-0.13128182
60	0x3d7b3ba1	0.061336163
61	0xbdd87c8a	-0.10570629
62	0x3dbaaf1d	0.091154315
63	0x3cee5934	0.02909527
64	0xbd61b27e	-0.055101864
65	0xbd614956	-0.05500158
66	0x3ddd8c8a	0.10817821
67	0x3e190db3	0.14946632
68	0xbd931507	-0.07181745
69	0x3d7bf877	0.06151625
70	0xbe44489b	-0.19168322
71	0xbd99b199	-0.07504577
72	0xbe2c9cf7	-0.16856752
73	0xbd20e9d2	-0.03928549
74	0xbe8a79b6	-0.27045983
75	0x3c8e9508	0.017405048
76	0x3d8beedb	0.068326674
77	0x3dd3b53a	0.103373006
78	0x3e0a8892	0.1352866
79	0xbe1f5128	-0.15558302
80	0x3e74f488	0.23921406
81	0xbdacc021	-0.08435083
82	0x3c462863	0.01209459
83	0x3e10b931	0.14133145
84	0x3ddb3806	0.10704045
85	0x3e002f56	0.12518057
86	0xbe1bcd56	-0.15215048
87	0x3d5be0fb	0.053681355
88	0x3d9b4fc7	0.07583576
89	0xbce4dcd4	-0.02793733
90	0x3d616ee1	0.055037383
91	0xbe222410	-0.15834069
92	0xbccfee99	-0.025382327
93	0xbcf018fe	-0.029308792
94	0x3d107933	0.035271835
95	0xbc11312a	-0.008861819
96	0x3e3bacd4	0.18327647
97	0x3dced153	0.10098519
98	0xbc1571fb	-0.009121413
99	0x3cd27e86	0.025695097

model.rnn.weight_ih_l2 f4 [100, 25]
0	0x3e2a60c4	0.16638476
1	0x3dc5259a	0.096263126
2	0xbdca68b1	-0.098832496
3	0x3ebf3faf	0.37353274
4	0x3b3c8316	0.0028764657
5	0xbe1d2d67	-0.15349351
6	0x3e7e7b43	0.24851708
7	0xbd12963a	-0.0357878
8	0xbe8951fc	-0.26820362
9	0x3e809e0b	0.25120577
10	0xbe84a546	-0.25907344
11	0x3e33a41b	0.1754307
12	0xbe5e8b69	-0.21732868
13	0x3c93cbce	0.018041518
14	0xbd61afc5	-0.055099268
15	0x3b185576	0.0023244298
16	0x3dada33c	0.084784
17	0xbe112d4d	-0.14177437
18	0xbe82c01e	-0.255372
19	0x3d6d2bb6	0.057903014
20	0x3c55d910	0.01305224
21	0xbde3ac18	-0.11116809
22	0xbe0a2906	-0.13492212
23	0xbea3552e	-0.31900924
24	0xbda9baae	-0.082875594
25	0x3eb1417e	0.3462028
26	0x3e6391d4	0.22223598
27	0xbe0ae15a	-0.13562527
28	0x3e3dec67	0.18547212
29	0x3d8a9f1a	0.067686275
30	0xbeac7870	-0.33685637
31	0x3d967b59	0.073477454
32	0x3e803086	0.2503702
33	0xbd47d116	-0.048783384
34	0x3e97a561	0.29618362
35	0xbed28e58	-0.41124225
36	0x3e1007d5	0.14065488
37	0x3dabebfc	0.0839462
38	0x3e3ce75b	0.1844763
39	0x3db00b12	0.085958615
40	0xbe0d3c0b	-0.13792436
41	0x3e51bd82	0.20482448
42	0xbd73446e	-0.05939143
43	0xbec05c80	-0.37570572
44	0x3e1a4a43	0.15067391
45	0xbdd971ed	-0.10617433
46	0xbe2262f2	-0.15858057
47	0x3d78c6de	0.06073653
48	0xbe875388	-0.26430917
49	0xbe53aa5c	-0.20670456
50	0x3cfb4aa9	0.03067525
51	0xbbb584b1	-0.0055394997
52	0x3cf92a2f	0.030415623
53	0x3e5e2f43	0.21697716
54	0x3dac6ff1	0.08419789
55	0xbe394ef1	-0.1809652
56	0x3d9a83ce	0.07544671
57	0xbdb9ff22	-0.09081866
58	0x3e13e674	0.1444338
59	0xbb32ead2	-0.0027300608
60	0xbdedaadb	-0.11604854
61	0x3e2d2ee2	0.16912416
62	0xbd3152c8	-0.043291837
63	0x3e40324f	0.18769191
64	0x3dcca748	0.09992844
65	0x3bc89dc6	0.0061223237
66	0x3dde16cf	0.10844194
67	0xbc7ee32b	-0.015557091
68	0x3d9a0254	0.07519975
69	0x3e110582	0.14162257
70	0xbc1e9aa2	-0.009680422
71	0xbdad84e0	-0.084726095
72	0x3e08351f	0.13301514
73	0xbd8a1994	-0.0674316
74	0xbe686533	-0.22694854
75	0x3ea85ae0	0.32881832
76	0x3d6bc536	0.057561122
77	0x3d7f3c93	0.062313627
78	0x3e63fb79	0.22263898
79	0x3eb540a1	0.3540087
80	0xbe010f23	-0.1260343
81	0x3e39c98e	0.18143293
82	0x3dfab510	0.12241566
83	0x3d917c4d	0.071037866
84	0x3e4b0719	0.19826926
85	0xbece2ea4	-0.4026996
86	0x3e891ae2	0.26778322
87	0xbdf2fc3f	-0.118645184
88	0x3e95b8fc	0.29242694
89	0xbd99b576	-0.07505314
90	0xbe081ff4	-0.13293439
91	0x3dbba629	0.09162552
92	0x3e493f24	0.19652992
93	0xbebcc6c8	-0.36870408
94	0x3eaace23	0.33360395
95	0xbc675827	-0.014120138
96	0xbdf66265	-0.12030486
97	0xbe8328ce	-0.2561707
98	0xbe7c2252	-0.24622467
99	0xbeac6d0c	-0.33676946
100	0x3da0d7b7	0.07853644
101	0x3e5cc77e	0.21560475
102	0xbe2eaf4c	-0.17059058
103	0x3e7b695a	0.24551907
104	0xbca9f44e	-0.020746376
105	0xbe0aff97	-0.13574062
106	0x3e5d13de	0.2158961
107	0xbd92ce38	-0.07168239
108	0xbe147b45	-0.14500149
109	0xbe011175	-0.12604316
110	0x3d355e5f	0.044279452
111	0xbdbcf3b7	-0.092261724
112	0x3ddc782d	0.10765109
113	0x3e252394	0.16126853
114	0x3d4ff345	0.05076911
115	0x3db1e720	0.08686662
116	0x3d19bb1f	0.03753197
117	0xbe91b690	-0.28459597
118	0xbe831175	-0.25599256
119	0xbd759497	-0.05995616
120	0xbd6a4856	-0.05719789
121	0x3dd9e77a	0.10639854
122	0xbde4e4d4	-0.11176458
123	0xbdbc15b0	-0.09183824
124	0x3dafdb2d	0.08586726
125	0x3d3514dd	0.04420935
126	0x3c4690e5	0.0121195065
127	0x3d4b13d2	0.04957945
128	0x3e6e86e9	0.23293652
129	0x3da47c92	0.080315724
130	0xbe6e27ca	-0.23257366
131	0x3e675d5e	0.2259421
132	0x3dfd36d6	0.12363975
133	0xbcc1d4b8	-0.023661003
134	0xbd943a85	-0.07237724
135	0xbdf96798	-0.12177962
136	0x3ce8654f	0.02836862
137	0x3deec2bb	0.11658236
138	0x3d7cb286	0.06169369
139	0x3c844fbf	0.016151307
140	0x3d616315	0.055026133
141	0x3de19132	0.11014022
142	0xbd56d030	-0.052444637
143	0xbe94bbdf	-0.29049584
144	0xbcd36cb3	-0.025808668
145	0xbe63518b	-0.22199075
146	0xbd703f25	-0.05865397
147	0xbe39dd54	-0.18150836
148	0xbea06a63	-0.31331167
149	0xbddb68b3	-0.10713329
150	0x3e5513aa	0.20808282
151	0x3de74805	0.112930335
152	0xbd920494	-0.071297795
153	0x3ebe35b7	0.37150356
154	0xbd9fe21a	-0.07806797
155	0x3c444af8	0.011980765
156	0x3e6d1801	0.23153688
157	0x3e0ada6c	0.13559884
158	0x3e01e0cb	0.12683408
159	0x3cc417e9	0.023937183
160	0xbebe0712	-0.3711477
161	0xbc516118	-0.012779497
162	0x3dccd0db	0.100007735
163	0xbd90f2f9	-0.07077593
164	0xbdc680bd	-0.09692524
165	0xbe38176c	-0.17977685
166	0x3e2f8d35	0.1714371
167	0x3da0a467	0.07843857
168	0xbbfd9125	-0.00773825
169	0x3d804cda	0.06264658
170	0xbe3ae247	-0.1825038
171	0xbe9e9a35	-0.30977026
172	0xbe2cc2f9	-0.16871251
173	0xbe1e9584	-0.15486723
174	0x3d90ddbb	0.07073542
175	0x3e1b2457	0.15150581
176	0xbc20447d	-0.009781954
177	0xbe088325	-0.13331278
178	0x3ca889f2	0.02057359
179	0x3dfb492e	0.12269817
180	0x3e3924b4	0.18080407
181	0x3da3655c	0.07978317
182	0xbddeb01e	-0.108734354
183	0x3e1a3f8e	0.15063307
184	0x3e68a10c	0.22717685
185	0x3dababb2	0.08382358
186	0xbdc847e1	-0.09779335
187	0x3da3a2fd	0.07990072
188	0xbda26141	-0.07928706
189	0xbe2a25f6	-0.16616043
190	0xbd9d3fb1	-0.07678164
191	0xbd8091af	-0.06277787
192	0x3c811b2e	0.01576003
193	0xbe2e6685	-0.17031296
194	0x3e3941b0	0.18091464
195	0x3dc2d5f6	0.09513466
196	0xbe4dede9	-0.20110287
197	0x3d1ef97c	0.038812146
198	0x3d299d2b	0.041409653
199	0x3d836950	0.06416571
200	0x3e228b17	0.15873371
201	0xbdd764aa	-0.10517247
202	0xbe63becc	-0.22240752
203	0x3e33dad7	0.1756395
204	0x3e5f1893	0.21786718
205	0xbe53e1c1	-0.20691587
206	0x3d12a9e2	0.035806544
207	0x3dc07612	0.0939752
208	0xbde4597a	-0.11149879
209	0xbc9f409c	-0.019439988
210	0xbe9cc103	-0.30616006
211	0x3df84f64	0.121245176
212	0xbe4d4f6b	-0.20049827
213	0xbdd862d4	-0.10565725
214	0xbdabe4ff	-0.08393287
215	0xbe7498f4	-0.23886472
216	0x3e82bd76	0.25535172
217	0xbbfc1571	-0.0076929857
218	0xbdadc388	-0.0848456
219	0xbd8cdcb2	-0.06878032
220	0xbdcb1db4	-0.09917775
221	0xbe69a0df	-0.22815274
222	0xbe5aae96	-0.21355662
223	0xbeaa4979	-0.3325918
224	0x3ccf2b44	0.025289185
225	0x3d7d02f9	0.061770413
226	0x3d30f04b	0.04319791
227	0xbe803182	-0.2503777
228	0x3eea42b5	0.45754018
229	0x3e170e00	0.14751434
230	0xbe7e312e	-0.24823448
231	0x3e53bf11	0.20678355
232	0x3e2f5408	0.17121899
233	0xbdecb07a	-0.11557098
234	0x3e67309e	0.2257714
235	0xbeb788aa	-0.35846454
236	0x3e323e9d	0.17406698
237	0xbe14d77e	-0.14535329
238	0xbc838614	-0.016055144
239	0xbd2445ac	-0.040105507
240	0xbe8326b9	-0.2561548
241	0x3e51b83e	0.20480439
242	0x3e547161	0.20746376
243	0xbd58d659	-0.052938793
244	0x3d86e4b6	0.06586592
245	0xbe450073	-0.19238453
246	0xbe955d7e	-0.2917289
247	0x3c1555f9	0.009114736
248	0xbd9614c8	-0.073281825
249	0xbe0fe156	-0.14050803
250	0x3e885166	0.26624602
251	0x3e9dd509	0.30826595
252	0xbda7ad1a	-0.081873134
253	0x3e4c0a0e	0.1992571
254	0x3e6670e6	0.22504005
255	0xbe569a6b	-0.20957343
