lightning_logs/version_10/checkpoints/epoch=3-step=200.ckpt (torch, 704318 bytes, 45 tensors)

model.param_proj.proj.0.weight f4 [1, 49]
00000000: 75a3 a13d b190 44be dc22 dfbd e069 08be
00000010: 283f 8eba 5748 3a3e 84fc 44be 899e d6bd
00000020: 6faa bd3d 1a6b 843d 65e3 46be cee3 e03d
00000030: 0350 04bd 9d7c e63d 84e1 56be 2a23 a83b
00000040: a428 0b3e 936e 04bd 8a41 0bbe 8f4a afbd
00000050: 859a b3bd b9f4 f7bc c780 28be 5023 61bc
00000060: 5a80 e33d ec34 9d3d 5256 7b3c 3296 83bd
00000070: 0429 8fbd f138 dabd eff6 c83d 2634 123e
00000080: 6604 0abe 9584 e4bd af3c bbbd 6de9 bd3d
00000090: 368b 7e3d 6e5c f53d e35e 3e3e 52d7 183e
000000a0: 6355 363e cade 4b3e d04e 003e c85a ca3d
000000b0: 519f 9bbd 52a6 ffbd 63ed fe3b 66e4 1b3e
000000c0: ac0a 0bbe
0.07892505 -0.1919582 -0.10895321 -0.13321638 -0.0010852562 0.18191658 -0.19236952 -0.10479457
0.09261023 0.064657405 -0.19422682 0.1098095 -0.032302868 0.11254237 -0.20984465 0.005131145
0.13589722 -0.032332014 -0.1359922 -0.08559143 -0.08769707 -0.03026806 -0.16455375 -0.013741329
0.111084655 0.0767611 0.015340405 -0.06425132 -0.06990245 -0.10655392 0.09812724 0.14277706
-0.1347824 -0.111581005 -0.09142434 0.09273038 0.06214448 0.1198052 0.18590884 0.14925888
0.1780601 0.19909206 0.12530065 0.098805964 -0.075987466 -0.12482895 0.0077797635 0.15223846
-0.1357829

model.param_proj.proj.1.weight f4 [1, 49]
00000000: 5c60 a5bb c29b e53d fa99 743d f52a 753d
00000010: fe64 ce3d d9bb 753c bc68 c63a c562 3d3d
00000020: 7081 b33d ccc3 7abd b12a 583a 2530 813c
00000030: 9d57 7c3d 1b88 793d 8656 94bd ec49 773b
00000040: 2226 cfbd 9f56 b93d 4541 2b3e f620 b0bc
00000050: a57e 893d 9ade 823d 118a 93bc a52e 4bbd
00000060: 1482 84bd e937 313c 8380 82bd 030b 3e3d
00000070: 710e d13d 4190 7b3b 1f72 d63d 9273 003b
00000080: 8e16 1abd c0a4 063e 2a2e 1a3e e2bc 0ebe
00000090: 40df d0bb 8a26 c9bd 1b67 dbbb 5ee2 b4bd
000000a0: 6f8f d8bd c6d6 c8bd 15dc 9f3d b691 d33a
000000b0: 1ca3 9abd f54f ac3c cb1d 983d 208f 1d3c
000000c0: 0d2d 8e3d
-0.0050468873 0.11211349 0.059717156 0.05985542 0.100778565 0.0149984 0.0015137414 0.046236772
0.087649226 -0.061221883 0.00082461076 0.015770027 0.061606992 0.060920816 -0.072430655 0.003773327
-0.10114695 0.09049725 0.16724117 -0.021500092 0.06713609 0.06390114 -0.018010171 -0.04960503
-0.06470123 0.010816553 -0.06372168 0.04639722 0.102078326 0.0038385543 0.104709856 0.0019600135
-0.037619166 0.13148785 0.15056673 -0.1393924 -0.0063742697 -0.09821804 -0.0066956407 -0.088322386
-0.10574233 -0.0980659 0.07805649 0.0016141448 -0.07550642 0.02103422 0.074275576 0.009616643
0.069421865

model.param_proj.proj.2.weight f4 [1, 49]
00000000: 2349 d2bb a462 71be df30 3e3e 4864 7e3d
00000010: 459c 033e d1ac ab3d f3be 643e f06b 893d
00000020: de57 55bd b6e7 1cbd 34e5 52be b270 1fbe
00000030: bdc4 4cbd 058a 22be b565 61be 067e d23d
00000040: 52b7 59be d31d 0cbe 1422 813d 742d 2bbe
00000050: f166 ad3c 1dfd 103e cccb 0d3e 8ffd 4bbe
00000060: 3623 523e c807 123d 8c73 b3bd e463 8f3d
00000070: a31b 3abe b96c 103e 9d31 1b3e eccb 2bbe
00000080: 7495 043e 28ad 55be bc8b 383e 7d74 4ebe
00000090: 889b 42be fbd7 28be 7807 4dbe 198e 21be
000000a0: 2f30 243e 4412 6b3e 3f72 26bd d5d9 24bc
000000b0: cff2 423e d18f 35be ca98 0ebe f790 583e
000000c0: 8de1 c63c
-0.00641741 -0.23572785 0.1857333 0.062107354 0.12852581 0.083825715 0.22338466 0.067100406
-0.05208575 -0.038306914 -0.20595247 -0.15570334 -0.04999231 -0.15872963 -0.22011454 0.10277943
-0.21261337 -0.13683252 0.06305328 -0.16716558 0.02116725 0.14159055 0.13847274 -0.19920944
0.20521244 0.035651952 -0.08762273 0.070014745 -0.18174605 0.14103974 0.15155645 -0.16777009
0.12947637 -0.20866835 0.18022054 -0.20161624 -0.19004643 -0.1648864 -0.2002238 -0.15776862
0.16034006 0.22956187 -0.040636297 -0.010061701 0.19037937 -0.17730643 -0.13925472 0.2114905
0.024277473

model.rnn.weight_ih_l0 f4 [196, 37]
00000000: e28c bbbb f250 c73d 9b57 cb3d e4e1 02be
00000010: 0ea8 a1bd fff2 dabd cccb 90bd c51f d6bd
00000020: cdb6 87bd a2a7 d93c 327b eabc be55 e3bd
00000030: 1352 ef3d f256 cdbc ffe8 be3d 1448 1c3e
00000040: a4ff 143e 5ffa eebc aed3 a63d d59d 4b3d
00000050: a548 553c d2be b93d c90d 65bd d461 9fbd
00000060: 00d9 093d 7f88 b93d 93d0 92bd 1153 d7bd
00000070: 941b e83b 2366 b8bd ee55 79bd 3324 673b
00000080: db99 c7bd c801 f2bd 7b6c 94bc 91d1 f2bd
00000090: 5573 103e b0f3 fe3d b79f 473c 4fcc 6b3d
000000a0: 4b52 1d3e 99fa a4bc 7175 15bc e613 e43c
000000b0: 0980 d4bd 382f 003d 0ee1 133e 0359 ad3d
000000c0: 5e79 4dbd 0a36 193e fbd5 ce3d 7078 88bd
000000d0: 55fc 73bd 6b31 d43d 61b8 84bd 154f ccbc
000000e0: e8f3 abbd a62a 263c 8a6c 1fbd e557 0f3d
000000f0: a7f5 1bbc 56f7 2c3d 4852 64bd 40f9 98bd
00000100: 9979 b7bd 4a25 7cbc cba3 913d fa0c f43d
00000110: e60f 863d 79cb c9bd 8802 00be 5592 1cbe
00000120: 8bfd e63d 32d9 063d 6747 d8bd 01b8 423c
00000130: fbfb c23d 832f 78bd 88cf 9a3b b25e 2a3c
00000140: bf16 803d 4ed5 223e 110b 5a3d 1c49 113e
00000150: e9d1 803d cad1 183e e042 6bbd ca00 d33d
00000160: 88af f0b9 fcaa dabd bb01 993d 6f4b c13d
00000170: 533b 13bd a390 1c3e 9d3d a53d 331c 143d
00000180: 445f 9dbd 172f 4b3d 4324 82bc 9fa4 1cbc
00000190: cd7b d53d c641 b5bc 174d 1b3e a2b8 0a3e
000001a0: 67ea 043e 0d6c 25bd aa98 2e3e d641 143e
000001b0: c06c 13be ac08 12be c9e4 fcbc ace4 1e3d
000001c0: 6164 39bd e7af 5bbd 1a77 a7bd 7eef cf3d
000001d0: c18d a0bd fdc6 8dbc 3ee1 283e 7c96 3dbc
000001e0: 916e 4e3d 87a1 a23d 247e ba3b f156 c7bd
000001f0: 4871 ebbc 5fc3 9b3d a399 86bd c231 3a3d
00000200: bc49 243d 6fc9 d73d da3c e1bd 31e2 083e
00000210: b540 193e 5dfd 0c3d 786f e53d 7985 173b
00000220: 72bd f23d 4662 f2bc a83b a6bd 8245 d73c
00000230: 4ab3 623d b613 143d 9ebe 72bd 8710 c23d
00000240: 74ab bcbd 26a8 853c 66fe 8f3c 1b33 953c
00000250: 5fbd b13d 6ef1 04be aad2 8f3c e9f9 193e
00000260: b950 153d 8030 cd3d ddb5 e6bd f8c1 983d
00000270: 5a1f bfbd 53fe ff3d 2c10 043e 696e 023d
00000280: 93fe bb3d cb6d 753d dbfa 123e 5824 843d
00000290: fdee 9ebd af77 283d 899c 23bc 3560 bbbd
000002a0: b9bd 0a3e 484e d2bd 89f9 b43d f3d1 80bd
000002b0: 1fb9 023e 57bb 4f3d 1d63 883d ae02 273e
000002c0: 0e69 d0bc 42c5 ef3d 077a c4bd d5d4 d5bc
000002d0: 2252 cc3d 8431 873d c64c ebbd 2823 f6bc
000002e0: 78d5 82bd 4d0c 033e dc4d fb3c 1518 94bd
000002f0: 8174 ccbd 4e97 fabc c7b6 143c a04e 5a3d
00000300: 0a2e d13d 35c6 ac3d 6d33 cdbd b837 a1bd
00000310: 4596 1b3e 3cbe 5f3d 0861 933c 9b3f d7bd
00000320: ffee b9bd e808 04bc 5a8c a73d 2705 743d
00000330: fbb7 c43d b2ae a0bc 0eca 66bd a4b2 013e
00000340: 1d56 b03d 9869 733d 1135 9abb f2ec 6f3d
00000350: 014d 833d c214 63bd aabc 223e 4877 ecbd
00000360: 2b36 b73c f29b e23d feca f73c 904e d63d
00000370: 6173 58bb b683 0cbd 359e da3d f809 ee3d
00000380: 71b9 363c df79 7dbc 93cb dfba 0ab6 59bd
00000390: 81bd 1b3e 4789 24bd decf 023c d486 25bd
000003a0: 9d2c 743d 9f8d fd3d a4f1 11bd 9363 bb3d
000003b0: 97d4 8fbd e3c1 113e 1318 a03d 18fd b2bd
000003c0: d03c 293e fdd8 ea3d 36e9 083e 38bf ca3b
000003d0: b3d4 b4bd 7629 d0bd 8c59 25bd 95c8 363c
000003e0: 4aec 073e a075 103e 93df c3bc 5222 df3d
000003f0: d6c5 f93d 571e 94bc 3305 e8bd 28d9 6bbd
-0.0057235816 0.09732236 0.09928819 -0.12781483 -0.07893382 -0.10690879 -0.07070121 -0.10455278
-0.06626663 0.026569191 -0.028623197 -0.111003384 0.11685576 -0.025065873 0.09321784 0.1526187
0.14550644 -0.02917212 0.081458434 0.049711067 0.013017808 0.09069599 -0.05592135 -0.07782331
0.033654213 0.09059238 -0.071686886 -0.105138905 0.0070833657 -0.09003856 -0.060872965 0.003526938
-0.097461425 -0.11816746 -0.018118134 -0.11856378 0.14106496 0.124488235 0.012184075 0.05756789
0.15363424 -0.020139026 -0.0091222385 0.02784152 -0.10375983 0.03129503 0.1444132 0.08464243
-0.050164573 0.1496202 0.10099407 -0.06663597 -0.059566814 0.10360988 -0.0648048 -0.024940053
-0.08396131 0.010142004 -0.03892187 0.034995932 -0.009519017 0.042228065 -0.055742532 -0.07469416
-0.0895874 -0.01538975 0.07111319 0.119165376 0.06546001 -0.098532625 -0.12500966 -0.15290196
0.11278828 0.032921977 -0.10560494 0.01188469 0.09520718 -0.060592186 0.0047244467 0.010398554
0.062543385 0.15901682 0.05323321 0.14188045 0.06290037 0.14923778 -0.057436824 0.10302885
-0.00045907148 -0.10677144 0.07471033 0.09438216 -0.035945248 0.1528955 0.080683924 0.036159705
-0.07684186 0.049605455 -0.015886432 -0.009560733 0.10424004 -0.02212609 0.15166126 0.13546994
0.12980042 -0.04038625 0.17050424 0.1447824 -0.14396954 -0.1426112 -0.030870812 0.038792297
-0.045261744 -0.05363455 -0.08177014 0.101531014 -0.078395374 -0.0173068 0.16492173 -0.011571523
0.050398413 0.07940965 0.0056913067 -0.0973338 -0.02874054 0.076056235 -0.06572273 0.04545761
0.04010938 0.10536467 -0.10997935 0.13367535 0.1496609 0.034421314 0.112029016 0.0023120327
0.1185254 -0.029587876 -0.08116847 0.026278261 0.055346765 0.03615161 -0.059263818 0.094758086
-0.092123896 0.016315531 0.017577361 0.018212846 0.08678698 -0.12982723 0.017556507 0.1503674
0.036453936 0.10019016 -0.112651564 0.074588716 -0.09332152 0.1249968 0.12896794 0.031843577
0.091794156 0.05991916 0.14353506 0.064522445 -0.07760427 0.041129764 -0.009986051 -0.091492094
0.13548936 -0.10268837 0.088366576 -0.06290045 0.1276593 0.05071577 0.06659529 0.16309616
-0.025440719 0.11707546 -0.09593587 -0.026102463 0.09976603 0.06601241 -0.11489253 -0.03004606
-0.06388372 0.12797661 0.030676775 -0.07231156 -0.09983159 -0.030589726 0.009076781 0.05329764
0.102138594 0.084362425 -0.10019574 -0.07871956 0.15194042 0.05462478 0.017990604 -0.10510179
-0.09078788 -0.008058764 0.08181067 0.059575226 0.09605404 -0.019614551 -0.056345038 0.12665802
0.08610175 0.059426874 -0.004706033 0.058575578 0.06411172 -0.055439718 0.15892282 -0.115461886
0.022364696 0.110649005 0.030248161 0.10464203 -0.0033027756 -0.034305297 0.10674707 0.11622995
0.011152611 -0.015470951 -0.001707422 -0.05315212 0.15209009 -0.04016998 0.00798413 -0.040411785
0.05961286 0.12380528 -0.035630837 0.09149852 -0.0702297 0.14234118 0.07817092 -0.0873968
0.16527104 0.114671685 0.13370213 0.006187346 -0.08829632 -0.10164158 -0.0403686 0.011156221
0.13273731 0.1410737 -0.02391032 0.10895218 0.12195937 -0.018080873 -0.11329117 -0.057580143

model.rnn.weight_hh_l0 f4 [196, 49]
00000000: 29dd 4dbd c1e2 9fbd 777e b9bd efcf b63c
00000010: d0aa 83bd dfa8 52bd bc41 093e 4812 debd
00000020: 5729 d0bc 6377 083e 19fe 1cbd 7225 e0bc
00000030: 411d b23d 3bb8 ebbd 68a2 863d de40 bfbc
00000040: ee17 efbd 0063 a43d ef7f bc3c 1886 87bd
00000050: dd48 9f3d c9af 09be 63e2 e83d 4648 3b3d
00000060: a9ba 47bd 7143 bd3b a26d 983d 2eb1 053e
00000070: 9c06 fa3d dd03 c83d 689e 2e3a 6eea eb3d
00000080: faa9 fabc 402b 8db9 3d9d edbd 79e8 b93d
00000090: 6f24 29be c31c 6b3d 6a5b d5bd 80d1 a5bd
000000a0: eae0 f2bd 9e04 1dbd f21a 293e 3b08 0fbd
000000b0: 3fa2 5abd 7676 d03c 85e6 053e 6f5f a0bd
000000c0: da62 203d 9353 9c3d 818e 973d b18c 9abd
000000d0: 78ba 593d b8ab 05be 0916 1a3c f174 ed3d
000000e0: a4d4 e3bd 0af2 72bd 89b5 183e 1322 0a3d
000000f0: ac79 233c f5cb bfbd 3c7d c13d 102e 1a3d
00000100: d92c cbbc 1513 743d ce02 d7bd b0f6 ba3c
00000110: 98a8 1b3d 6139 bfbd e34d ed3d 28bc 1bbe
00000120: 4054 a9bd 8748 e8bd a8c5 1abe 46e1 db3d
00000130: 8b0e eebd b961 d6bd df71 acbd fc4a a3bd
00000140: 302f 9d3b b17d 903d 05c0 30be c23e 11bd
00000150: 6170 913d 4770 26bc d1b6 4f3d 8eaf 893d
00000160: a4a4 0dbe 6463 65bd 558a b2bd d6df 33bd
00000170: c7db 8dbd 18ec c9bd 3dd0 c4bd 9e5b 7f3d
00000180: b5b9 b8bd bf22 b23d 6dfa b2bd 40ad 153d
00000190: 791a f4bd 8a38 e83d 9d45 eb3d 6e10 b83d
000001a0: 06ed 5abc 148c 3fbd e063 cc3c d0ba 233d
000001b0: 79e6 2a3d 560b 4e3d 59da 12be 7481 073c
000001c0: 01da 81bd 90ad f93d 29fa 8fbd a941 d23b
000001d0: e355 4abd caa3 14be c03c ddbd d3e7 b7bd
000001e0: 78ab c13d 2f0c e8bc c770 d53d 6852 84bb
000001f0: 3c60 ec3d d1af 9d3c b943 67bd b8f3 9c3d
00000200: 08ff 2fbd 4c83 42bc 128a 24bd 9a3a 7139
00000210: c47d f3bc 7931 f1bc 1d7d 0e3d f734 b7bc
00000220: e8c2 0a3e cf56 ab3d ecb0 2e3c 5512 193d
00000230: 5ce2 a33a 2642 e4bd af55 5ebb d9ef ed3d
00000240: 8da9 443d 82e7 853d d1bf 903d e25b 24be
00000250: 4fa7 8a3d 3466 3d3d 79b8 b93d 7aa0 01bd
00000260: 66d0 e33d a67c 903c 8040 8ebd 99db 17bc
00000270: 7b83 263e a902 bebd 2adf 513d 6f11 193d
00000280: 6b7c b8bd ee01 93bc f370 b0bd e219 04be
00000290: 4770 80bd 7b0d c6bd 70e1 37be 2c1f c2bd
000002a0: 3e48 2b3e 23c7 383b e66a 893d b525 f23d
000002b0: 0edf c2bd 2ab8 ce3d 68bd 973d 880b ca3c
000002c0: c766 d73b c6d7 33bd d95f dc3d 5c97 a73d
000002d0: 9696 bdbc bd5a 84bd f7f7 56bd 0b9b 06be
000002e0: 4c03 6fbd cd7b 5ebc 3a53 fabd 7c64 afbc
000002f0: 1afc 05be 6f4b 1d3e fd36 3ebc 0176 b6bc
00000300: 416f 03bc b13c 0a3e 5939 6fbd 61ba a0bd
00000310: 75fa 21be e2f4 fcbd daaa 27be b159 e23d
00000320: 7544 60bd 40a2 ca3d 76c7 fa3d 108b 123e
00000330: ec61 023e 37f4 243d cd06 4a3d 324a ac3d
00000340: dec1 a23b c8ac b8bd 42d9 1a3e 4e73 76bd
00000350: 04e5 633d b5b9 c53d fca0 48bd af4b c93d
00000360: 49b9 893d b527 0e3e 5b89 503d b9cb e2bb
00000370: 47a2 67bc 12fe a6bd beb8 e0bd 1c50 54bd
00000380: f33f 3e3d 1cad 563d 0387 e83d 66f9 d73d
00000390: fbaf 563d da3e e9bd a96b b93d df4d f6bb
000003a0: 8d78 cdbd 5625 213c 8f3e a0bd 41e7 70bd
000003b0: fd9e 06be 389c 14bd c0f1 003e 23f7 013d
000003c0: 6995 893b 69ca d93d 3f08 1b3e 3bf4 35be
000003d0: 4811 9cbd 4d2b c8bd a501 21be 2168 00bd
000003e0: 26b7 5c3d a83c b73d 5fe4 0abc f3f3 d1bd
000003f0: 8a4c 943c 1345 b6bd 2e72 1b3e df0a 6a3d
-0.050259743 -0.07806922 -0.090573244 0.022315947 -0.06429064 -0.05143058 0.13403982 -0.108433306
-0.025410337 0.13326792 -0.038328264 -0.027361605 0.08696986 -0.115097485 0.06573945 -0.02334636
-0.11674486 0.08026695 0.023010222 -0.06617373 0.077775694 -0.13445963 0.11371305 0.045723222
-0.048761997 0.005775862 0.07442786 0.1305587 0.12208292 0.09766362 0.00066611776 0.11519323
-0.03059863 -0.0002692584 -0.116022564 0.09077544 -0.16517805 0.057400476 -0.104178265 -0.080965996
-0.11859305 -0.03833448 0.16514185 -0.03491996 -0.053377386 0.025447112 0.13076217 -0.078307025
0.039156772 0.07633128 0.07400227 -0.07546366 0.053156346 -0.13053787 0.009404668 0.115945704
-0.11124542 -0.059312858 0.14913 0.033723902 0.009977739 -0.093650736 0.09447715 0.037641585
-0.024801658 0.05958851 -0.10498582 0.022822708 0.03800258 -0.09337116 0.11587121 -0.15208495
-0.082680225 -0.113419585 -0.15114462 0.10736327 -0.116238676 -0.10467858 -0.08420157 -0.079732865
0.004796885 0.07055224 -0.1726075 -0.03546024 0.07101513 -0.010158605 0.050711457 0.067229375
-0.13832337 -0.05600299 -0.08717791 -0.04391464 -0.06926685 -0.098594844 -0.09610031 0.062343232
-0.09019796 0.086980335 -0.08739171 0.036542177 -0.11919112 0.11338909 0.11487887 0.08987509
-0.013362175 -0.04676445 0.024949968 0.03997308 0.041723702 0.05030378 -0.14341106 0.00827061
-0.06340409 0.121913075 -0.07030136 0.0064165187 -0.049398314 -0.14515606 -0.10802603 -0.08979764
0.09456533 -0.028326122 0.10421901 -0.004038144 0.11541793 0.019248875 -0.05646107 0.07663673
-0.042967826 -0.011872124 -0.040170737 0.00023005382 -0.029723056 -0.029442536 0.034787286 -0.022364123
0.13550913 0.08366167 0.010662299 0.037371 0.0012503373 -0.11145429 -0.0033925583 0.11618013
0.04801326 0.06538297 0.07067836 -0.16050676 0.06770193 0.046240047 0.090683885 -0.031647183
0.11123733 0.017637562 -0.06945896 -0.009268665 0.16261093 -0.09277851 0.051238216 0.03737014
-0.09008106 -0.017945256 -0.08615293 -0.12900499 -0.06271415 -0.0967054 -0.17957091 -0.09478602
0.16726777 0.0028194867 0.067098424 0.11823598 -0.095152006 0.1009372 0.07409173 0.024663702
0.0065735313 -0.04390695 0.10760469 0.081831664 -0.023143094 -0.064626195 -0.05248257 -0.13145082
-0.058352754 -0.013579321 -0.122229055 -0.02141022 -0.1308445 0.15360807 -0.01160979 -0.022273066
-0.0080221305 0.13499714 -0.0584043 -0.07848049 -0.15818198 -0.12351395 -0.16373768 0.110522635
-0.054752786 0.09894228 0.122450754 0.1431086 0.12732667 0.040271964 0.049322892 0.08412589
0.0049669584 -0.090173304 0.1512194 -0.060168557 0.05563833 0.096545614 -0.04898165 0.098288886
0.067247935 0.13882335 0.050912242 -0.0069212583 -0.014137811 -0.08153929 -0.10972737 -0.05183421
0.046447705 0.052411184 0.113538764 0.10545616 0.05241392 -0.11388941 0.09053738 -0.007516607
-0.10032759 0.009835562 -0.07824432 -0.05881429 -0.13146587 -0.036281794 0.1259222 0.03172983
0.0041987193 0.1063431 0.15139864 -0.17768948 -0.07620484 -0.09773884 -0.15723284 -0.031349305
0.0538856 0.08947116 -0.0084772995 -0.10251608 0.018102903 -0.088998936 0.15180275 0.057139274

model.rnn.bias_ih_l0 f4 [196]
00000000: 5282 6d3d d7d8 1abd 4222 a4bd 8d3b 463d
00000010: 16b6 b73d 35ee c4bd 6db0 c63d d825 05bd
00000020: 2528 41bd 9026 b83d d2a5 d13d 143a d93d
00000030: f2e6 8d3c 2efb 253d 5ada abbd eed7 1b3e
00000040: 5f88 dd3d 96c8 903d 71f2 8bbd 0cb1 2b3e
00000050: 3cd7 f1bc a000 f9bd 88ec 723b 116a 583d
00000060: 82b0 653d da3b 043b f641 da3d 2fbb 2dbd
00000070: 2a15 7b3d d027 3c3d 6cdd f1bc 0b08 c93d
00000080: a004 2cbd 97ac 883d 9370 2ebd 626b 9cbd
00000090: 621c a8bb 1d97 223e 32d4 d7bd a4dc 283e
000000a0: 9f59 0a3e 88ba 173e 958e b1bd ed8a bd3c
000000b0: de98 913d 56c7 01bc a889 2c3e 9494 bf3d
000000c0: 2ddf 9ebc 8607 fd3d bdfb 48bd d524 433a
000000d0: cc2e e53c 3b7a c53d 55c3 fe3a 7695 fe3c
000000e0: c688 e93c 800a fe3c a4c0 31bd db76 b23d
000000f0: 8c90 00bc 227f 45bd 09b5 d63d be60 193e
00000100: 5522 813d 6717 123e edd4 96bd 2aa0 103d
00000110: 4f30 1a3e b3b9 403d b1b6 003e 78f0 913d
00000120: 6a4e f2bc a500 a63b 7201 c1bc 14a3 a53d
00000130: 7914 f23c 7b0f e5bd 1488 b03d d601 f93d
00000140: 12f6 4b3c 7b09 86bc 809e cdbd 90c0 32bd
00000150: 8e96 c03d 4f5c 36bd f233 b23c d3ee 5f3d
00000160: afd8 ccbd 73e9 86bd 997d 953d e8ee 87bd
00000170: 52be f5bd 7a8a 49bd 31f0 323d b320 95bd
00000180: 40f9 2c3e d58b d0bb 1c66 6c3c 0e82 09be
00000190: 31af dabd cc6e cd3d e251 8c3b e0fe 5a3d
000001a0: 1de7 8e3d eb9c ce3d fb02 b7bb 580c da3d
000001b0: 7adf dc3c d3cf 1a3e 053d b23d f7f2 9eb9
000001c0: fdb6 f53d d036 063e d19c 913d 054f 44bd
000001d0: 03ae 0e3d 5108 d13d c9ba da3c edcb 4c3d
000001e0: fa04 06be b117 03be c3d5 9f3d ce32 07be
000001f0: 337f 84bc e95d 163d cfbe d13d 2042 423d
00000200: 1d33 db3d 31de a63b 7c1a 0c3e 0b60 8ebb
00000210: cbf3 15be dccd b2bd 9100 a83d 4b29 b63d
00000220: b4bd 483b c5b6 403d 21b2 4d3d ccc7 ec3d
00000230: 3ce1 a33d 379a bdbd d84e 033e c2f7 1b3d
00000240: f6e0 58bd f897 25be 7b61 f2bd 6d0e ff3d
00000250: f3c4 a73d 07cf 013e cf69 653a 8a57 6a3d
00000260: dd7d ce3d 67fd a93b c9ed a9bd ecc1 213c
00000270: cd71 a23d 834d cc3c ac96 06be 6fe3 b9bb
00000280: ff06 5f3d f23f 6fbd 1ae6 9fbc b156 093e
00000290: b2a4 643d 7d8a 183e eb70 40bc afa6 3cbb
000002a0: 6a77 d9bd 563f c83d 21b4 0b3e 18bd 90bb
000002b0: ef1d e1bc 8abd cdbd 9bd4 a53d 6bb3 863c
000002c0: a8fc 643c c251 d53d f1eb 163e 1af4 20bc
000002d0: e915 043e 1afa 03bd c5e2 62bd c3e5 233e
000002e0: df1b f3bd 4e21 00bc 8719 f93d c0f8 9a3d
000002f0: cf24 ba3d 1d13 a73c 4c84 d73d c259 e33d
00000300: d3f0 98bc a12d d23b 7914 263e 7f2c 493d
0.05798561 -0.03780445 -0.08014347 0.048396636 0.08970277 -0.09615747 0.09701619 -0.032506794
-0.047157425 0.0899173 0.10236706 0.10606781 0.017322037 0.040522747 -0.08391257 0.1521909
0.10817026 0.07069509 -0.068333514 0.16766757 -0.029521577 -0.12158322 0.0037067253 0.052835528
0.056076534 0.0020177276 0.10657112 -0.04241484 0.06129948 0.045936406 -0.029524527 0.09815987
-0.0419966 0.06673544 -0.042587828 -0.07637669 -0.0051303366 0.15877958 -0.1053852 0.16490418
0.1351075 0.1481725 -0.086697735 0.023137534 0.07109235 -0.007921061 0.16849387 0.09354511
-0.019393528 0.123549506 -0.0490682 0.0007444148 0.027976416 0.09642454 0.0019436876 0.031077128
0.028507601 0.031010866 -0.043396607 0.08714076 -0.007846963 -0.048216946 0.104837485 0.1497831
0.063053764 0.1426674 -0.07364831 0.035308994 0.15057491 0.047052097 0.12569691 0.07125944
-0.029578406 0.005065995 -0.02356026 0.08087745 0.029550778 -0.11184593 0.08619705 0.12158553
0.012448804 -0.016361943 -0.10039997 -0.043640673 0.09403716 -0.044521626 0.021753285 0.05467112
-0.100022666 -0.06587496 0.072993465 -0.066373646 -0.11999191 -0.049204327 0.043686096 -0.072816275
0.16891956 -0.0063643255 0.014428642 -0.13428518 -0.10677946 0.100308985 0.004282222 0.053465724
0.06977675 0.100885235 -0.005585072 0.10646886 0.02696203 0.15118341 0.08703045 -0.0003031713
0.11997793 0.13106847 0.071099885 -0.04792692 0.03483392 0.10206664 0.026700394 0.049999166
-0.13087836 -0.12802006 0.07804444 -0.13202974 -0.016173935 0.036710653 0.10241472 0.047426343
0.107031085 0.0050924052 0.13681978 -0.0043449453 -0.14643781 -0.08730671 0.08203233 0.08894595
0.003063065 0.047049303 0.050218705 0.11561546 0.080019444 -0.0925793 0.12823045 0.038078077
-0.052948914 -0.16171253 -0.11834999 0.124539234 0.08191862 0.12676631 0.00087514234 0.05721239
0.100826 0.0051876786 -0.08297307 0.009872895 0.07931862 0.024939304 -0.13143414 -0.005672864
0.05445003 -0.058410592 -0.0195189 0.13411976 0.05582113 0.14896579 -0.011745672 -0.0028785875
-0.106184795 0.09777705 0.13642932 -0.004417073 -0.027480094 -0.10045917 0.08097192 0.016442975
0.013976254 0.10415985 0.14738442 -0.009823823 0.12898983 -0.032220937 -0.055392046 0.16005616
-0.1187055 -0.00782044 0.12163072 0.075669765 0.09089052 0.020394856 0.105232805 0.11101104
-0.018669521 0.006414131 0.16218747 0.0491147

model.rnn.bias_hh_l0 f4 [196]
00000000: bedd f93d 5b3c 143d 8e5f e3bc 9b07 21be
00000010: 703d c4bd dcd1 6bbd 3d19 85bd 3b85 383d
00000020: 8132 90bd 171c 033d 24af b63d 0fbe df3d
00000030: f80a 5d3c 7687 cc3d d727 103e 6b3f 8c3b
00000040: 7f16 103e 2d2d a13d 181c 753d fbe2 0dbd
00000050: a2de 053e 6fa8 0a3c da60 e3bd 325d f63d
00000060: 9ca6 9b3d 7942 f0bd 784c b83d 2827 b43d
00000070: da85 eebd 876a 15be 22e8 653d da61 2abe
00000080: 400a 13be 24df 9fbb 4906 013e 42d7 8abd
00000090: 84f2 a8bd aa81 09bd 349a c93d de24 92bc
000000a0: b92b 293e cf5c 6cbd 30b2 aabd 95ea a03d
000000b0: 03d5 373e bf80 e0bc 92c8 c7bd fb9e 11bd
000000c0: 5dd6 b2bd cb7f 153e 0da8 abbc fe9d d63c
000000d0: e50c d13c b9e6 f1bc a1e7 88bd d570 db3d
000000e0: 6dc9 a6bd 6025 113d c05a 213e 1e44 a9bc
000000f0: c144 433d 1373 cdbd 0cd7 04be 0cd5 0b3e
00000100: 76fd e93d 8123 583b cd49 5c3d 3ef8 b0bc
00000110: 1d68 5abd c536 9cbc 8771 f93d e058 283d
00000120: 1b7a 5a3d c762 8a3d c77d 253e 8df0 323d
00000130: b684 bfbd a310 4fbd d4cf c13d 1351 373c
00000140: a73a e9bc 81c2 c13b 50a6 603d 069b f0bd
00000150: fa13 9b3d a2cb e9bc b017 fa3d 781b b0bd
00000160: be2c b93d e822 903d b6cf 013e 8c2c 453d
00000170: a756 d3bd 7c2c 2e3e 7c4d 25bc db2f a63c
00000180: 1519 d33d 6646 68bd ec95 cbbc e800 afbd
00000190: 960b dfbd a635 913d 35a8 35bd 7a59 fdbd
000001a0: 7314 45bc 8470 f93b d71c 90bc da41 ccbb
000001b0: 1da3 6c3d 169d a5bd 6a1c 81bd 3883 d33d
000001c0: ac1f d03c a498 10bd 2835 6d3d f650 633b
000001d0: 4312 2b3e 8337 223d 46c7 003e 9908 683d
000001e0: 368d d1bb 25d5 103e 76d3 d0bd af2b 24be
000001f0: 7bfb dbbd 2ac9 93bd d68c d03d eaf0 113d
00000200: 6e1d 15be 704e 38bd 7899 adbd b258 aebd
00000210: edbb 243d 0a89 143e 59c0 3d3d 5a42 073e
00000220: 4996 16be 3f2c a03c edec f63d 3399 77bc
00000230: 043c 3e3d 170c 9dbc f212 cf3c 4bcf e7bc
00000240: e5e8 ab3d 7931 963d d3d6 603d 622f b4bd
00000250: 01e8 bc3d 013e 98bd a67c 39bd d3de 043e
00000260: ac51 eabd bf03 e63d 26d4 653d 27b9 91bd
00000270: b114 d13d 7520 7f3c 6320 05be 0feb 99bc
00000280: cc94 04bc c284 273d eb2b b9bc cadd ad3d
00000290: db0f 253e ab92 923d 42bc c93c c837 be3d
000002a0: 1bce 73bc cf11 c53d e126 ebbd 7edd c63d
000002b0: 8c31 853d 384c c7bd d181 123e 2a31 77bc
000002c0: 51b6 9c3d 0566 2a3e 015f 2ebd 6d2a 9cbd
000002d0: 4c12 f53d de57 103e 9e9c 123d fa79 183e
000002e0: 0a50 b6bd 0160 c53d a7c8 183e d370 093d
000002f0: 0445 c7bd ac43 8fbc 5620 8f3d c830 f63d
00000300: 7cfd 0dbb 50aa 0d3e 62f6 bc3c e2f3 a9bc
0.12200497 0.036190372 -0.027755525 -0.15725558 -0.09582031 -0.057573184 -0.064989544 0.045048933
-0.07040883 0.03200921 0.08920124 0.10924923 0.013491385 0.099867746 0.14077698 0.004280021
0.14071082 0.07869945 0.059841245 -0.034640294 0.13073209 0.008463009 -0.11102457 0.12029494
0.076001376 -0.11731429 0.0899896 0.08796531 -0.11646624 -0.14591418 0.056129582 -0.1663889
-0.14359379 -0.0048788954 0.12600054 -0.067793384 -0.08249381 -0.033570923 0.09843865 -0.017839845
0.16520585 -0.057705697 -0.08334768 0.07857243 0.17952351 -0.02740514 -0.097550526 -0.035552006
-0.08732293 0.1459953 -0.020954156 0.026198383 0.025518844 -0.029528962 -0.06684805 0.107148804
-0.08143888 0.035436034 0.15757275 -0.020662364 0.04767299 -0.10031714 -0.12972659 0.1365549
0.11425297 0.0032980146 0.05378132 -0.021602746 -0.053321946 -0.019069085 0.12179857 0.041100383
0.053339105 0.067571215 0.16161261 0.04368644 -0.093514845 -0.050552975 0.09463468 0.011188763
-0.02847035 0.0059130793 0.054846108 -0.117483184 0.075721696 -0.028539483 0.12211549 -0.08598989
0.09041737 0.07037908 0.12676892 0.048138186 -0.10319262 0.17009157 -0.0100892745 0.020286491
0.103075184 -0.056707762 -0.024851762 -0.08545095 -0.10890882 0.07090311 -0.044349868 -0.12370582
-0.012028801 0.00761229 -0.017591877 -0.006233436 0.057772744 -0.080866024 -0.06304248 0.10327762
0.025405727 -0.03530182 0.057912022 0.0034685708 0.16706185 0.03960372 0.12576017 0.056648824
-0.0063950075 0.14143808 -0.10196583 -0.16032289 -0.107413255 -0.072161034 0.10183112 0.035630144
-0.14562008 -0.04499668 -0.084765375 -0.08513011 0.040218282 0.14505401 0.046326015 0.13208905
-0.14705767 0.019552348 0.12056909 -0.015112209 0.046443954 -0.019170804 0.025277589 -0.028297087
0.083940305 0.07333655 0.054892372 -0.087981 0.09223939 -0.07433701 -0.04528489 0.12975626
-0.11441359 0.11231183 0.056110524 -0.07115393 0.10209025 0.015571703 -0.13000636 -0.018788842
-0.008092117 0.040898092 -0.02260395 0.084895685 0.1611933 0.07156881 0.024625901 0.09287983
-0.014880682 0.09622537 -0.11482025 0.09710215 0.06503591 -0.097313344 0.14307334 -0.015087405
0.076519616 0.1664048 -0.04257107 -0.076252796 0.119663805 0.14096019 0.035793893 0.1489028
-0.08901985 0.09637452 0.14920293 0.033554863 -0.097299606 -0.017488323 0.069885895 0.12021023
-0.002166598 0.138345 0.023066703 -0.020746175

model.rnn.weight_ih_l1 f4 [196, 49]
00000000: ca4b 81bd a349 4f3c 7170 19bd 255c c9bc
00000010: 1157 74bc f597 1cbd b479 53bd b6af f9bd
00000020: bd97 06be b090 db3c 2f63 72bc 0375 d3bd
00000030: 28bf 58bc b511 bb3d 2299 a13d b67f eb3c
00000040: 0acc c8bc f285 9cbd c61c 373d 8081 1e3c
00000050: b0b8 933d beb0 cc3d f1d5 2a3d 2798 833d
00000060: 2849 523d 7284 4ebd 4769 023e 482e af3d
00000070: 4198 f8bd adcd af3d a221 64bd 29e9 bb3d
00000080: ca0d 56bd ce25 adbb c372 de3c 30ec d83d
00000090: 614e 73bd 4d36 1f3b 81ec df3d dc07 9f3d
000000a0: 8a3b 55bd 1b34 9c3d dacd a13c d683 00bd
000000b0: 9e2e 42bd a8fc 3b3d 0c03 7bbd 0359 963d
000000c0: 0164 4cbd 656b fe3c 6bd1 aabd 30c2 cfbd
000000d0: 93bf 613d 8314 83bd 6ae4 dd3d 5d4f 21be
000000e0: eb83 4fbc e786 30bd e8ab 21be 86d4 b63d
000000f0: 68de 783d e1f8 bc3d c0e2 343e 1414 01be
00000100: 986d a0bd c336 86bd 40a1 e13d 880f 77bc
00000110: 5eb8 3c3d 4b5c d8bc 2bc6 00be a190 653d
00000120: 5750 003e 66d1 4c3d 643a c9bd 5c15 e43c
00000130: 5fa4 d03c c70c 443e 1874 ca3d ffef 0dbe
00000140: 6ea5 b23d 4fd3 e53d 4160 fabd 5ec2 fbbc
00000150: 45b4 d33d 026f 9fbb 0dbf 21bd 36db 0ebe
00000160: 395b b9bb b608 acbd 4e36 053e ac07 a3bd
00000170: 9740 17bc a95e c23d f08a b7bd 03cc e0bb
00000180: 4f6d c53d 1ea1 123d 29f2 fc3d 0374 ad3d
00000190: 1478 633d ddf0 c03c 93f4 5abd 52e9 2a3d
000001a0: 1dfb 2e3e ab37 8ebb 3927 b83c 3bb5 aabd
000001b0: b810 1c3d 8376 053d 4e60 943d 0195 0fbe
000001c0: a6c3 113e c965 b53d 3236 cabc edc2 adbd
000001d0: e6ca aa3d 4eed 033d 0870 1fbc 41f9 94bc
000001e0: 2dc7 35be e698 03be aad3 293e f72c 0cbd
000001f0: da72 1f3e ebcc 4ebd efa4 0d3e 82dc 213e
00000200: 105f 1e3c fdba 973d 13d8 e3bd cebe 9b3d
00000210: 1ecd dabd 82b4 1b3e 1d96 6fbc 7542 2dbd
00000220: 11c6 993d 71a1 e53c e197 a23d 254c a4bd
00000230: 72a8 313e 4157 e8bc 8d41 5e3d 0ac8 a13d
00000240: 0bab 9c3d 9058 a4bd 9e0e fa3d 0af8 febb
00000250: b43d e3bd 0f5a c13d aed5 1ebd 6e7b 883a
00000260: 86c4 67bd 8546 a33d 06e4 0ebd ff52 78bc
00000270: c5bb c6bd fad7 bebd 418d 14be fa6d a43d
00000280: 56db 37bd e7b8 0cbe 161c 38be 0a61 4b3c
00000290: a19a 55bd abe2 1dbd 8665 903d 9e25 b13d
000002a0: daa6 84bc 1464 6ebd 6b3c f83c 2505 333d
000002b0: c4e1 10be d3e7 40bd 6aad e3bd 420d 023e
000002c0: c91d a83d 355d b63c e95d 3fbc be79 063d
000002d0: 3818 c3bc 4fbb 17be ab98 14be 9795 fe3d
000002e0: c38f 9e3d 512b cc3d 58c8 bfbd f55a 893d
000002f0: f946 063e 315e 813d 505a c2bd 7dcf a4bd
00000300: f79b 9d3c 45be e13d 4623 c6bd 82ce 08bd
00000310: f020 febd 497e 833d 855c 1a3d 8d19 b33d
00000320: fb91 083b 1e7f ccbc 0af9 edbd 71df 293c
00000330: edd8 8ebd 8921 57bd 8bbc 623d 958f 26be
00000340: 7d3b 153e 3d6c b33d 0704 ffbd dddd ca39
00000350: 328f 323e 8ab3 e6bd 92ad 1dbe 55b8 5c3d
00000360: cee9 cebd dd56 52bd ff34 fdbb f0d5 ddbd
00000370: a5ed a4bd 852a aebc 8e2d cdbd 1ce7 2bbd
00000380: 572c c63c 0696 36bb f444 05be 127d 943c
00000390: 4f37 a4bd 12f7 963d 7a71 93bd e116 533d
000003a0: c8ee 6939 9067 6c3d 3dba a03d 1589 c63d
000003b0: cf46 693d bd15 da3c 2120 cabd a9f4 31be
000003c0: deed 95bd 8705 a2bc 3a15 76bd b66a b1bd
000003d0: 0b83 03be dc70 853d 72c1 06bc baf1 c73c
000003e0: e67c 88bd d596 87bd 7ff2 44bd 7a34 dc3c
000003f0: 23c4 2bbd 16b8 e63c a221 c8bb cf27 85bd
-0.06313284 0.012651834 -0.037460748 -0.02458007 -0.014913336 -0.038230855 -0.051629737 -0.12191717
-0.13143821 0.02680239 -0.014794155 -0.103250526 -0.013229169 0.09134237 0.07890536 0.02874742
-0.024511356 -0.076427355 0.044705175 0.00967443 0.07212961 0.099946484 0.041707937 0.06425505
0.0513393 -0.05041928 0.12735473 0.08553749 -0.12138415 0.085841514 -0.055696137 0.09175331
-0.052259244 -0.0052840477 0.027154332 0.10591924 -0.05940092 0.002429384 0.109337814 0.07765171
-0.052058734 0.07627126 0.019751478 -0.03137573 -0.04740774 0.04589525 -0.061282203 0.073411964
-0.04990006 0.03105707 -0.083407246 -0.1014446 0.05511434 -0.06400397 0.10834582 -0.15752931
-0.012665729 -0.043097403 -0.15788233 0.089272544 0.060758978 0.092271574 0.17664623 -0.12605315
-0.07833403 -0.06553414 0.11017084 -0.0150793865 0.046074264 -0.026411196 -0.12575595 0.056046132
0.12530647 0.050004385 -0.0982559 0.027842216 0.025469003 0.19145499 0.098854244 -0.13861082
0.087229595 0.112219445 -0.1222539 -0.03073233 0.10337118 -0.004865528 -0.03948884 -0.1395081
-0.0056566265 -0.08400099 0.13008997 -0.07960448 -0.009231708 0.09490711 -0.08962047 -0.0068602576
0.096399896 0.035798185 0.12350876 0.08469393 0.055534437 0.023552353 -0.0534559 0.041726418
0.1708798 -0.004340132 0.02247964 -0.08335348 0.03810188 0.032583725 0.07244931 -0.14021684
0.1423479 0.088573046 -0.024684045 -0.08484445 0.08339481 0.032208733 -0.0097313 -0.01818526
-0.17751761 -0.12851295 0.1658465 -0.03422257 0.15571156 -0.050488394 0.13832448 0.15806773
0.009666219 0.07408712 -0.11125197 0.076047525 -0.10683654 0.15205577 -0.014623192 -0.042299706
0.07508481 0.028031083 0.07939125 -0.08022336 0.17349413 -0.028361918 0.054261733 0.078994825
0.07649811 -0.080247045 0.12209819 -0.0077810334 -0.11095753 0.094410054 -0.038778 0.0010412761
-0.056583904 0.07972435 -0.03488543 -0.015156507 -0.09703783 -0.09318538 -0.14507009 0.08028789
-0.04488691 -0.1374241 -0.17979464 0.012413273 -0.05214942 -0.038546246 0.07050614 0.08649753
-0.016192842 -0.05820091 0.030302247 0.043706078 -0.14148623 -0.047096085 -0.111170605 0.1270037
0.08208806 0.022261241 -0.011680105 0.032830946 -0.02381526 -0.14817546 -0.14511363 0.12430876
0.07742264 0.099691994 -0.093643844 0.06706802 0.13113011 0.06316794 -0.09489882 -0.08047388
0.019239409 0.11022619 -0.096746966 -0.033400066 -0.12408626 0.06420571 0.03768589 0.08745108
0.0020838964 -0.024962958 -0.11619766 0.010368214 -0.06974969 -0.052522216 0.05535559 -0.1626571
0.14573474 0.08760879 -0.1245194 0.00038693743 0.17437437 -0.11264713 -0.15398243 0.05388673
-0.101031885 -0.05135237 -0.007727265 -0.10831821 -0.080531396 -0.02126051 -0.100184545 -0.04196845
0.024191065 -0.0027860417 -0.13014585 0.018126044 -0.08018362 0.07371344 -0.07199378 0.05153549
0.00022309565 0.057715952 0.07848022 0.09694115 0.056952294 0.026621694 -0.09869409 -0.17378487
-0.0732076 -0.019778026 -0.060078837 -0.086629316 -0.12842958 0.06515667 -0.008224832 0.024407256
-0.066644475 -0.06620566 -0.048082825 0.026880492 -0.041935097 0.02816395 -0.006107525 -0.065017335

model.rnn.weight_hh_l1 f4 [196, 49]
00000000: 1126 03bd 9d7c a53d db31 f83d 5910 253e
00000010: 86db 8c3d 8349 5c3d 59fd 8bbc ac9b 793d
00000020: 636b db3b d3bc 9abb 56db 9cbd fac3 9c3d
00000030: a559 b63d b780 9d3d 6465 013c 6cdd c9bd
00000040: 2ae1 ad3d 55cc e5bd a998 85bc b48c 03bc
00000050: 597a d43d c8f5 0ebd 515c ce3c ba54 38bc
00000060: 22d5 0cbe 2edb e4bb 7a3d 76bd bf3c 023d
00000070: 9d2b f13b deb9 92bd d6e4 92bd ecac b5bd
00000080: 61d5 08bd ac77 0dbe 56a1 1cbe 4b8a 68bd
00000090: 2bda fb3d e3e8 5ebd 7808 37bb 5937 0ebd
000000a0: eaa3 21be 1ab9 2b3d b1fc 1fbe 666d 183e
000000b0: b01f 183e 4b31 d0ba b061 8dbd ac82 9cbd
000000c0: fed7 f5bd 6693 a83d 330c 7bb8 9101 ef3d
000000d0: f145 013e 01ae 023e a41b cab9 f0c5 71bc
000000e0: ac97 103e b212 283c 9476 e03c f9ec f5bd
000000f0: 39e0 73bd a325 a53d 4ab5 7a3c 6a1d cfbd
00000100: d6d1 713d 44bb 8fbd e97e 26be 741e 08bd
00000110: 1acf 02be 0fc8 92bd db69 253e f28e 053e
00000120: f089 cbbd 34ae 493d 6814 153e da22 8c3d
00000130: e9fc dbbd 61b2 df3d b4eb 323e 5123 bcbd
00000140: e11b a13d 8f3f a13d 3d6a e2bd 9cc9 563d
00000150: b368 2b3e 6b62 b4bd 69c1 013e 9668 fc3b
00000160: 2f7f c8bd 0374 e53d 47d6 983d 87f0 babc
00000170: 21ab f43d 328d 1c3e 7949 453c 20a0 38bd
00000180: 7eba d43d f31a 06be c76e bbba 588b 71bb
00000190: 0796 9abd 5a58 0bbe 53fe d73d d382 063d
000001a0: 77ab 1fbd 46bf 553d 11ba f7bc e33b 8b3c
000001b0: 7c3f 86bd 66c8 ecb8 f7df 82bd eb29 1fbd
000001c0: e900 3d3d e50d 8ebd ad04 6d3c b8cc 8fbc
000001d0: 460e 04be 1ce2 333d 23c4 193d b6f1 a0bb
000001e0: 44b1 1fbe e49d 033e 523e 10be acf5 b13d
000001f0: d127 0c3e 4215 7c3d 5869 b8bc 0ddd 753d
00000200: 9df4 73bc ef76 91bd 2eec ba3d 5397 d0bd
00000210: aac8 f53d cbcc 4c3d d02e 0bbe 2c7f 6437
00000220: 0a32 aa3c 7feb 14bc c347 4e3d eeb5 c3bd
00000230: b8e0 c6bd 1fe0 b83d 6b8d 17be 9916 4cbd
00000240: 5d5e 5c3c a330 d53d b8ae 12be e401 923d
00000250: b419 c7bd e7e7 cbbc f81d 3b3e 7d91 c73d
00000260: faa4 f6bc cd6a b53d ff34 193e 5fcf 963d
00000270: 6b94 a0bd 4018 9fbd f060 a43c 69b7 8e3d
00000280: f884 24be 9b3f 953d 82c1 7cbd 9a3b 98bc
00000290: ed68 32be 1d60 ee3d b27b ff3c aeac 9dbd
000002a0: ebc6 73ba 9261 3f3d 9a81 27bd 21c9 bbbd
000002b0: 7072 97bd 09f5 003e 98f3 473c df77 a7bd
000002c0: 1072 b7bd e4f8 46bc 0c25 f2bd 706b ee3d
000002d0: e7d0 1cbe b7f0 113c e563 f73b 7f92 83bd
000002e0: bb9c dfbd 11fd 083c 607d 7bbd 3f77 913d
000002f0: 9b3f 37bc d4d9 eebd d0ed 08bd d906 3ebc
00000300: c63a 273e 373a f7b9 a6bf 083e c275 bb3d
00000310: ceea 60bd 5892 01be d06e 063d 2d50 4fbd
00000320: 9adf 413c fbac 31bd 1e5b 20bc a0d2 9ebb
00000330: 02aa ff3c a062 41be 9cb5 923d c431 9b3d
00000340: 51fa 25bd 304e 483d d130 063e adab 9b3d
00000350: a180 0e3e bc55 3d3c 2ffc 133e 6787 38be
00000360: 1f6e 01be 6a0a 7abd 0574 53bd eb42 e53d
00000370: 1de0 c9bb f927 af3d b5d8 df3d 34a8 95bd
00000380: b5e5 b9bd 93ba 3a3e 3d1b 81bd afe7 2b3d
00000390: 3450 59bc 1ee4 a93c d68e 593d 258a ad3d
000003a0: bb21 9ebd 97bd d9bd 5d0f 9f3b 5054 363d
000003b0: 6084 e6bd e18c 9e3d 6980 91bd 00ea 1a3e
000003c0: 9058 e33d 6af0 003e 23a4 81bd 920b 05bd
000003d0: e0c9 db3c 03a5 89bd 3bf1 c83d 21b6 85bc
000003e0: 1e9c 673d ceca 14bd 617f 0dbe 5562 b5bd
000003f0: 5acc 25bd 01d9 08bd 2b73 16be 74a6 b8bd
-0.032018725 0.08080409 0.12118884 0.16119517 0.06877808 0.053781044 -0.017088579 0.060939476
0.006696151 -0.0047222166 -0.076590225 0.07654567 0.08903817 0.07690566 0.007897709 -0.09856686
0.08490212 -0.11220614 -0.016308146 -0.008029152 0.103748985 -0.034902364 0.025190504 -0.011250669
-0.13753179 -0.006984136 -0.060117222 0.031796213 0.0073599354 -0.071643576 -0.07172553 -0.08870873
-0.03340662 -0.13815182 -0.1529592 -0.05677251 0.122974716 -0.054421317 -0.0027928632 -0.034720752
-0.15785185 0.041924573 -0.15623738 0.14885482 0.14855838 -0.0015883831 -0.06903398 -0.07642111
-0.12004088 0.08231239 -5.9854425e-05 0.11670221 0.12624337 0.1276169 -0.00038549036 -0.014756665
0.14120358 0.010258364 0.027400292 -0.120080896 -0.059540007 0.08063819 0.015302012 -0.10113032
0.059038006 -0.0701814 -0.1625935 -0.033232167 -0.12774315 -0.071670644 0.16153662 0.1304281
-0.09938419 0.0492384 0.14558566 0.06842585 -0.10741598 0.10922695 0.17472726 -0.091864236
0.078666456 0.07873451 -0.110554196 0.052438363 0.16739158 -0.08807834 0.12671436 0.0077028973
-0.09789883 0.11203768 0.07462745 -0.02281977 0.11946703 0.15288237 0.012041443 -0.045074582
0.10387133 -0.13096218 -0.0014299982 -0.0036856737 -0.07548147 -0.13607922 0.10546555 0.032839607
-0.03898188 0.052184366 -0.03024009 0.01699633 -0.065550774 -0.00011290684 -0.06390374 -0.038858335
0.046143446 -0.06936244 0.014466447 -0.017553672 -0.1289607 0.043916807 0.037540566 -0.0049116267
-0.15594965 0.12853199 -0.14086273 0.08689436 0.13687064 0.06154371 -0.02251117 0.060025264
-0.014889863 -0.07102763 0.09127079 -0.10185113 0.12001164 0.049999993 -0.13592076 1.36194685e-05
0.020775814 -0.00908935 0.050361406 -0.09556185 -0.097108305 0.09027123 -0.1480004 -0.04982624
0.013450232 0.10409667 -0.14324462 0.07129267 -0.09721699 -0.024890853 0.18273151 0.097445466
-0.030107964 0.08858261 0.14961623 0.07363772 -0.078408085 -0.07768297 0.020065755 0.069685765
-0.16066349 0.072875224 -0.06170798 -0.018583108 -0.17422839 0.11639426 0.031186912 -0.07698952
-0.00092993554 0.04672391 -0.040895082 -0.09169222 -0.07394874 0.12593473 0.012204073 -0.081771605
-0.089573026 -0.012144301 -0.118234724 0.11641586 -0.15314065 0.008907489 0.00754975 -0.06424426
-0.10918566 0.008361117 -0.061398864 0.071028225 -0.011184598 -0.11662641 -0.03342992 -0.011598312
0.16331014 -0.00047154885 0.13354358 0.0915332 -0.054911427 -0.12653482 0.032820523 -0.05061357
0.011833096 -0.043377858 -0.009787349 -0.004846886 0.031208996 -0.18885279 0.071635455 0.075778514
-0.040521923 0.04890269 0.1310456 0.07601104 0.13916256 0.011556085 0.14451669 -0.18020402
-0.12639664 -0.061045088 -0.051624317 0.11194404 -0.0061607496 0.08552546 0.109300055 -0.07307473
-0.09077016 0.18235235 -0.063040234 0.041968998 -0.013263751 0.020738658 0.053114735 0.084736146
-0.07721277 -0.106318645 0.0048541264 0.044514 -0.11255717 0.07741714 -0.071045704 0.15128326
0.11100876 0.1259171 -0.06330135 -0.032481737 0.02682966 -0.067209266 0.09811636 -0.016322197
0.05654537 -0.036326222 -0.13818122 -0.08856646 -0.040478088 -0.033410076 -0.1469237 -0.090161234

model.rnn.bias_ih_l1 f4 [196]
00000000: f142 86bd d8d0 3e3d 6258 1b3e bdd7 363e
00000010: 4edd a2bd 7b0a 123d 5d5d 7b3d 4a98 49bd
00000020: 0bdf ae3d e145 153d c240 263e c37e 083e
00000030: 098d cdbc 0c5e 50bd 45a0 98bd 81f5 b8bb
00000040: ec77 c03c 8277 883c 92e5 793d c1b8 783d
00000050: f0e2 c33c 1b67 703c 07e3 863c b915 853c
00000060: 622b a13d 7710 e73c 8e5c 163d 1a6b 603c
00000070: c612 af3d 6ce5 1cbd 2429 1dbd 5df5 543d
00000080: 2358 7bbc fd38 d03d 3da9 963c 6325 d33d
00000090: de7c 0b3e 4e84 c1bd 0cd4 2b3e a21d fb3b
000000a0: f0f2 3b3e 3244 163d fea9 313e c4bd 83bd
000000b0: d5e8 14bc 0a80 0f3d 4ee8 3b3d 6aa7 c0bd
000000c0: 9476 603c 8992 163e 2ce3 68bd 1004 c0bd
000000d0: 50a8 3c3e 58b8 2f3e 52e2 d1bd b014 85bd
000000e0: f2c5 c2bd c3cb b23b 6bc2 babd 6948 a73d
000000f0: 568e 29bd e7eb c3bd 32f6 96bd 3aaa 0ebc
00000100: 56fa 703d 4690 ab3d 6a0e ea3c 6636 843c
00000110: 834c 153e 671c 5a3d d4c6 a1bd f35c 97bd
00000120: db18 2fbd ef4e 2f3e de31 6e3d 8dd6 fe3d
00000130: 6a0e 953c b97c bcbc 1cec 49bd 83c3 2c3e
00000140: 068d c7bd 3ba1 b5bd 50d4 b8bd b5a6 e63d
00000150: fc0e d83d 8fd3 1d3e e1d2 cbbd 7734 f73d
00000160: 3249 a53b d8cd ee3d 05fd cebd 5937 373e
00000170: 7502 1b3e b60e 813d 8871 4bbd e02b 333e
00000180: 6e46 b93d 930f f0bb abcb 093e 467e 74bb
00000190: 23d7 db3b 45ea ce3d 60fe 863d dc9d 97bd
000001a0: 301a 0cbe d216 123e 2e60 7abd 0689 1dbc
000001b0: faf8 cbbd 650e cfbc 3d8f aabb 50ed dfbd
000001c0: 12c0 23be a52d bbbd 182a e4bd ae9c dbbc
000001d0: 0fe1 d53d d4fe d13d ee78 443d 605f 7d3b
000001e0: 42be a83d 74d0 a63d 25c7 223c b8ef b9bd
000001f0: e22a 943d d115 b4bc f44d c0bb 125d 113e
00000200: 444c 5bbc 4957 7d3d 03e1 d6bc 6b92 693d
00000210: d321 0cbd ebd3 233e f56a 6fbc e498 03be
00000220: ddca f5bd 3ff3 88bc 7803 abbd 5920 d6bb
00000230: 678d b23d 422e 003e 25bc 93bd dad7 423d
00000240: 0e90 da3c 26ba 133e 1245 26be 41c0 153e
00000250: b864 083e 9586 1d3e 97cd 1b3d ddd1 3bbd
00000260: 4039 db3d 18e4 253c 692d 183d e524 e6bd
00000270: 5a3c 8e3d 2ba5 053e b21d 1c3e 36ea f03d
00000280: 6aba 52bd 8531 9b3a 1fff 503d 9333 983d
00000290: de96 d1bc 583c 9dbd edcd 183e c8ef bc3d
000002a0: 68a0 0cbd 749b 7c3c fd65 76bc 2bec 363e
000002b0: 4074 84bd 0820 84bd 6ef3 993d d416 4a3d
000002c0: 5b6b 83bd d960 3abd da64 88bd 30bc 8f3d
000002d0: 1c94 57ba 67ab 263e 5244 adbd 8fd5 103e
000002e0: 18d6 7e3d 3c35 983d a547 bdbd f50b 98bb
000002f0: a620 713c 2170 df3d aef5 8dbd cf7b 143e
00000300: 7f86 223e 9b93 1cbc e727 983d 8af2 a03d
-0.06555737 0.046585888 0.15170434 0.17855735 -0.07952367 0.035654526 0.061368335 -0.0492175
0.08538636 0.036443595 0.1623564 0.13329606 -0.025091665 -0.05087094 -0.07452444 -0.0056445007
0.023494683 0.016658548 0.06100995 0.06072307 0.023911923 0.01467302 0.016465677 0.01624571
0.07869603 0.028206093 0.03670936 0.01369741 0.085485026 -0.03830473 -0.038369313 0.05199181
-0.015340838 0.1016712 0.018391246 0.10309865 0.13621852 -0.09449063 0.16780108 0.0076634446
0.18354392 0.03668613 0.17350003 -0.06432679 -0.009088715 0.035034217 0.04587584 -0.09406932
0.013700146 0.14704336 -0.056857273 -0.09375775 0.18423581 0.17160165 -0.10248245 -0.064980865
-0.09510411 0.005456419 -0.091191135 0.08168108 -0.041395508 -0.09566479 -0.07371177 -0.008707577
0.05883249 0.08377127 0.028571326 0.01613922 0.14579968 0.053249743 -0.078992516 -0.073907755
-0.042748313 0.17119955 0.058153026 0.12443266 0.01819535 -0.023008691 -0.049297437 0.16871457
-0.09743695 -0.08868643 -0.090248704 0.112622656 0.10549733 0.15412734 -0.09952331 0.12070554
0.005044126 0.11660355 -0.101068534 0.17892207 0.15137656 0.06301634 -0.04966882 0.17497206
0.090466365 -0.0073260753 0.134566 -0.003730671 0.006708996 0.10103277 0.06591487 -0.07403156
-0.13681865 0.14266518 -0.06112688 -0.009615188 -0.09959598 -0.025275419 -0.0052050636 -0.10933936
-0.15991238 -0.091395654 -0.11140841 -0.02680811 0.10443317 0.10253683 0.04796689 0.0038661584
0.08239414 0.08145228 0.009935175 -0.09078926 0.07234742 -0.02198306 -0.0058686677 0.1419566
-0.013384882 0.06185082 -0.02623034 0.0570244 -0.034211945 0.15998809 -0.014612903 -0.12851292
-0.12001584 -0.016717551 -0.08350271 -0.006534618 0.087183766 0.12517646 -0.0721362 0.047569133
0.026680019 0.14426479 -0.16237286 0.1462412 0.13319671 0.1538337 0.038037863 -0.045854438
0.10704279 0.010125183 0.03715268 -0.11237506 0.06945105 0.13051288 0.15245703 0.11763422
-0.05144731 0.001184032 0.051024552 0.07431712 -0.025584634 -0.07677525 0.14922304 0.09225422
-0.034332663 0.015417922 -0.015038964 0.17863528 -0.064674854 -0.06451422 0.07517134 0.049338177
-0.06416961 -0.045502517 -0.06659861 0.07018316 -0.0008223669 0.16276322 -0.08460297 0.14143966
0.062215894 0.07432029 -0.09242181 -0.0046400973 0.014717257 0.10910059 -0.06931625 0.14500354
0.15871619 -0.009556676 0.07429486 0.07858761

model.rnn.bias_hh_l1 f4 [196]
00000000: 185d b0bd cfa4 f43c 9674 073e 30fe 183e
00000010: 000e a1bd e861 4e3c 5254 0d3e 7e78 183e
00000020: 2f56 a83c e043 d33d 7a8a 98bd d2e6 de3d
00000030: f50b df3b df8a 9c3d 2fe2 61bd 8c91 5a3d
00000040: 9ab8 fd3d f8be b7bd 91bd 0f3c 594d aabd
00000050: b78b f93d e4a1 c23d e86d 183e 417c 2e3e
00000060: 628d a8bc 4192 90bd db25 8d3d 817a 7f3d
00000070: cd27 b9bd 63c6 b7bd 6bc8 b13c 29ed 293e
00000080: 6147 a7bd 68fe 44bc 75e6 e2bd c59d 643c
00000090: cd2d b23d 54e1 0e3e 740e 253e 2e48 91bc
000000a0: 7fde 9c3d 0b7f e2ba 09f9 323d 79c7 48bd
000000b0: 749c 75bd a09e 163e 6742 babc cacf ff3d
000000c0: 5c32 2d3e 7fa0 80bd d045 d33d d2fd 6f3d
000000d0: 0efd 2bbd 2d41 86bb 4408 65bd 06b9 b6bd
000000e0: fb56 2d3e 58d2 be3c f57d d93d de11 93bc
000000f0: 24c8 e63d da8a 213d faec d63d 2293 9dbd
00000100: 3765 083e 9e85 0b3e 9e89 233d 8987 963d
00000110: 1153 f33d 1be8 cabd 2261 ce3c 7ac4 dd3d
00000120: 4269 543d 00da d93d 57fe 04bc bae2 31bd
00000130: 4330 6d3c d39d cdbc 5861 803d 4c03 c13d
00000140: 9c9a b93d d4c5 b3bd ab6b 2b3e b8e3 b7bc
00000150: bccf 2d3e 0ff6 6e3d 9059 123e c5f4 24bc
00000160: 39cb ef3d 714c a63d f688 ce3d df62 163d
00000170: 0134 e4ba bb41 2a3d b591 593d ba09 8f3c
00000180: 5f4c 2d3e 3983 233e dd6a cb3d a869 d73c
00000190: f055 b63d 4dac c43b ddfc c63d dc9c ef3c
000001a0: 59b1 ea3d d230 0e3c e6d6 4cbc 647c 0bbe
000001b0: 878e 16be ef85 ba3d 9004 54bb 68e5 febc
000001c0: e747 973c 95b8 023d 3fa8 bebb ca79 23be
000001d0: db74 3d3d 3a9e 1bbe cd33 033e d1a8 09bd
000001e0: 9203 3b3d 936c a73d ec96 cb3d 400c 5ebd
000001f0: 006c 133e 5e34 dd3d cc39 2d3e fa05 063e
00000200: ba04 f6bd bdcb 30bd 82af 613d 9a50 813d
00000210: 7c6b aa3d 1e16 fd39 4bc5 5f3d 9472 9e3d
00000220: 4b09 3d3d 2b38 f6bd 530a 04be a3ad 64bc
00000230: 6f22 19be 20ec 8b3c 41d1 a93c 53d4 a63c
00000240: d0fa 5ebd 31a0 933d 2f18 0ebe fdc5 c23d
00000250: 478e 103e fe04 193d 5f21 bf3d f521 0b3d
00000260: 8972 b53d 91fe 223e 9d43 1b3d 14f4 cdbd
00000270: cfca 83bd 4e6f ef3c 3617 bf3d dd60 83bd
00000280: f8a6 873d 73fd b8bc 9a2c df3d 46d1 34bd
00000290: a158 a0bc 798f e8bd bd45 073e f11e 383b
000002a0: ba62 9bbd 538c 9dbd 485d 383c e4ca 3e3d
000002b0: 8fe6 803c 46d9 35bd df47 703d 4d51 1b3e
000002c0: 144f c53c 1de3 96bb 35bf 52bc 49b3 b2bd
000002d0: 0fe6 d8bd ec93 103e 090b 0d3e fba5 943d
000002e0: 7a85 053e 3956 ebbb dfdb 353e 8aa3 a63d
000002f0: c29e f6bc f145 213e 88e9 e73d c26e 8ebd
00000300: f6ad 813d bbcf 2cb9 cee0 133e df1c 9f3d
-0.08611506 0.029863743 0.13228068 0.14940715 -0.078639984 0.012596585 0.13801697 0.14889714
0.020548908 0.103156805 -0.07448287 0.10883869 0.0068068453 0.07643675 -0.055147346 0.05336146
0.123887256 -0.08971971 0.0087732235 -0.08315534 0.121848516 0.095035344 0.14885676 0.17039587
-0.02057523 -0.07059146 0.06891986 0.06237269 -0.090407945 -0.08973386 0.021702012 0.16594376
-0.08167911 -0.012023546 -0.110791124 0.013953631 0.08700142 0.13953143 0.16118795 -0.017734613
0.07659625 -0.0017280293 0.04369453 -0.049018357 -0.05996366 0.14708948 -0.022736741 0.124908045
0.16913742 -0.06280612 0.1031605 0.05859167 -0.04198938 -0.004097125 -0.055916086 -0.08922009
0.16927712 0.02329366 0.106197275 -0.017952856 0.112686425 0.03943906 0.104944184 -0.07694079
0.1331986 0.1362519 0.039926164 0.0735007 0.11881078 -0.09907552 0.0251928 0.108284906
0.051858194 0.10637283 -0.00811728 -0.043429114 0.0144768385 -0.02509967 0.06268567 0.09424457
0.090626925 -0.08777967 0.16740291 -0.022447452 0.16973776 0.05834013 0.14291978 -0.010068123
0.117086835 0.08120049 0.10084717 0.036715385 -0.0017410518 0.04156659 0.053117473 0.017460693
0.16923665 0.15968026 0.09932492 0.026295498 0.0890311 0.006001985 0.097161986 0.029249601
0.11459608 0.008678632 -0.012502408 -0.1362167 -0.14702807 0.09107577 -0.0032351352 -0.031115249
0.018466903 0.031914312 -0.0058183963 -0.15964428 0.04625402 -0.15197077 0.12812729 -0.03360826
0.0456577 0.08175006 0.099408954 -0.0542109 0.14396667 0.10801004 0.16916579 0.13088217
-0.1201262 -0.04316305 0.055099018 0.06314202 0.08321282 0.000482724 0.054631513 0.07736698
0.04615144 -0.12022432 -0.12894563 -0.013957414 -0.14954542 0.017080367 0.020729663 0.020364916
-0.054438412 0.072082885 -0.13876413 0.095104195 0.14116774 0.037358277 0.09332537 0.03396793
0.088597365 0.15917422 0.037906278 -0.1005632 -0.06435167 0.029227879 0.09330599 -0.064149596
0.06623644 -0.022581792 0.10897179 -0.04414489 -0.019573512 -0.1135549 0.13210197 0.0028094614
-0.0758719 -0.0769278 0.011252709 0.04658021 0.015734939 -0.04439666 0.05866229 0.15167733
0.024085559 -0.0046047107 -0.01286297 -0.08725602 -0.10590755 0.14118928 0.13773741 0.07258221
0.13039199 -0.0071819094 0.17759655 0.08136661 -0.030104998 0.15749337 0.113238394 -0.06954719
0.063320085 -0.00016480584 0.14441225 0.077691786
