lightning_logs/version_0/checkpoints/epoch=8-step=450.ckpt (torch, 676110 bytes, 57 tensors)

model.param_proj.proj.0.weight f4 [1, 40]
000000 3d 6e ce 3d fc 1e 88 3c 60 97 4c be 56 48 d9 3d
       0.1007962 0.016616337 -0.1997962 0.106095
000010 7d 1a 95 3d 65 9e 45 3d ea 1d 22 bd 07 bd 40 bd
       0.07280443 0.04824676 -0.03957931 -0.04705527
000020 6b 6f 9d bd c4 ca 24 be ab d0 92 3d 8b 37 0f 3d
       -0.07687267 -0.16092974 0.071687065 0.03496508
000030 a3 96 00 3d ef fa 11 be 45 3d 3b 3d e4 4b 4c 3d
       0.03139366 -0.1425588 0.045712728 0.049877062
000040 92 43 e8 bc 15 6f 39 bd 8b 6d f8 3d 98 29 2c 3e
       -0.028352533 -0.04527195 0.12130269 0.16812742
000050 f6 63 32 3e de 48 15 3e 9a 30 79 bd 24 13 8b 3c
       0.17420945 0.14578578 -0.060837366 0.0169769
000060 ee 29 dc bc d2 32 03 3e e2 50 7a ba 7d dd 1e be
       -0.026875462 0.12812355 -0.00095487956 -0.15514179
000070 0d 1e f8 3d 56 62 61 3c df 10 5a bd df 9e f7 bd
       0.12115107 0.013756355 -0.053238746 -0.12090849
000080 70 0f 96 3d b9 0b 08 3e ca d9 75 3d 85 59 2c bd
       0.07327163 0.13285722 0.060022153 -0.04207756
000090 1c f2 b2 3e 4e 45 75 bd 1f 77 25 3d 9a 20 a1 3d
       0.3495034 -0.059880547 0.040396806 0.078675464

model.param_proj.proj.1.weight f4 [1, 40]
000000 36 bf 09 bc f9 a7 96 bd 07 b6 59 3d 80 a1 b5 3d
       -0.008407405 -0.07356257 0.05315211 0.08868694
000010 a2 29 d7 3d 7f df d0 3c 62 5c 19 3a ff f2 ea 3c
       0.10505988 0.025497196 0.0005850253 0.028680323
000020 07 06 14 3e 9e ca ea 3d 02 a6 09 3d b7 a0 9f 3d
       0.14455424 0.114644274 0.033605583 0.07794326
000030 e4 c6 aa 3c 34 a3 32 3e 70 a4 02 be da 1c b1 ba
       0.020846792 0.1744507 -0.1275804 -0.0013512627
000040 3c ff 16 3e 00 f9 e9 bd 4f 2a 32 be f4 97 47 bd
       0.14745802 -0.11424446 -0.17398952 -0.0487289
000050 da 3a 70 bd 66 c2 ca 3d c8 75 97 bc 51 7d eb bd
       -0.058649875 0.0990036 -0.01848878 -0.114985116
000060 a7 21 cd bd 9c 76 2c bd be 0a 0b 3e 60 5c fa 3d
       -0.10016184 -0.042105302 0.13578317 0.122246504
000070 4a ea 06 3e 53 47 eb bc af be 6f 3c 3f e9 bd bd
       0.13175312 -0.028720533 0.014632865 -0.09273004
000080 92 89 df 3d 41 44 a9 3d dc 65 2b be 85 25 e6 3d
       0.10914911 0.082649715 -0.16738075 0.11237625
000090 e1 0a 19 bd 79 ac de bc 0c 1b 2a 3c b0 b2 98 ba
       -0.03736389 -0.02718185 0.010382425 -0.0011649933

model.param_proj.proj.2.weight f4 [1, 40]
000000 cf 27 33 be e9 2f 18 be fc 02 78 3d a0 e0 e7 bd
       -0.17495655 -0.14862026 0.06054972 -0.11322141
000010 ca b8 81 3d 1a fe 4e be a2 25 38 3e f1 eb 05 be
       0.06334074 -0.2021412 0.17983106 -0.13078286
000020 98 f8 da bd 14 5f cb bd d3 8a 62 be e4 b5 8c bc
       -0.10691947 -0.09930244 -0.2212327 -0.017176576
000030 52 86 1f 3e be 04 fc bd b0 da 1e 3c 07 a7 2d be
       0.15578583 -0.12305592 0.009695694 -0.16958247
000040 ac 1f 6e bd 69 31 a1 3d eb 85 bc 3d f7 2d 50 3e
       -0.058135673 0.07870752 0.0920523 0.20330034
000050 c7 78 3d 3c 7b d6 15 be f6 94 33 be a6 b0 6e be
       0.01156444 -0.14632599 -0.17537293 -0.23309574
000060 11 df 47 be 14 20 38 3e 02 01 95 3d cd 8f 86 3b
       -0.19518687 0.17980987 0.07275583 0.004106498
000070 3e 44 42 3e e5 b5 92 3d 9d ef ec bd 42 52 fd 3d
       0.18971345 0.071636 -0.1156914 0.12369205
000080 50 ae 8b bd 5f f7 cc bc 28 41 4d be fe d5 84 bd
       -0.06820357 -0.0250203 -0.20044386 -0.06486128
000090 5b eb 6f be 35 34 34 be fd 49 09 3d db df ba 3d
       -0.23429625 -0.1759804 0.033517826 0.09124728

model.rnn.weight_ih_l0 f4 [160, 48]
000000 92 a6 75 3c 9f 0e 25 3e 0e aa a8 3b b7 19 14 3e
       0.014993327 0.16118859 0.005147225 0.14462934
000010 27 a6 d0 3c 74 b0 39 3e 12 52 0b bc 11 a8 0c 3e
       0.025469853 0.18133718 -0.008503454 0.13735987
000020 e8 cd a8 3d 46 de ee bd 07 80 e0 3d 34 be d5 bd
       0.082423985 -0.11663489 0.10961919 -0.10436669
000030 1c d5 0d 3e 13 94 44 bd 16 f7 89 bd 0a 48 fe bc
       0.13850826 -0.047992777 -0.06736581 -0.03104021
000040 f0 b2 15 3d 33 1c 9a bc 70 e4 b6 3c 71 6c 14 be
       0.0365476 -0.018812275 0.022325724 -0.14494492
000050 67 f8 c1 bd 6b 0c db 3d 64 ea be 3d c3 b1 6d bd
       -0.09471207 0.10695728 0.0932205 -0.058030855
000060 08 be 2d 3e 43 0a e3 bd 5a ff 06 be 43 e1 2a 3e
       0.16967022 -0.11085942 -0.13183346 0.16687493
000070 a2 7c a6 bd 21 8b 94 bc ce 31 ce 3d 97 5d a4 3d
       -0.081292406 -0.018132748 0.10068093 0.08025663
000080 96 91 8d bd f1 20 26 3e 98 02 84 bc be 99 44 bd
       -0.06912534 0.16223504 -0.016114518 -0.047998182
000090 3d 13 7d bd 59 df 3e bd 27 08 a5 bd f3 fe 36 3d
       -0.061785925 -0.04659972 -0.080581956 0.044676732
0000a0 54 73 57 bd 06 81 3b 3d 0d 6c a3 bd 33 fb 7a 3d
       -0.05260022 0.045777343 -0.079795934 0.06127472
0000b0 11 c1 18 3e de 57 50 3d 61 24 70 3d cb 54 8e 3d
       0.14917399 0.050865047 0.058628444 0.06949767
0000c0 72 ac 89 bc 19 f6 fc 3b fd ab eb 3d 94 47 b8 3d
       -0.016805861 0.007719767 0.115074135 0.089980274
0000d0 d0 f8 b8 3d 9c 9e f6 3c 74 f6 16 3e 48 de 92 3d
       0.09031832 0.030104928 0.14742452 0.07171303
0000e0 d4 61 5f bd 46 6e ac bd c6 41 a3 bd 87 97 60 3c
       -0.054536656 -0.084194705 -0.0797153 0.013708002
0000f0 53 2f b6 bd 56 b5 b3 3d eb 31 46 bd b9 32 d8 3c
       -0.08895745 0.087748215 -0.04838745 0.026391374
000100 ae fe 08 3c f6 f4 bd 3d 68 9e 89 3d 2a 35 07 3e
       0.008361502 0.09275238 0.06719667 0.13203874
000110 3c 66 70 ba 07 9a 83 3d 19 c5 ed bd 65 aa 24 3e
       -0.00091705075 0.06425863 -0.11609859 0.16080625
000120 66 e3 18 3d ac 23 d2 bd 92 81 c8 3c 6b 76 ea bd
       0.03732624 -0.1026071 0.024475846 -0.11448368
000130 bd bd ff bd 49 0d 9a 3d de 28 b6 3d fd b9 f8 3c
       -0.124873616 0.07522065 0.088945135 0.030362124
000140 2e 77 b8 3d 5e be a6 3d e9 f2 44 be 3c 79 73 bc
       0.09007107 0.081417784 -0.19233288 -0.0148604475
000150 c6 d5 20 3c 2f 54 23 be 59 f8 4f 3d 71 95 44 3d
       0.009816593 -0.15950082 0.050773952 0.04799408
000160 b2 a4 5d 3e 72 b1 5d 3d 93 68 5c 3e e2 8f 1a bd
       0.21644858 0.054124303 0.21524267 -0.037734874
000170 cc bf ab 3d 8a 2b 74 be 13 a6 c4 bd 46 27 31 3e
       0.08386192 -0.23844734 -0.09601989 0.17300138
000180 e9 53 01 3e 7a a4 81 bd 85 c8 c8 bd 74 d1 e0 bc
       0.12629665 -0.063301995 -0.09803871 -0.027443625
000190 44 28 34 3e 16 3d 29 bd 9d 2a 32 3e 3d 33 37 3e
       0.17593485 -0.04131802 0.17399068 0.1789064
0001a0 52 8f 7e bd 85 3f 36 bd 34 95 6d 3d 44 07 1e 3e
       -0.0621484 -0.04449417 0.05800362 0.15432459
0001b0 32 c8 68 bd 66 2e 60 bc 82 f7 52 bd c6 44 a0 3d
       -0.056831546 -0.013682937 -0.051505573 0.078256175
0001c0 b9 06 d9 3d bb d1 6b bd 11 14 a3 bd 95 c0 2e 3e
       0.10596985 -0.05757306 -0.07962812 0.17065652
0001d0 a8 67 71 3d ef 0c 17 3e 47 df 21 3e 39 10 07 3e
       0.058936745 0.14751028 0.1580783 0.13189782
0001e0 62 59 80 3d 2d 33 e8 3a ee 6e 8f 3d 2e e2 1b bd
       0.062670484 0.0017715447 0.0700358 -0.0380575
0001f0 c3 cf bf bb bc 35 ee 3c 41 a1 f8 bc f5 10 15 3e
       -0.0058536245 0.029078357 -0.03035033 0.1455725
000200 9d 26 76 3e bc 2c 27 3e 44 84 6a 3d 1f 07 14 ba
       0.24038167 0.16325659 0.057255045 -0.0005646813
000210 14 dd 86 bb b8 d4 54 3d 04 a7 47 3e 65 e7 3d 3e
       -0.00411571 0.051960677 0.19497305 0.18545301
000220 14 29 2e 3d 75 58 4b 3c e4 b3 0a bd 61 49 c7 bb
       0.042519644 0.0124112265 -0.033862963 -0.0060817455
000230 f8 cc b2 3d 4a f0 db bd 9e 2b b2 bb 46 4b 03 3e
       0.08730501 -0.10739191 -0.0054373285 0.12821683
000240 56 35 99 3d 23 9e cc bd 7d 01 0d 3e 98 0f 8a 3c
       0.07480876 -0.099911 0.13770099 0.016853139
000250 f0 98 be 3d 31 0f 11 3e e3 07 c6 3d 5e 5e 34 bd
       0.09306514 0.14165951 0.09669473 -0.044035308
000260 dd 11 15 3d a8 df 3b 3d e8 62 15 3c 2d c0 4b bd
       0.03639399 0.045867592 0.009117819 -0.04974382
000270 b5 ca 01 3e 37 8d 89 3d 85 13 02 be 6e 3f d8 bd
       0.12674983 0.06716388 -0.12702759 -0.10558973
000280 7a c0 e5 3d 42 94 28 bd c3 98 e5 bb 55 4b ff bd
       0.112183526 -0.041157015 -0.007006736 -0.1246554
000290 0d 6f 0a 3e 7a b2 18 3d 56 72 85 bd 3b 8b 82 3d
       0.13518925 0.037279584 -0.065159485 0.06374212
0002a0 c2 e9 31 3d 9b cf 02 bc 7f 68 70 3d 9c dd e6 3d
       0.04343582 -0.007984067 0.058693405 0.112727374
0002b0 8e 78 a7 3d 93 ff 18 3d 34 0c ed 3c 7e 94 00 be
       0.08177291 0.03735311 0.028936483 -0.12556645
0002c0 ef d4 a6 bd c4 2f 84 bd e9 b6 6a 3d 68 29 fc 3c
       -0.081460826 -0.06454423 0.057303343 0.030781463
0002d0 2b 1c e1 3c e0 98 d8 bd c4 25 eb 3d 6b c8 db bd
       0.027479252 -0.105760336 0.114818126 -0.10731586
0002e0 08 8c 1c 3d be 5d 87 39 8a 58 a7 3d a9 23 73 bd
       0.03821948 0.0002581905 0.08171184 -0.05936018
0002f0 12 c0 a4 bd 92 ac b5 bd 29 af 0b 3e db c5 63 bd
       -0.08044447 -0.08870806 0.13641037 -0.05560861
000300 dc 12 a8 3c c2 70 52 bc 79 08 9c bd d8 bd 96 3d
       0.020516805 -0.012844266 -0.076188035 0.073604286
000310 43 57 17 3e 4c b7 fe bd 8d e6 f4 3d c2 48 18 be
       0.14779381 -0.12437305 0.119580366 -0.14871505
000320 ab fa d8 3d c6 88 08 bc 36 08 0d 3e a0 65 d6 bd
       0.10594686 -0.008333391 0.13772663 -0.10468602
000330 23 76 e2 3d 71 2b 99 bd 99 02 92 3d 83 6b c5 3d
       0.11057689 -0.07478989 0.07129402 0.09639647
000340 72 5e b9 bd 19 9f ce bd 6b 10 43 bc 07 68 19 be
       -0.09051217 -0.10088939 -0.01190577 -0.1498109
000350 3c 13 17 3d 5c 24 ba 3d dd a8 0f be 4f 2d bf 3d
       0.036883578 0.09088966 -0.1402926 0.09334814
000360 95 fd 63 bd 86 35 87 3d 91 40 65 3d 1d 22 22 3d
       -0.055661757 0.06602006 0.05596978 0.039583314
000370 da c4 e6 3d 2c bd f8 3c 3e b8 09 3e bf 89 de bd
       0.11268015 0.030363642 0.13449189 -0.10866117
000380 d7 0c a4 bd d5 ff 88 bd ed bb 14 be 6a 9a 3a bd
       -0.080102615 -0.06689421 -0.14524813 -0.045557417
000390 4c 6d 2b bd ea 03 ec 3d f0 be d3 3d 87 20 5b bd
       -0.04185228 0.11524184 0.10339153 -0.053497817
0003a0 ff 42 0e be f5 0d b6 bd 7d 91 07 be d8 1c 42 3d
       -0.13892744 -0.08889381 -0.13239093 0.04739079
0003b0 97 ae 44 3c 96 4b 68 3d fc 6f 87 bd 9e d0 07 be
       0.012004516 0.05671271 -0.06613156 -0.13263175
0003c0 c5 59 1d 3e da a5 37 3d 3c fa 1b bd e9 1c a3 3d
       0.15366276 0.044835903 -0.03808044 0.079644985
0003d0 7a 90 b7 bc e0 fa 6b 37 b9 af a6 3d cb 2e 4b 3e
       -0.022407759 1.4065503e-05 0.08138985 0.19842069
0003e0 93 9d 29 3e 6f a5 4e 3b 03 57 87 3d d5 ef c8 3d
       0.16564016 0.0031531712 0.06608393 0.09811369
0003f0 44 a6 16 3c e6 d9 0e bd 99 8f c7 bc e3 05 66 3d
       0.009194914 -0.034875773 -0.024360465 0.056157958

model.rnn.weight_hh_l0 f4 [160, 40]
000000 b1 ab 86 3d f9 b9 0c be 16 43 85 bd 44 26 4d be
       0.06575716 -0.13742818 -0.06506936 -0.20034128
000010 e1 c1 b1 3d 44 9d 52 3d 4a 45 0f 3e b9 2d 94 3d
       0.086795576 0.05141951 0.13991275 0.072352834
000020 d3 c6 b6 3c 07 40 46 3d 74 03 3c 3c 7d 80 e5 bd
       0.022311604 0.048400905 0.011475433 -0.11206148
000030 cf 82 6d bd fb 55 ed 3d 4f e7 19 bd 4f e7 60 bd
       -0.057986077 0.11588665 -0.03757411 -0.054908093
000040 ad c1 7e bd 07 bf 69 bd c5 75 e3 bc a3 72 8f bd
       -0.062196422 -0.057066943 -0.027766118 -0.07004287
000050 17 e5 e6 bd 3d 59 b9 bd bb 84 4f 3e 25 b2 cf 3d
       -0.11274164 -0.09050224 0.20265476 0.101414
000060 7d f5 f9 bd 2a 65 19 3e f2 0f 55 bd ac e5 15 3d
       -0.12205026 0.14979997 -0.05201716 0.036595985
000070 63 99 29 be 58 f0 f3 bd 75 9a 51 bb 0c 9b f3 3d
       -0.16562419 -0.11911076 -0.0031982933 0.11894807
000080 3a 95 98 3d b3 b4 19 3e 7f ed d8 3c dc b5 3a 3d
       0.07450338 0.15010338 0.026480434 0.04558359
000090 d1 e1 cf bc 02 35 e0 bd a4 12 25 bd 1e 67 8c bd
       -0.025376232 -0.109476104 -0.04030098 -0.068556055
0000a0 12 a1 52 3e e1 66 14 3e 69 a5 ff ba d5 a6 7b bd
       0.20569256 0.1449237 -0.0019504252 -0.0614384
0000b0 f4 51 3f be fb 4a 26 3e 71 0c 17 3e 04 9b e3 3a
       -0.18683606 0.1623954 0.1475084 0.0017364924
0000c0 68 44 80 3d 48 99 00 bd 30 39 1c 3e 5b 55 b5 3d
       0.062630475 -0.03139618 0.1525619 0.08854171
0000d0 25 04 13 3e 51 c8 8d bd f1 49 91 bd ea fb 79 3d
       0.1435705 -0.06922973 -0.07094181 0.06103126
0000e0 0b 0a 2d 3e a8 1c fd 3d 2a c3 40 3e 76 e0 ee 3d
       0.16898362 0.12358981 0.18824449 0.11663906
0000f0 fb 88 01 3e 7b 78 d0 3d 29 59 39 3e f3 94 12 3e
       0.1264991 0.1017923 0.18100418 0.14314632
000100 7a 9e b5 3d 03 2b c8 ba 72 47 0c be c6 7d 67 3b
       0.08868118 -0.0015271608 -0.13699129 0.003532277
000110 c6 fa fe 3d 64 ef da 3d 31 2c e0 bd 4e 7e 7b 3d
       0.12450175 0.106901914 -0.10945929 0.06139975
000120 68 57 06 3e 31 03 ba bd 73 b6 51 bd 46 2c ad bc
       0.1311928 -0.0908264 -0.051199388 -0.021139275
000130 54 70 08 3d bf 43 80 3e 39 d0 7e 3d cc 5d 71 bc
       0.03331025 0.25051686 0.062210295 -0.014731836
000140 25 8a 1c be ee 3c 9d 3d 7f e7 df 3d 67 6d 1c be
       -0.15287073 0.07677637 0.10932826 -0.15276109
000150 65 6a cf bd a1 e2 e6 3d f1 84 c3 bd 1a 13 8f 3c
       -0.10127715 0.11273695 -0.09546841 0.017465163
000160 1c 6a de bd 46 27 1c 3e 70 0c 3a bd d5 7a be bb
       -0.108600825 0.15249357 -0.045422018 -0.0058129826
000170 53 0a 56 bd 4b 55 11 3e 0d 9d 29 3e 6d d3 8d 3d
       -0.05225594 0.14192693 0.16563816 0.06925092
000180 36 95 3a be 62 a0 96 bc ae 3c ee bd b3 72 8b bc
       -0.18220982 -0.018387023 -0.116326675 -0.017022466
000190 53 58 c8 3d 92 41 10 be 46 74 ab bc 79 df 96 bd
       0.097824715 -0.14087513 -0.020929467 -0.07366843
0001a0 13 9a 07 bd c9 04 d0 3b db 02 c1 3c a8 9e fd bc
       -0.03310592 0.0063482267 0.023560932 -0.030959442
0001b0 25 78 a0 3c ee 24 ed 3d 1f e9 b9 bd 12 ef 1c 3e
       0.01958854 0.115793094 -0.090776674 0.15325573
0001c0 d4 8b aa bd 0f 28 7f bd 45 07 b4 bb e0 0e df bd
       -0.08327451 -0.062294062 -0.0054940307 -0.10891509
0001d0 7e 2a 28 be fd 00 e2 bc ca f1 e2 bd fa 12 aa 3d
       -0.1642246 -0.027588362 -0.11081274 0.08304401
0001e0 bf 61 17 be df 18 16 3c c7 dd 55 bc fe 35 e4 3d
       -0.14783381 0.009161203 -0.013053364 0.11143111
0001f0 7a 1f 94 bd b7 53 9b 3d 45 a4 fc bd 83 19 a8 bd
       -0.07232566 0.07584327 -0.123360194 -0.08207991
000200 ed 89 38 3e ef cd e9 3c 12 0a 24 3d 6b 2d dc 3d
       0.18021365 0.02854058 0.040048666 0.1075085
000210 ac 86 26 3d 56 04 c8 3d 26 0c c3 3d 7f b7 b8 bd
       0.040655777 0.09766452 0.095238015 -0.09019374
000220 56 ad 15 3e 3a ea 5a 3d cf f7 40 bd 80 d7 14 be
       0.14616904 0.053446032 -0.04711133 -0.14535332
000230 05 48 bf 3d 56 f7 a3 bd 32 78 23 3e e7 f2 f0 3d
       0.093399085 -0.0800616 0.1596382 0.1176508
000240 9d 5e 30 3e 2f 84 1b 3e 8e 48 d0 bd 3d 06 79 bc
       0.17223592 0.15187143 -0.10170089 -0.015199241
000250 2d c5 01 3d 50 d5 62 3d 94 2e c2 3d 78 67 a9 bc
       0.031682182 0.055379212 0.0948154 -0.02067922
000260 4b db 88 bc 29 e3 ee 3d bf 37 ea 3d 21 c9 d4 3d
       -0.01670613 0.11664421 0.11436414 0.10389925
000270 d5 03 a0 3c a1 d9 52 3d 13 9d 0b 3e db 37 6a 3d
       0.019533077 0.05147708 0.13634138 0.057182174
000280 e4 82 bc 3c d9 8b e1 bd 75 1b 15 be df d8 3a be
       0.023011632 -0.11013002 -0.14561255 -0.18246792
000290 c6 eb 08 3e 68 37 2d 3e 9d 2a ae bd 01 04 96 3b
       0.1337119 0.16915667 -0.085042216 0.004578114
0002a0 1e 31 c6 3d fa d2 b4 3d 1c 85 81 bd 4c 22 74 bd
       0.09677337 0.08829303 -0.06324217 -0.05960302
0002b0 d2 e2 36 bd 46 77 17 bd e1 79 89 3c 37 17 84 3d
       -0.044649906 -0.036978982 0.01678175 0.064497404
0002c0 a6 86 26 be 4c d1 b4 bd b7 13 63 bd 9b fa 4a bd
       -0.16262302 -0.08828983 -0.055438723 -0.049555402
0002d0 36 4c 51 3d 33 0a f2 bc b9 5d 42 3e c1 83 fd bd
       0.05109807 -0.029545879 0.18981065 -0.12378646
0002e0 e0 44 0c be a3 0c de bd 05 ee d6 bd 36 b4 07 bc
       -0.13698149 -0.10842254 -0.104946174 -0.008282712
0002f0 a8 93 81 3d cc 75 81 3d 83 0f 29 be 0a fd a0 bd
       0.06326991 0.06321296 -0.16509824 -0.07860763
000300 7a 79 8c 3d 15 29 d3 3d 15 f8 a2 bc 32 f7 d4 3d
       0.06859107 0.1031057 -0.019893685 0.10398711
000310 be b0 48 bd d7 2e 63 bd 41 28 97 3b 36 a6 18 3e
       -0.04899668 -0.05546459 0.004612953 0.14907154
000320 cf e4 4e 3e 07 e6 02 3d ed aa e5 bd 7c 1d f3 3c
       0.20204471 0.031957652 -0.11214242 0.029677145
000330 d3 6c 46 3e c8 b3 22 3d d2 dc f6 bd 9a 10 70 3d
       0.1937745 0.039722234 -0.12053837 0.058609582
000340 78 e2 af 3d 17 44 1c be 7c 21 c7 bd dc 5b 03 be
       0.08588117 -0.15260349 -0.097231835 -0.1282801
000350 81 9f 03 be 1e 95 29 3e c8 31 e2 bd 23 f2 a4 3b
       -0.12853815 0.1656079 -0.11044651 0.0050337478
000360 a1 a2 32 be 8a cc cc 3d bf 9c c4 3c 27 fd 27 3e
       -0.1744485 0.0999995 0.024000524 0.16405164
000370 a9 db 02 be 54 50 ee bd f1 a4 84 3e 7a 14 25 bd
       -0.12779106 -0.11636415 0.2590709 -0.04030273
000380 89 10 38 be c4 3f 92 bd cc 03 11 bd 0f 40 a0 3d
       -0.17975058 -0.071410686 -0.03540401 0.07824718
000390 90 73 9b 3d de e0 e0 bd 2d c6 ae 3d 38 d2 e6 3d
       0.07590401 -0.1098039 0.08533893 0.11270565
0003a0 0c 64 80 3d 63 a0 4c 3e 96 90 27 bd b8 db 00 be
       0.062690824 0.19983058 -0.040909372 -0.12583816
0003b0 96 da f6 bc 00 ad da bd 51 1d be bd 71 7d 34 bd
       -0.030133527 -0.106775284 -0.092829354 -0.044064943
0003c0 b8 71 39 be 5a 5f 0c be f4 e9 f6 3c 73 7c 38 3e
       -0.18109787 -0.13708249 0.030140854 0.18016224
0003d0 2f bf a1 bd df 45 45 3e ce ab 54 bd 3e 0b 38 bc
       -0.078977935 0.19264935 -0.05192166 -0.011233149
0003e0 71 77 93 3d eb c3 d4 3c 5c 8e 9d 3b 32 2f dc bd
       0.07200516 0.025972327 0.0048082303 -0.10751189
0003f0 fe b9 95 3d 24 ac 73 bd 02 b6 2e 3e 3a 33 99 3d
       0.07310866 -0.059490338 0.17061618 0.07480474

model.rnn.bias_ih_l0 f4 [160]
000000 64 ab d2 bd 7e be 67 3e 46 b2 61 ba ca b2 0c 3c
       -0.102865964 0.22631261 -0.00086096337 0.0085875485
000010 fc ef c4 3d 66 65 bd 3c 09 95 d2 bc 42 b5 95 ba
       0.09616086 0.02311964 -0.025705831 -0.0011421817
000020 93 8a 17 be 70 d9 d6 bd 5e e7 d1 3d 6b 22 68 3e
       -0.14798956 -0.10490692 0.10249208 0.2266938
000030 b7 40 27 bd d2 36 0d 3e d0 cf f6 bd cc 30 e2 bd
       -0.0408332 0.13790444 -0.12051356 -0.110444635
000040 8c 12 59 3d b3 c3 11 3e 79 ce 0f be 60 8c 9c 3d
       0.052996203 0.1423481 -0.14043607 0.07643962
000050 e7 a2 17 3e 6d f7 29 3d c9 07 89 bb 59 a9 b7 3d
       0.14808236 0.04149573 -0.0041818363 0.089678474
000060 1e 66 84 3d 0b c4 23 3e bc 8b 28 3e 51 a3 b7 3d
       0.0646479 0.15992753 0.16459554 0.08966697
000070 91 61 0b 3e 00 2b 93 3d cc ec f6 bd 67 99 b5 3d
       0.13611437 0.07185936 -0.12056884 0.0886715
000080 02 1b 44 3e cb e9 98 bd e7 ab c4 3d 9b 79 66 3e
       0.19150928 -0.074664675 0.096031 0.22507326
000090 c6 a7 4b 3e f6 b1 11 3e cd d1 b9 3c 26 0c b9 bd
       0.19888219 0.14228043 0.022683049 -0.0903552
0000a0 80 03 03 3e d4 5d 7d 3d 33 1f 55 3d de 43 8b 3b
       0.12794304 0.06185706 0.052031707 0.0042500338
0000b0 cc 23 93 3d 55 f3 d6 bd 4e fa 25 3d 99 ce 3c 3e
       0.07184562 -0.10495631 0.040521912 0.18438186
0000c0 a2 2d 18 3c 1c c4 d0 bd 8e bf 71 3d 06 66 c6 3a
       0.009288223 -0.10193655 0.05902057 0.0015136607
0000d0 f9 2e 40 3d 5c b5 d9 3c 39 b8 b0 3c 39 3c 6f bd
       0.046919797 0.026575737 0.02157222 -0.058407042
0000e0 67 fb 22 3d f3 d3 c9 3b 46 e1 96 3d 67 7a b2 3d
       0.039790537 0.0061592995 0.07367186 0.08714753
0000f0 ca ad ae bd 10 eb f9 3d 85 91 8c 3c 69 4d 35 3d
       -0.085292414 0.12203038 0.017159233 0.044263277
000100 21 f6 ca 3d 17 cc 76 bd eb 23 9a bc 7c 31 2c be
       0.099102266 -0.06025323 -0.018815955 -0.16815752
000110 56 85 e9 bc 61 c0 16 3e 3a f5 8b bd 7c 50 9c 3d
       -0.028505962 0.14721824 -0.06833883 0.07632539
000120 42 c9 e2 3d 0f 53 16 bd 61 77 aa 3d 2f 28 61 3d
       0.11073543 -0.036700305 0.08323551 0.054969963
000130 7e ce fc bd 67 df 48 bd 4e 21 07 3e f1 a1 93 bd
       -0.12344073 -0.049041178 0.13196298 -0.07208622
000140 63 23 88 3c 57 63 af bd 90 7a bb 3d d6 db d3 bd
       0.016618436 -0.085638694 0.09154236 -0.10344665
000150 97 43 c9 bd 7b 20 cf 3a 84 d6 21 3e 1a 08 c1 3d
       -0.09827345 0.0015802527 0.15804487 0.094253734
000160 37 56 4b 3d b0 19 f2 bd 40 3d a3 3d b3 e0 73 3d
       0.049642768 -0.11821306 0.07970667 0.05954046
000170 6c 4b 01 3e 7b 44 2b be d5 59 16 be 6e b1 86 bd
       0.12626427 -0.16725342 -0.14682706 -0.06576811
000180 c9 92 02 bc fd 01 c8 3c a7 81 46 3d ed 01 1f 3e
       -0.007969567 0.02441501 0.04846349 0.15528078
000190 ea 7c e8 3d 11 23 9a bb 5c fe 78 3d 4e eb c1 3d
       0.113519505 -0.0047038873 0.06078945 0.09468709
0001a0 24 1f a9 bd 5d 7e 2c be 6f ed 0c 3d 7e 59 b8 bd
       -0.08257893 -0.16845079 0.03440612 -0.09001444
0001b0 4f ce c0 3d 31 54 91 3d 23 c3 de 3d 20 2f 21 be
       0.0941435 0.07096136 0.10877063 -0.15740633
0001c0 da 8f c8 bd a9 25 10 bd e9 78 9d bd e5 fa ae bd
       -0.097930625 -0.035192166 -0.076890774 -0.08543948
0001d0 5c 9e 17 3e 79 0b 34 3b 71 fb 6f bd 22 50 8b 39
       0.14806503 0.0027472659 -0.058589403 0.0002657185
0001e0 7c 17 09 be 7f 9c 11 3e 8f 23 45 bd 9d 87 c5 3d
       -0.13387865 0.14219855 -0.048129614 0.09645007
0001f0 e2 ce b5 bd eb 00 20 be 1b 28 dc 3d e4 f2 ae 3c
       -0.088773504 -0.1562535 0.10749837 0.021356054
000200 0c 60 e3 3d 56 e0 e7 bd dc fc 4c bd af 0f 69 bd
       0.11102304 -0.113220856 -0.050045833 -0.056899723
000210 a4 f1 7f 3d fe c5 a1 bd 39 e5 13 be 03 8f e0 3c
       0.062486306 -0.07899092 -0.1444291 0.027411943
000220 74 71 c3 3b ee 03 6b 3d 5b c2 8e bc 51 b5 da bd
       0.0059644524 0.057376795 -0.01742666 -0.106791146
000230 eb 27 c1 3d 0d 57 0c 3e b7 8e c7 3d 76 54 d8 bc
       0.09431442 0.13705082 0.097440176 -0.026407462
000240 87 11 05 3d b5 c6 fc 3c d2 4d 15 3e 3a 63 ea 3d
       0.03248742 0.03085647 0.14580467 0.11444707
000250 69 12 11 3e 30 66 cb 3c cf 04 3e 3c fb 2c 1d 3d
       0.14167179 0.024829 0.011597826 0.038372975
000260 57 22 9e 3c 79 7b a6 bd 4e 33 b7 bc 16 f0 2d bd
       0.019303484 -0.08129019 -0.022363331 -0.042465292
000270 a1 32 01 3e 11 52 4e 3b a7 97 2e bd db 93 21 3e
       0.1261697 0.003148202 -0.042625096 0.15779059

model.rnn.bias_hh_l0 f4 [160]
000000 ec 4b dd 3d 1b 94 92 bc 0e 67 9e bd a4 17 f8 bd
       0.108054966 -0.017892888 -0.077345 -0.12113884
000010 7d 4b 94 bd ef 61 9d 3d 01 cf e6 3d 95 e9 7f 3d
       -0.07240961 0.07684695 0.112699516 0.06247862
000020 db aa f4 bc ec d5 15 be f5 18 4d 3d 09 10 49 3d
       -0.029866626 -0.14632386 0.05007263 0.049087558
000030 ab 82 92 bc 52 cc 1b 3e b8 53 29 3c 35 89 ab 3d
       -0.017884573 0.15214661 0.0103349015 0.083757795
000040 e5 87 f1 bc 70 b0 3a bd 8d f2 19 be a6 23 06 ba
       -0.029483745 -0.04557842 -0.15033932 -0.00051170064
000050 01 ff bf 3c ce 34 73 3d 20 1f c6 bd 36 5e c0 bb
       0.023437025 0.05937653 -0.096739054 -0.005870606
000060 f8 bc 5b 3e aa b1 12 3d 3b bf 7b bd 22 ae ca 3b
       0.21458805 0.035813965 -0.06146167 0.006185309
000070 5d b0 0c 3d ee e1 94 bc 3c 60 34 be fd bc 2c 3d
       0.03434788 -0.018174138 -0.17614836 0.04217242
000080 99 17 69 bc 47 f0 e8 3d a0 0b d8 bc 84 6f 6e 3e
       -0.0142268175 0.11373954 -0.02637273 0.23284727
000090 ed 7c 00 3e aa 42 9c 3c c6 15 1e 3c 1f ad 2f 3e
       0.12547655 0.019074757 0.009648746 0.17155884
0000a0 08 07 bf bd 84 1e 88 3c f4 48 2e 3e 44 24 06 3e
       -0.09327513 0.016616113 0.17020017 0.13099772
0000b0 37 15 7d 3d f6 2b ae bc df 7c 21 3e b9 53 a1 bd
       0.06178781 -0.021261197 0.15770291 -0.07877297
0000c0 f8 be 22 be c3 8d 08 be 10 07 20 be d1 b4 95 bc
       -0.15893161 -0.13335328 -0.15627694 -0.018274697
0000d0 45 1f 96 3c 7e da 2e 3c 81 1a ce ba dd af c5 3c
       0.018325457 0.01067221 -0.0015724452 0.02413171
0000e0 09 05 f9 3d 7c f7 f8 bd 1e ce 03 be ca da 1a 3e
       0.121591635 -0.12156579 -0.12871596 0.15122524
0000f0 b5 cb 3a be 53 68 ab 3d 04 23 84 3d 81 ce 1a be
       -0.1824177 0.08369508 0.06451991 -0.15117837
000100 2a 5b 62 bd f3 9d cb bd e8 ef 9d 3d cf 21 0f 3c
       -0.055262722 -0.09942236 0.07711774 0.008736088
000110 3d 2d b7 bd a2 f3 48 3d b6 24 e4 bc 04 7b 40 3e
       -0.089441754 0.04906047 -0.027849536 0.18796927
000120 6f ee 0d be f2 a7 42 3d 2c 4d 89 3b 87 51 34 3c
       -0.13860486 0.047523446 0.004190108 0.011005766
000130 94 15 04 3e d9 d3 db 3c 35 32 14 be 15 b3 12 3e
       0.12898856 0.026834415 -0.14472277 0.14326127
000140 1d 90 81 3c 9c b3 90 bd 15 1b 08 be 14 d7 fb 3d
       0.015815789 -0.07065508 -0.13291581 0.12296882
000150 c4 fe d2 bd 58 f9 11 3e 36 a6 e7 3c b5 a2 ae bd
       -0.10302499 0.14255273 0.028277498 -0.08527128
000160 ec f9 0d bd 6d 6e d8 bd ff e1 07 be a5 29 48 be
       -0.034662172 -0.10567937 -0.13269804 -0.19547136
000170 32 35 22 3e d2 37 d2 bd b9 04 0a 3d 7d 5b 10 3e
       0.15840605 -0.10264553 0.03369591 0.140974
000180 5a da 85 bd 69 c8 a8 3d 07 74 b4 3d 90 47 bf 3d
       -0.06535788 0.0824135 0.08811193 0.09339821
000190 0d 98 9d bd d6 e8 5a 3d 38 99 da 3c 1e 54 96 3d
       -0.07695017 0.053444706 0.026684389 0.07340263
0001a0 d4 9a 16 3d d1 ff 0b bd 8f 8e e6 bc ca 1f c6 bd
       0.03676875 -0.034179512 -0.02814415 -0.09674032
0001b0 83 bc 85 bd ba 65 9c 3d 84 e7 32 bd 98 da d5 bd
       -0.065300964 0.0763659 -0.04367782 -0.10442084
0001c0 1d 6c b1 bd a1 e5 f2 bd a5 a7 bf bc 6c ac 04 3d
       -0.08663199 -0.118602045 -0.023395369 0.032390997
0001d0 da bd e2 3d dd a8 09 3e 0b d0 68 bd 1a 43 25 be
       0.110713676 0.13443322 -0.05683903 -0.16138878
0001e0 b4 5c f4 bd ca 4c a2 3d 0e 33 8f 3d 2a a4 d9 3c
       -0.11931744 0.079248026 0.0699216 0.026567537
0001f0 77 5b bc 3d 68 59 58 3d b1 3b 02 be 36 bd f6 3d
       0.09197133 0.05281964 -0.12718083 0.12047808
000200 42 9d 15 be 1d 71 2b bd b7 7f 93 bd d5 9d ea 3d
       -0.1461077 -0.04185592 -0.07202094 0.11455885
000210 cf bb 80 bc 8f d9 96 bd a0 5b 8f bd 8f 00 00 3e
       -0.015714554 -0.07365715 -0.06999898 0.12500213
000220 4e d4 93 3c 0c 86 5b 3d 74 31 ef 3c f2 cd f5 3d
       0.01804557 0.053594634 0.029198386 0.120021716
000230 17 68 2d 3e 49 11 06 be f4 b2 64 3e 62 85 44 3e
       0.16934238 -0.13092531 0.2233389 0.19191507
000240 51 d7 b1 3c 6e 54 2f 3b 31 38 43 3e 5c 93 35 be
       0.021709116 0.0026753205 0.19064404 -0.17731994
000250 45 fc a7 3d 2a 1a b3 bd 22 32 cf bd 07 22 15 3e
       0.082024135 -0.08745225 -0.10116984 0.14563762
000260 71 72 0c 3d 74 a6 cd 3d 29 41 37 3e d3 51 4a 3e
       0.034288827 0.10041514 0.1789595 0.19757776
000270 de 11 1e 3e bc bd 08 3e 5a ed 80 3d 6a be 89 3b
       0.15436503 0.13353628 0.06295271 0.0042036073

model.rnn.weight_ih_l1 f4 [160, 40]
000000 76 6b 0a 3d e4 55 82 bd f3 63 f4 bd 92 e5 60 bd
       0.03379389 -0.063640386 -0.11933126 -0.054906435
000010 b3 a5 9e 3d 4b aa 2d be d2 d2 88 3d 23 12 e4 3d
       0.07746448 -0.16959493 0.06680836 0.11136272
000020 81 35 f4 bd 49 96 16 bc 28 d0 ee ba b2 51 72 3d
       -0.119242676 -0.009191104 -0.0018219994 0.059159942
000030 f4 86 70 3c 2d 5c 53 be 62 91 bc bd e6 f5 50 bc
       0.014680613 -0.20640631 -0.09207417 -0.012753939
000040 5c 14 71 3d 4b f5 05 be ac b7 da 3d 4b 84 c7 3d
       0.058857307 -0.13081853 0.10679564 0.0974203
000050 4c e3 d1 bb 8d 89 aa bc 1d cc 2e be 1e 19 eb 3c
       -0.0064052697 -0.020817542 -0.1707005 0.0286985
000060 eb 60 03 3e 10 b2 03 3d b8 67 09 be a5 ab f5 3d
       0.1282994 0.032152236 -0.13418472 0.11995629
000070 f6 3c db 3d e1 95 64 3e 64 4d 0a bd 28 69 e7 bd
       0.10704987 0.223228 -0.03376521 -0.11299354
000080 79 d1 b6 bd bb 89 3a be 41 0f f5 bb 20 ad 08 3e
       -0.089266725 -0.18216603 -0.007478625 0.13347292
000090 0b 5e 63 3d 7f a5 93 3e 62 81 da bd 34 e9 4c bd
       0.05550961 0.288372 -0.10669209 -0.050027087
0000a0 b4 6a 07 3e 0d d9 22 3d ec 32 85 3d 6d cb 6b bd
       0.13224298 0.039757777 0.06503853 -0.05756705
0000b0 37 0a 8a 3d b5 dc 84 3d 5b 0f 48 3e 89 75 d7 3c
       0.067402296 0.06487409 0.19537108 0.026301162
0000c0 04 7b e4 3d 6d 3e f4 bd 57 59 32 3d 2d d9 49 3e
       0.11156276 -0.11925969 0.043542232 0.19711752
0000d0 63 13 1f be 66 f7 a9 3d 4d 16 a3 3d 48 ff 5e bb
       -0.15534739 0.08299141 0.07963238 -0.0034026671
0000e0 53 f8 11 3e 36 48 d5 3d fb a2 f7 3d f7 c0 0d be
       0.14254884 0.10414164 0.12091633 -0.13843141
0000f0 57 80 02 3e 72 31 22 be 9c 64 82 3e 94 f0 a2 3c
       0.1274427 -0.15839174 0.25467384 0.019890107
000100 12 8c 86 bb b2 3d 23 be d0 6c 3e 3e 7b 2a 16 3e
       -0.004106053 -0.15941504 0.18596196 0.14664643
000110 cc c1 3e bd e8 37 e4 bd 8c 13 64 bd 1c 07 fa bd
       -0.046571538 -0.11143476 -0.055682704 -0.12208387
000120 d9 26 3f 3e 4f 3e 8e 3c 7c 69 29 bd 44 42 84 bd
       0.18667163 0.017363695 -0.041360363 -0.06457952
000130 9d dc 67 bd 60 e5 ee bc 3f 3f 91 3d 21 24 a9 bc
       -0.056606878 -0.029162109 0.07092141 -0.02064711
000140 15 6a ed bd ee 57 eb bd 7c 23 1e be 00 a4 5c bc
       -0.11592499 -0.11491381 -0.15443224 -0.013466835
000150 0d 54 22 3d 76 b0 7c bd bb 6f 3b 3d fb ae 53 bd
       0.03963094 -0.061691724 0.04576085 -0.051680546
000160 8f 3c 03 3c f6 1c e9 bd 74 9a 38 be 3c a4 99 3d
       0.008010044 -0.11382477 -0.18027669 0.07502028
000170 fb 12 cb bd b1 b1 ea 3d 32 f5 7f 3d a4 fe 09 3d
       -0.099157296 0.11459673 0.062489696 0.03369011
000180 57 3b 55 3d d7 2a 6a bc 4e 63 b1 bd df 40 bf bd
       0.052058544 -0.01429244 -0.08661519 -0.09338545
000190 f9 01 9c bd bf 89 d4 bd 7a c5 4e 3e 52 1a 4a be
       -0.07617564 -0.103778355 0.20192519 -0.19736603
0001a0 2f 2f 1d 3e d6 69 48 bd 50 27 e5 3d 9a b0 65 3e
       0.1535003 -0.048929058 0.11189139 0.2243065
0001b0 b5 db 3d be 97 3a 0f 3d 35 de 14 3d a5 9e a9 3d
       -0.18540843 0.034967985 0.036344726 0.08282212
0001c0 fe 05 14 3e 1f 1a b6 3d 85 37 b2 bb a7 5a 93 bc
       0.14455411 0.08891701 -0.0054387474 -0.017987562
0001d0 79 6d b5 3d b8 6f 85 bc a0 96 cc bd ad be 2d 3d
       0.08858771 -0.016288623 -0.09989667 0.04241817
0001e0 33 78 f1 bd dd e2 18 3d e0 af 02 3c ed 5a 85 bc
       -0.11790504 0.03732573 0.007976502 -0.016278708
0001f0 82 6e 0f 3e 44 4d 09 be 98 5c 33 3e 5a 7c f4 bd
       0.14006999 -0.13408381 0.1751579 -0.11937781
000200 3f bb 01 be 39 45 63 3e c8 e0 97 3d e9 2d a4 3d
       -0.12669085 0.22194375 0.074159205 0.08016569
000210 97 b1 0f bd 54 1c 47 3c d3 8b 87 bd 8b 80 4d bd
       -0.035081472 0.01215275 -0.06618466 -0.050171416
000220 42 c8 81 3d f7 33 63 bc 04 51 1c 3e 84 f3 aa bd
       0.06337024 -0.01386737 0.1526528 -0.08347228
000230 04 02 de 3d 87 57 bd 3d 26 a2 56 ba ab 9f d5 bd
       0.10840228 0.0924521 -0.0008187614 -0.10430845
000240 37 a5 09 be a8 62 0e be 4d ee 27 be d5 d9 76 3d
       -0.1344193 -0.13904822 -0.16399498 0.060266335
000250 81 17 73 3e fe 1a 1d 3e a6 54 9f bd 12 57 0b 3e
       0.23739435 0.15342328 -0.07779817 0.13607433
000260 ad 28 6c bd b9 b5 de bd ed a7 9a 3d 73 7f fb bc
       -0.05765598 -0.108745046 0.075515606 -0.030700421
000270 66 53 0b 3e 53 b4 fb 3d 4a ab 25 be 69 c9 c9 bd
       0.13606033 0.122902535 -0.16178623 -0.09852869
000280 fe e4 19 be eb b2 00 3c fe d9 d4 bc c6 c7 3c 3e
       -0.1502876 0.007855157 -0.025982853 0.18435583
000290 3b 17 95 3d e4 d7 54 3e 4b d1 9e bc 9b 32 c6 3d
       0.072798215 0.2078548 -0.019386908 0.09677621
0002a0 aa d8 1a bc 84 b9 2a 3e 73 21 52 bc 9f ce e6 3d
       -0.009451071 0.16672331 -0.012825358 0.112698786
0002b0 8c 6c a6 bd 93 ec 46 be 36 8b 76 bc 7c aa c7 3d
       -0.081261724 -0.19426183 -0.015047839 0.09749314
0002c0 c0 4b 13 3c 19 4b c8 bd 89 db 1c 3e d9 23 0b be
       0.008990228 -0.09779949 0.15318121 -0.13587894
0002d0 cf 9f ed 3d 5f c1 be bd 58 9c 90 3d 23 1b 39 be
       0.11602747 -0.09314226 0.0706107 -0.18076758
0002e0 98 5c 6e 3d 3f 96 2f bc 49 cb 65 be c9 12 a6 3b
       0.058193773 -0.010716974 -0.22440828 0.0050681573
0002f0 ec 68 1e 3e 3d 8d 06 bc b0 29 b6 3d b3 ce 97 b9
       0.15469712 -0.008212385 0.0889467 -0.00028954967
000300 84 e2 f2 3d 57 f2 2d be 86 5a 41 3d 0d 5a dd 3d
       0.11859611 -0.16986977 0.04720547 0.108081914
000310 b6 15 bf 3c 50 9c 54 3d 2e 06 25 3e 2a ba 55 be
       0.023325782 0.051906884 0.16115639 -0.20871797
000320 e1 6f bf bd cf 6a 85 bd 02 80 81 3b 38 83 ee 3c
       -0.09347511 -0.06514513 0.0039520273 0.029115304
000330 cb ee 13 bd bb 1a e9 bd 65 82 0f bc 0c cc c6 3d
       -0.036116403 -0.113820516 -0.008759116 0.097068876
000340 7f ff 6a 3d 73 54 3c 3e f9 84 20 3d 33 3d 72 bd
       0.057372566 0.1839159 0.039189313 -0.059140395
000350 27 b9 28 be 90 59 b3 bd a4 60 d7 bb 85 15 11 bd
       -0.1647688 -0.08757317 -0.0065727998 -0.035420913
000360 8f f0 d8 bc 17 db ec 3d 6a 32 8c bd 77 1b 84 3d
       -0.026481895 0.115652256 -0.06845553 0.06450551
000370 0e bd 97 3b 94 26 91 bc 2b 52 2f 3e 8a f3 91 3d
       0.0046306914 -0.01771859 0.17121188 0.071265295
000380 ff ca f5 bd 16 c5 d4 bd f8 de b4 3d 01 a3 8a 3d
       -0.12001609 -0.10389154 0.088315904 0.06769372
000390 14 6c f4 3d 25 8c 00 bd c0 d1 14 bd 2b e1 f2 3d
       0.11934677 -0.031383652 -0.036332846 0.11859354
0003a0 b4 fc 16 be 9d 4c 65 3c bb d4 02 bc 87 57 07 be
       -0.14744836 0.013995317 -0.007985289 -0.13216983
0003b0 7f 60 07 be d2 bc fe bc 78 69 25 be fd d6 bf 3d
       -0.13220404 -0.031095896 -0.16153514 0.09367178
0003c0 38 93 db bd 57 b6 31 bd 77 57 cf 3b ae 97 0e 3e
       -0.10721439 -0.043386783 0.0063275653 0.13925049
0003d0 2e 7f 4f be 6f 1a 5b 3e 8e 1f 20 3e 0b b3 d5 bd
       -0.20263359 0.21396802 0.15637037 -0.1043454
0003e0 48 85 a1 3d 69 0f 0a be e7 65 75 bd e6 36 5e 3e
       0.078867495 -0.13482441 -0.059911635 0.2170063
0003f0 84 fc e9 bd f1 03 31 be 18 3a 76 bc 8c 2f 5c 3e
       -0.11425117 -0.1728666 -0.015028499 0.21502513

model.rnn.weight_hh_l1 f4 [160, 40]
000000 54 ba 01 be 21 41 3e 3d b0 f5 7d bd 3b 79 df 3d
       -0.12668735 0.04644883 -0.062001884 0.10911795
000010 e9 a5 9c bd 88 6c eb 3d e5 4b 92 3d c6 b0 0c 3e
       -0.07648832 0.1149531 0.07143382 0.13739309
000020 ed f9 1d be ac db 40 3e a8 d0 91 3d a0 cf 0c 3e
       -0.1542737 0.18833798 0.07119876 0.13751078
000030 24 1c 91 3d 00 f3 21 3e 0d 46 f0 3d 50 87 fb 3d
       0.070854455 0.15815353 0.11732111 0.12281668
000040 2c b9 2b 3e e1 6b dc bd 4a 16 83 bd 9c 48 1a bd
       0.16769856 -0.10762764 -0.06400736 -0.037666902
000050 64 10 e8 3d a8 6c 5a bd 84 ca 62 bd f4 35 dd bd
       0.11331251 -0.05332628 -0.055368915 -0.10801306
000060 37 58 bf bd de 7f 0f be c0 44 59 3d 23 77 96 bc
       -0.093429975 -0.14013621 0.05304408 -0.018367356
000070 5c a5 4b 3e 50 57 1e bd 1d 5d a7 3d 4f 28 bc bd
       0.19887298 -0.038657486 0.08172057 -0.09187376
000080 5a 51 63 bd b1 dd 03 3e 10 87 20 3e 1b 70 a9 bc
       -0.055497505 0.12877537 0.15676522 -0.020683339
000090 62 57 a8 3d 60 cc e0 bd 10 2b 01 be ed 28 cf bd
       0.08219792 -0.109764814 -0.12614083 -0.10115228
0000a0 ca 23 04 bc 6c 37 a4 bd 66 c3 08 be 99 04 2e 3c
       -0.008065173 -0.080183834 -0.13355789 0.010621213
0000b0 53 66 95 3d d9 fb 00 3e 13 bb 85 3d 33 f1 fa 3c
       0.072949074 0.12596072 0.06529822 0.03063259
0000c0 bb 19 bb 3d bb 33 e4 3d b4 33 46 3d e7 16 be bd
       0.09135767 0.11142679 0.04838915 -0.09281712
0000d0 74 cc d2 bb da 33 09 be 14 73 ff 3d bd a3 0a 3e
       -0.006433064 -0.13398686 0.12473121 0.13539024
0000e0 f0 81 35 bc 04 39 d6 3c cc 75 01 3e ac 9c 82 3d
       -0.011078343 0.026150234 0.12642592 0.06377539
0000f0 45 c5 e1 bd 15 c0 21 be ed ea 06 3e fe 06 e1 bd
       -0.11023954 -0.1579593 0.13175555 -0.10987662
000100 d6 5c 07 bc 15 f8 a6 3d a5 ee 10 3e 30 1b 6c bd
       -0.00826188 0.08152787 0.14153536 -0.057643116
000110 27 e4 8a bc 2f 98 02 bd ee 1b 33 3e 46 fd 97 3d
       -0.016954495 -0.031883415 0.17491123 0.07421355
000120 be 88 fc bd cb 1e 21 be 3d a5 10 bd d9 e2 3b be
       -0.12330769 -0.15734403 -0.035313834 -0.18348254
000130 7d 33 8b 3d 6d 8d 00 3e 02 cb 82 bd 15 93 1c 3e
       0.0679693 0.1255395 -0.06386377 0.15290482
000140 62 c6 fe 3d 7b a6 06 3d 63 7d 83 bc 1e d1 1b 3e
       0.12440182 0.032873612 -0.016051 0.1521649
000150 4a 90 fc bc 92 e9 ce bd 88 6f ae 3d d2 2a dc 3b
       -0.030830521 -0.10103144 0.08517367 0.0067189718
000160 2a cc 38 3d 3a dc a4 3d 2a 2f e2 bc c1 ff de bc
       0.04511658 0.080498174 -0.02761038 -0.027221562
000170 dc a6 c3 3d 10 6e 30 3d ab 1c bb 3c 07 f2 ee 3d
       0.0955331 0.043073714 0.022840818 0.11667257
000180 e3 af fc bd cf ea b8 3c 57 40 1b be 93 52 2f 3e
       -0.12338235 0.022572903 -0.15161262 0.17121343
000190 fe 31 0e be dd 7a 0f 3e 2e f4 b7 3d 58 f0 95 3c
       -0.13886258 0.14011712 0.089821205 0.018303081
0001a0 79 32 8a 3d b7 c0 a0 bd d2 23 d4 3d 41 d3 ff bd
       0.06747908 -0.078492574 0.10358395 -0.12491465
0001b0 d1 f9 55 be 7f c3 3c be 5c 23 1c bd 5c b4 c2 ba
       -0.20896079 -0.18433951 -0.03811966 -0.0014854777
0001c0 c6 9e 00 be 20 c1 0d 3d 5a 1c 42 bc 95 2d e7 bc
       -0.12560567 0.034608006 -0.01184758 -0.028219977
0001d0 08 18 e6 ba 32 78 d8 bc 4a ac eb bd 56 18 10 3d
       -0.0017554769 -0.026424501 -0.11507471 0.03517946
0001e0 e9 2a 69 bd 7b 36 78 bd f1 bc 4f 3d e8 1e 02 be
       -0.056925688 -0.06059883 0.050717298 -0.12707102
0001f0 71 b2 8f 3c 26 c3 39 bd 89 5a c4 3d a1 02 c9 3d
       0.017541142 -0.045352124 0.09587581 0.098149545
000200 8a dc e3 bd 32 79 6f bd 96 b6 bc 3d b2 93 ff bd
       -0.11126049 -0.05846519 0.09214513 -0.124793425
000210 c6 a3 bf 3c 88 f8 af 3d 10 af 8b 3d 93 97 0d 3e
       0.023393523 0.085923254 0.068205 0.13827352
000220 86 64 c7 3d b9 11 54 3d fd e2 f8 3d 23 cb b2 bd
       0.0973597 0.051774714 0.121526696 -0.087301515
000230 5f 72 7c bd 2c 1a 01 be b7 b4 ec bd 9e eb e8 bc
       -0.06163251 -0.1260764 -0.11557906 -0.028432664
000240 de ae 42 3c 23 a5 71 bc 06 e0 0b be ff 72 cb bd
       0.011882512 -0.014748844 -0.13659677 -0.09934043
000250 32 f6 a0 bd 56 f6 de bc c2 52 d3 3c 7e 01 fd bd
       -0.07859458 -0.027217072 0.025796298 -0.123538
000260 a6 9e 2c 3b 69 d8 9f 3d 54 2f e1 bc 44 25 34 3d
       0.002633968 0.07804949 -0.027488388 0.04398085
000270 0f 68 1e be 5e 14 fd 3d ed b2 cf bd c2 4a b4 bd
       -0.15469383 0.123574 -0.10141549 -0.088033214
000280 21 8f 4f be a6 bd 09 3e d4 fc 02 3e 03 b3 d8 3c
       -0.20269443 0.13451251 0.12791759 0.026452547
000290 78 0a c8 bd 08 72 8f 3d 70 98 6b 3e 85 2b a4 ba
       -0.09767622 0.070041716 0.23007369 -0.0012525177
0002a0 a8 c5 16 3d 3f 53 df bd 22 9c c1 3d e6 9d 35 bd
       0.036809593 -0.1090455 0.09453608 -0.044340037
0002b0 7f 1f 23 be cb 00 4f be d8 bb 28 3e b4 f4 41 3e
       -0.15929984 -0.20215146 0.16477907 0.18941003
0002c0 70 07 ec bc f5 84 ec bd 22 5a 87 bd 3e 8c 1e be
       -0.02881214 -0.11548797 -0.06608988 -0.15483186
0002d0 84 96 56 3d ad 26 9d 3b ec e4 23 3e 5e 7a 63 bd
       0.052389637 0.0047958703 0.16005296 -0.05553662
0002e0 95 40 bc 3d 53 63 9b 3d 57 bf 0b be 1a 99 16 3e
       0.091920055 0.07587304 -0.13647209 0.14706841
0002f0 54 81 4d 3e 44 0e cd bc 52 fe 46 be 8a da 0d be
       0.20068866 -0.025031216 -0.19432953 -0.13852897
000300 2f 20 87 3d e9 fc 82 3d 98 b1 10 bc a1 53 e9 bc
       0.065979354 0.06395895 -0.008831404 -0.02848226
000310 49 8c 12 3d 58 e6 18 be 3c ed 9e 3c a8 30 11 bb
       0.035778318 -0.14931619 0.019400232 -0.0022154246
000320 b5 42 c3 bc ac 4c c1 3d 6a dc b1 3d be 27 38 3d
       -0.02383552 0.09438452 0.08684619 0.044959776
000330 82 b9 70 3e 29 3b 42 3d c9 50 40 bd 6f c1 48 3d
       0.23508266 0.0474197 -0.046952043 0.049012598
000340 8e 45 ce bd b6 53 9a 3d 76 3d 94 bc 9b de 9d 3b
       -0.1007186 0.07535498 -0.018095713 0.0048177964
000350 75 6b 0f be b5 e4 b2 bd 93 ec 8a 3d c6 2d 87 bd
       -0.14005835 -0.08735029 0.06783404 -0.066005275
000360 f8 22 8e 3d ce 70 17 3c 8c 17 f7 bc 40 ed 3c bd
       0.069402635 0.009243203 -0.030162595 -0.046124697
000370 68 f4 71 bd 69 38 22 3d 0d 25 2e bd bf 16 aa 3d
       -0.059070975 0.03960458 -0.042515803 0.0830512
000380 bf 20 1a 3e fb 68 f2 bd f2 d0 bc 3d 06 9e 8c 3d
       0.15051554 -0.1183643 0.09219541 0.06866078
000390 34 ad 53 be 47 1c d7 3d 8c 0a 3d 3c 17 6b e7 bc
       -0.2067154 0.1050344 0.011538159 -0.028249307
0003a0 b7 c8 ce 3d c4 9b 25 be 78 f7 eb bd af 00 56 be
       0.10096877 -0.16172701 -0.1152181 -0.20898698
0003b0 df f4 e8 3d a9 5b c9 bb 46 5d 4a 3e 4e 66 b4 bc
       0.113748305 -0.00614496 0.19762143 -0.022021439
0003c0 13 37 08 bd f4 c1 e9 bd bd 0f 2e 3e 08 b9 89 bd
       -0.033255648 -0.11413947 0.16998191 -0.06724745
0003d0 c8 7c fd bd 42 ba d8 bd 6b 53 01 be d3 20 64 3d
       -0.12377316 -0.10582401 -0.12629478 0.055695366
0003e0 c1 85 64 bd 61 93 1b 3e 42 c6 9c bd cb fe a4 bd
       -0.05579162 0.1519294 -0.07655002 -0.080564104
0003f0 95 6a 1a be 48 ef da bd 7c 53 f0 3d a3 86 ce bd
       -0.1507972 -0.106901705 0.117346734 -0.10084274

model.rnn.bias_ih_l1 f4 [160]
000000 67 08 4d 3e 46 03 48 3e fd 68 1c 3d ea 0c df bc
       0.20022736 0.19532499 0.038186062 -0.027227838
000010 f1 b6 71 3d 94 33 27 be 91 36 59 3e 40 9e ef 3d
       0.059012357 -0.16328269 0.21212222 0.11700106
000020 c5 a0 49 bd 9f a6 05 3c 29 81 0d 3e d7 bb 6e bd
       -0.049225587 0.008157401 0.13818802 -0.058284607
000030 4b 3c 3d bd f3 82 a4 bd 4f aa 26 3e 4c 95 08 be
       -0.046200078 -0.08032789 0.16275905 -0.13338202
000040 9b e7 a3 3d ab 42 d8 3b a3 fa dd 3c d9 53 8d 3d
       0.080031596 0.0065997443 0.027097052 0.06900758
000050 25 95 4e 3e 97 c3 33 3d c5 25 c7 3d 7a 37 0d 3d
       0.20174082 0.0438877 0.09724001 0.034476735
000060 3f f1 56 bb 5a 26 eb 3d f3 97 15 bd b1 6f f1 bd
       -0.0032797602 0.11481924 -0.036521863 -0.117888816
000070 15 af b6 3d a8 ee 01 be f1 d8 ae bd b3 01 06 3c
       0.08920113 -0.12688696 -0.08537472 0.008179116
000080 b3 cd 97 3d ad 01 af 3d c0 f3 13 bd 66 02 5b 3e
       0.07412281 0.085452415 -0.03612113 0.21387634
000090 6f 9a 87 3e aa cc 54 3e c1 3f b1 bc 5d 50 81 bd
       0.2648501 0.20781198 -0.021636846 -0.06314156
0000a0 1a d6 2c 3d b4 c5 9d 3c 12 ae b3 3d 8a fb e4 bd
       0.04219637 0.019259311 0.08773436 -0.1118079
0000b0 30 3e cc 3d 90 06 99 3d 76 56 36 3e ae b9 d9 bd
       0.09972799 0.07471955 0.1780642 -0.10631119
0000c0 e1 a8 01 bd 12 ea 85 bd ec 06 09 be 49 4e 44 3d
       -0.031655196 -0.06538786 -0.13381547 0.04792622
0000d0 18 c8 fc bd a0 e4 d6 bd 10 1f 8f bd 48 49 9f bd
       -0.12342852 -0.104928255 -0.069883466 -0.07777649
0000e0 ce 29 c3 3d 62 31 06 be 72 f1 a6 3d c3 66 f2 bd
       0.09529458 -0.13104776 0.08151521 -0.118360065
0000f0 5b 1c c2 3d b2 7c d9 3d 2d 20 60 bd 5f 35 16 3e
       0.094780646 0.10619487 -0.054718185 0.14668797
000100 48 fc f6 bc 73 e5 25 3c 4b 93 2d 3e 97 2e f1 3d
       -0.030149594 0.010125506 0.16950719 0.117764644
000110 42 65 e0 bd 3f 15 23 3e 32 47 cc 3d 4a 9e 51 3e
       -0.109568134 0.15926073 0.09974517 0.20470539
000120 10 70 86 b6 0b 6d 1a be fc 62 c5 bd c2 1c dd 3d
       -4.006557e-06 -0.15080659 -0.096380204 0.10796501
000130 4a 65 78 bc f2 d5 46 bd 2b fe 93 3d 10 56 54 bc
       -0.015160868 -0.048543878 0.07226213 -0.012959972
000140 69 27 e4 bd 69 03 03 3e 1a 0a 20 3e 12 21 35 3e
       -0.111403294 0.1279427 0.15628853 0.17688397
000150 af 4d 18 be 83 06 d6 3c 75 c2 8a 3d c5 bc 73 bc
       -0.14873384 0.026126152 0.06775371 -0.014876549
000160 2c 0d e2 bd cd e8 af 3b 20 b7 ce 3d 18 55 08 3d
       -0.110376686 0.005368328 0.10093522 0.033284277
000170 69 a0 3d bc cb 44 ec bd 28 7e 24 3e 13 0f 91 3d
       -0.011573889 -0.11536559 0.1606375 0.07082953
000180 3e 3f b8 3d 0b a7 02 be 27 1a 7d bc d3 28 f4 3c
       0.089964375 -0.12759034 -0.01544813 0.029804623
000190 0d ee 49 be 0f 43 d0 3d b6 af 83 3c 8e 67 ec 3a
       -0.19719715 0.101690404 0.016074996 0.0018036233
0001a0 a5 dc 3a 3e b6 b2 03 be c4 d3 6e 3d fc da da 3c
       0.18248232 -0.12861142 0.058307424 0.026715748
0001b0 a4 e9 65 bd 3c 84 f1 bd b0 1e c7 3d bd 6e 0e be
       -0.05613102 -0.117928 0.0972265 -0.13909431
0001c0 4f 58 f6 bc 16 13 e5 bd cd bc f1 bd 22 fc 25 be
       -0.030071406 -0.11185281 -0.11803589 -0.16209462
0001d0 de 2c 8b 3d 11 e6 51 bd c2 75 97 3c 30 27 d2 bd
       0.06795667 -0.0512448 0.018488768 -0.10261381
0001e0 42 59 dc bc a0 33 a2 bd 8d 62 10 3e 42 b3 fb bb
       -0.02689803 -0.07920003 0.14100094 -0.0076812813
0001f0 2e ed 5f 3e 17 d9 fb 3c a6 62 eb 3c 65 a0 11 3d
       0.2186782 0.030743165 0.028733563 0.035553355
000200 37 ff 16 3d ae 35 09 be 82 45 9d 3d e3 d9 8c 3d
       0.036864486 -0.13399383 0.07679273 0.06877496
000210 67 b7 1c be 23 2f a5 3d 71 77 a1 bd 33 db 19 3d
       -0.15304337 0.08065631 -0.0788411 0.03756256
000220 64 7d 4d 3e 5e cb 3f bc b6 29 08 be 3c ba 2f 3c
       0.20067364 -0.011706201 -0.13297161 0.010725554
000230 9a 56 43 bd f0 78 b6 bd 3a 3f 55 bd c6 ef 37 3e
       -0.04769001 -0.08909786 -0.05206225 0.1796256
000240 40 7a 1b 3d 76 8b dc bc f7 5d 42 bd 68 ba 89 bd
       0.037958384 -0.026921969 -0.047452893 -0.06725007
000250 68 b3 45 3e 2d b3 81 3d f8 88 44 bc 59 ae 13 be
       0.1930672 0.06333003 -0.0119955465 -0.14421977
000260 6f 76 30 3d ce 31 6c bc 8c 8b 05 bb d5 37 57 3e
       0.043081697 -0.014416171 -0.0020377366 0.21017392
000270 3b 20 5c 3e 92 79 1c 3e 86 5e 0a be 3f 1d 74 3d
       0.2149667 0.1528075 -0.1351262 0.059598204

model.rnn.bias_hh_l1 f4 [160]
000000 29 d6 90 3d 41 64 4c 3d 04 e7 2d 3e b8 16 fd bd
       0.07072098 0.049900297 0.16982657 -0.12357849
000010 a7 5f bf bc da d2 72 bd 42 82 30 3e 65 a6 fc 3d
       -0.02336104 -0.059283115 0.1723719 0.12336425
000020 92 f5 a7 bd 13 84 97 bd a7 76 32 3e 51 c7 8a bc
       -0.08201136 -0.07398238 0.17428075 -0.016940745
000030 3f 1d 9d bd 2d 53 04 3d 6f a7 36 bd cc 33 cc 3d
       -0.07671594 0.032305885 -0.04459327 0.09970817
000040 e1 4c 56 3e 2c a8 fa 3d 27 f0 86 3d b2 86 5f 3e
       0.20927764 0.122391075 0.06588774 0.21828726
000050 26 8e 3a 3e 1a 41 fb 3d c0 28 eb bd b4 ba 12 3e
       0.18218288 0.122682765 -0.11482382 0.14329034
000060 05 5b ad 3b 52 2f e4 bb 9e 49 f6 3d 7a f3 9d 3d
       0.0052903914 -0.006963649 0.1202576 0.07712455
000070 a4 5d 5b 3c e0 7b 05 3e b4 bf ad 3c f6 fb 14 bd
       0.013389025 0.13035536 0.021209575 -0.0363731
000080 b8 fc a8 3d 5a 7c a9 bc 2b 4d 10 3d ee 18 27 3e
       0.08251327 -0.020689178 0.035229843 0.16318104
000090 7e 71 80 3d a4 1f 7d bd a0 44 ac 3d b2 6a 18 3e
       0.06271647 -0.061797753 0.08411527 0.14884451
0000a0 00 9e a0 bd fc 59 06 be 98 f7 e1 3d b9 5f 17 3e
       -0.07842636 -0.13120264 0.11033553 0.14782609
0000b0 ac b9 96 3d 8f 6d 22 3e 9d b0 28 3e 89 90 a7 3d
       0.07359633 0.15862106 0.16473623 0.08181865
0000c0 44 d4 4c 3d 5e 4a ef bd 01 50 0b 3d aa a9 f4 3d
       0.05000712 -0.11684106 0.034011845 0.11946423
0000d0 4f 6d 12 be fc 0c a7 bc 70 0b 14 3e 18 99 99 3d
       -0.1429951 -0.020391934 0.14457488 0.074999034
0000e0 3b 24 a8 bd 6d 55 41 3d c4 e0 44 bd 13 12 97 bd
       -0.082100354 0.04720061 -0.048065916 -0.07376494
0000f0 6d 12 a7 3c 13 08 2a 3e 2f c3 00 be 94 5a 36 39
       0.020394528 0.16604643 -0.12574457 0.00017390616
000100 69 3c 0c be 72 a6 d6 bd bb eb 10 3e e3 d9 11 be
       -0.1369492 -0.10480966 0.14152424 -0.14243273
000110 6e 50 4d bc 6a 37 48 bd 06 2e 05 3e 10 da f3 3d
       -0.012531383 -0.048880972 0.13005838 0.119068265
000120 31 38 19 be 1c 73 29 bd 7c 18 fc bc b3 90 5c bd
       -0.14962842 -0.041369542 -0.030773394 -0.053848933
000130 0d a2 fc bd b1 13 1c bd eb d9 fc bd 14 37 f5 3d
       -0.12335596 -0.038104717 -0.12346252 0.11973396
000140 75 bd c7 bd b5 62 8a 3d 2c 72 b8 3d 8e c9 fd 3c
       -0.09752933 0.06757108 0.090061516 0.030979898
000150 de 5f 77 3d 03 4d f4 bc 11 0e 16 3e d2 11 c8 bc
       0.06039416 -0.029821878 0.14653803 -0.02442256
000160 46 79 35 3d 12 fb a0 3d 4d 43 30 bd 16 71 3d 3c
       0.04430511 0.07860388 -0.043032933 0.011562606
000170 9b 5b 26 be d4 43 bf bd f0 d1 bd bd af 7f 85 3d
       -0.16245882 -0.09339109 -0.09268558 0.06518494
000180 28 ef b3 3d 73 45 64 3d 11 af e9 3d d8 28 b8 3d
       0.0878585 0.055730294 0.114103444 0.08992165
000190 e8 76 6c b9 55 66 3c be 7d 4f cb 3d de 31 8a bc
       -0.0002255101 -0.18398412 0.099272706 -0.016869482
0001a0 d7 14 13 3e 0c 8e ee bd 33 f4 1a 3e 6e 0d 44 3c
       0.14363419 -0.11648187 0.15132217 0.0119660925
0001b0 d4 a6 30 3c e0 e1 ff bd 3e 12 c0 3d c4 4a 80 bd
       0.010781962 -0.12494254 0.093784794 -0.062642604
0001c0 98 c1 9a bd 68 28 1a be e5 20 c4 3c db b1 ad bd
       -0.07556456 -0.15054476 0.023941467 -0.08481189
0001d0 e8 35 3b 3d 1c 9f 00 be c0 ac 1d bd d2 af 47 bd
       0.045705706 -0.12560695 -0.038494825 -0.04875166
0001e0 19 bc 3b 3d 62 a6 9c bd 88 1f 93 3d 81 c8 5e bd
       0.04583368 -0.076489225 0.071837485 -0.054390434
0001f0 90 4a 39 3e 05 a0 7b 3d 32 9e 3d 3e 5e 76 4f 3d
       0.1809485 0.061431903 0.18517378 0.050649993
000200 fd 08 39 bd 2e 05 ca 3d 19 90 17 3d 3d 75 e5 bd
       -0.045174588 0.09864269 0.037002657 -0.11204002
000210 51 51 91 bc fb 2c a3 3d a0 8d b3 3d 00 41 06 be
       -0.01773897 0.07967564 0.08767247 -0.13110733
000220 67 fa 48 3e 45 cc 89 bd 3b 56 a0 3d 3c f5 4d 3e
       0.19626771 -0.067284144 0.07828947 0.2011308
000230 d5 d1 02 3e 23 c0 f4 bd 6b 2f 1e 3e a5 2e 1b 3a
       0.12775357 -0.1195071 0.15447776 0.00059197313
000240 b9 3c 1f bd fb 28 2a 3d f4 09 9d 3c d8 56 00 bc
       -0.03887627 0.04154299 0.019169785 -0.007833205
000250 ae f3 69 3e 89 f7 08 3e 97 27 99 bc 7a e4 c5 bd
       0.22846863 0.13375677 -0.018695636 -0.09662719
000260 3a fc 81 3e 96 e5 55 3d 1a da b3 3d 17 38 5b 3e
       0.25387746 0.052220903 0.08781834 0.21408115
000270 66 ff 2b 3e 2a 27 ec bc 23 ee c8 bd bf 1a 6b bd
       0.16796646 -0.028827269 -0.09811046 -0.057398554
