lightning_logs/version_3/checkpoints/epoch=9-step=500.ckpt (torch, 63518 bytes, 21 tensors)

model.param_proj.proj.0.weight f4 [1, 15]
00000000: 2b35 40be 139a 3a3e 1f6f 15be ca17 11bc
00000010: cbc5 ecbd 4083 233e 74a2 cd3d 7202 093c
00000020: 5c0b c83e ece0 bb3d a3df 963d a512 7c3e
00000030: c7de 65bd 4edb 30be 58d9 c73d
-0.18770282 0.18222837 -0.1459317 -0.008855769 -0.115611635 0.15968037 0.10040751 0.008362399
0.39071167 0.0917376 0.07366874 0.24616487 -0.05612066 -0.17271158 0.09758252

model.param_proj.proj.1.weight f4 [1, 15]
00000000: 59e1 593e f3e4 6ebc 518f 983e 2f30 99be
00000010: 93c4 86be ee17 813d 55d4 443e 67d1 99bd
00000020: 0349 97be 9142 67be 20e3 023e f391 4d3d
00000030: 0937 713d 7c9e ff3d 3343 21be
0.2127737 -0.014580953 0.29796842 -0.29919574 -0.2632185 0.06303392 0.19221623 -0.075106435
-0.2954789 -0.22583987 0.12781954 0.050188016 0.058890376 0.124814 -0.1574829

model.param_proj.proj.2.weight f4 [1, 15]
00000000: 84c3 a7bd d2bd b1be c7e3 f13d 8c1a 583e
00000010: 221b ce3e b790 b8be 9cd4 f1bd c975 c2be
00000020: 05dd 4c3e 9b6e 53be 7587 9b3e 209b f3be
00000030: 2fec d7be 89a4 523e 7752 433d
-0.081915885 -0.34715134 0.11811023 0.21103877 0.40255076 -0.3604791 -0.1180813 -0.37980488
0.20006187 -0.20647661 0.30376783 -0.47579288 -0.4217238 0.20570578 0.047686066

model.rnn.weight_ih_l0 f4 [60, 48]
00000000: 35bb 25be f0b0 38be 19cc 8d3e 7cc6 913e
00000010: aa6f e73b deb4 043e 1482 283e 1bc6 763e
00000020: 35ef 873e 9577 a0bd ffd3 e13d b85f aa3e
00000030: f6c9 46bc 5822 8b3e 1b81 34bd 6d1f e7bd
00000040: 5c13 03be 8120 f43c 9f60 313e 0add 97bc
00000050: e7b4 d53d 82bf a13e ba39 81bc eb0e df3c
00000060: 84c6 7d3e 864e e6bc 46e2 f63d af1a 0f3e
00000070: 71cb 5f3e c938 533e 75bf 903d 409f 63bc
00000080: 0be7 4b3e 259f 15be f62e 29bd 35c8 febd
00000090: 88b8 21be 6022 203d b37b 54be 9266 8dbb
000000a0: e434 8abe 2f12 d0bd b650 653e 110b 6ebe
000000b0: d03f 54be 70b1 813e 9086 82bd 6a30 b33c
000000c0: 717e debd 28ca 50be 5ed3 313e 6b63 dd3c
000000d0: 6e85 863e 0da1 523c 7e9f 513e 78c4 a2bd
000000e0: 3419 3abe fced 68bb f783 aebd 45a8 28be
000000f0: 3fd4 443c 49a9 223e 4a7b 1abe 2c2b 3f3e
00000100: d98e c03d fef9 b9bd 788a 513e 7c81 8b3d
00000110: 08af bebd 0a96 c73c 001a 8f3e 9554 d43d
00000120: ed21 8ebd e437 0d3e 0d3a 84bd c2ab 433e
00000130: 593f a83d 8504 45bd 6a9d 313d dbaf a93c
00000140: 2f9b 6ebe 7851 58be b43e 60bc 27c5 ebbd
00000150: 32b4 b8bd d80e d5bc 90c6 823e c31f aabd
00000160: 61f8 1f3e d6e4 2bbe fe45 e63d c934 5fbd
00000170: 1187 1dbe e6d3 6abd 697d 503b 3d23 4d3e
00000180: be4b 053e 36a5 c33d 7cbd fe3c 5d92 423d
00000190: 5216 a53d 8d3e 4cbe 68f9 2b3e 9b5e 853e
000001a0: 991f 853e 66f7 923e 82f3 09bc 5da4 0d3e
000001b0: b91e df3c f9b7 61be 7716 2b3e ee92 5f3d
000001c0: f3d6 d2bc 912a de3d 1c1e 343e 70ee 64be
000001d0: 07ce 88be 8242 573c 8c4a 07be 4c94 49bd
000001e0: b254 3bbe fcfd 743e ce6e 253d 6fc6 6fbe
000001f0: 9232 3ebd 370c 883e 1a1a 5ebc 859e 48be
00000200: 586c b13c 2c84 eb3d 96ad 39bd a3b9 5e3e
00000210: cbfa d33c d7c1 61be 7ad9 89be 0bfd d83d
00000220: 7084 483d 384f 9f3c 2ffb 893d 4f31 083f
00000230: 5d00 31be d065 22bc 9287 01bd 3593 b33d
00000240: 96e6 553e e57d e13d 70b6 3cbc aa19 39bd
00000250: 9885 0cbc 0fae 46be 049f 023e 060f ae3e
00000260: 8de1 123d bdce 0bbe 27c6 963e af18 9a3e
00000270: 787a 6ebd 7eaa 173e 8e7c cc3d 2ae4 6a3e
00000280: d336 2f3e 1400 55be 78ca fd3b da49 d4bd
00000290: a878 803d 8bad 3b3e aeb8 e43d 33a3 bbbd
000002a0: c375 ccbd 2314 e4bd a0e5 dc3c eff2 2cbe
000002b0: a926 5b3d dcf6 a13d 5865 b23c af04 d6bd
000002c0: 43c4 563d d96f 4abe 4545 86bb 4c52 853e
000002d0: 10cd 573e 662c 063c eecb 13bd 7000 5a3e
000002e0: 942b 02bd c6cc 183c ee82 3d3e c177 d6bd
000002f0: 949b d2bd 2c4a 86be 043e 45be 22fb 29bd
00000300: a3c8 623e f961 aa3e ff16 9b3e dc98 64bd
00000310: 41a6 d5bd 2762 7c3e f3ce 18be d05f 013d
00000320: 20d8 683e df33 33be b946 8e3e ea07 963e
00000330: 80c4 25bd c255 3b3d afc9 52be 86d3 9a3e
00000340: e274 d13c 0073 063e cc91 82bd c032 893e
00000350: 27f0 693e 7602 083e 3277 3e3e 7b84 bebd
00000360: 2578 4cbe c3d9 e7bd 110c 603e 58e5 c0bd
00000370: 9f98 34be 643e ea3d ce28 6b3e a189 ad3c
00000380: 7807 3cbe b852 0fbd 48b2 543e 6f23 2abe
00000390: a894 fdbd 481a d8bb 882f f8bd 56d6 abbd
000003a0: 5ea9 2a3e 0c0a 0ebd 17d3 0cbe ce11 11be
000003b0: 79b0 793e d7cd b6be caaa b7bd 7e78 833e
000003c0: 7718 5bbd 836f d93d 844c 4c3d 1192 c23e
000003d0: dc11 a83e 8d05 c03e a297 003e 2b98 293e
000003e0: 0d48 213e 9e70 18bd b1ee 933e d49c 973e
000003f0: 9e01 743e 27fd 983e 8388 bcbd 0677 553e
-0.16184695 -0.18036246 0.27694777 0.28471744 0.007062872 0.1295962 0.16455871 0.24099009
0.26549688 -0.078353085 0.11026763 0.33276153 -0.012133112 0.2717464 -0.044068437 -0.11285291
-0.12800354 0.029800655 0.17322014 -0.018538017 0.10434895 0.3159142 -0.015774596 0.027228793
0.24782759 -0.028113615 0.12054877 0.13975023 0.2185495 0.2062713 0.070677675 -0.013892949
0.19912355 -0.1461149 -0.04130455 -0.1244053 -0.1579305 0.039095283 -0.20750313 -0.004315206
-0.26993477 -0.10159718 0.2239407 -0.23246409 -0.20727468 0.25330687 -0.06373322 0.021873672
-0.108639605 -0.20389616 0.17365786 0.027024945 0.26273674 0.01285578 0.20470998 -0.0794763
-0.18173677 -0.003554224 -0.08521264 -0.1647044 0.012013494 0.1588489 -0.15086094 0.18668813
0.09402246 -0.09080885 0.20462978 0.068118066 -0.09310728 0.024363536 0.27949524 0.10367695
-0.069400646 0.13790852 -0.06456385 0.19108489 0.082152076 -0.048100013 0.043363012 0.020713737
-0.23301385 -0.21124828 -0.013686825 -0.11512213 -0.090187445 -0.026008055 0.25542116 -0.08306839
0.15622093 -0.16786513 0.11243819 -0.0544937 -0.15383555 -0.05733099 0.0031813032 0.20032974
0.13017175 0.09552996 0.031096213 0.047502864 0.08060898 -0.19945736 0.1679436 0.2604874
0.2600067 0.28704375 -0.008419873 0.13832231 0.02723633 -0.22042836 0.16707788 0.054583482
-0.025737261 0.10847963 0.17589611 -0.22356582 -0.26719686 0.013138415 -0.13212031 -0.049213693
-0.18294027 0.23925012 0.040388875 -0.2341554 -0.046434946 0.2657182 -0.013556028 -0.1959172
0.021658108 0.11499819 -0.04533156 0.21750502 0.025876423 -0.220466 -0.26923734 0.10595139
0.048954427 0.019446954 0.067373626 0.5320024 -0.17285295 -0.009911969 -0.03162343 0.08768312
0.20888743 0.110103406 -0.011518106 -0.04519049 -0.008576773 -0.19402336 0.12755972 0.33995837
0.035859633 -0.13653083 0.29448053 0.30096957 -0.058222264 0.14811131 0.099846944 0.229386
0.17110758 -0.20800811 0.0077450834 -0.103656486 0.06273013 0.1832792 0.11168037 -0.09161987
-0.09983399 -0.11136653 0.026964962 -0.16889547 0.053503666 0.07908413 0.02177684 -0.10450112
0.052433264 -0.19769229 -0.004097613 0.2603935 0.21074319 0.008189296 -0.036083154 0.2128923
-0.03177984 0.009326166 0.18506977 -0.1047206 -0.102835804 -0.26228464 -0.19261938 -0.041499265
0.2214685 0.33277872 0.30290982 -0.05580984 -0.10432101 0.24646817 -0.14922695 0.031585515
0.22738695 -0.17500256 0.27788332 0.29302913 -0.0404706 0.045736082 -0.20584749 0.30239505
0.02556843 0.13129807 -0.06375465 0.26796532 0.22845517 0.13282189 0.18600157 -0.093026124
-0.19967707 -0.113208316 0.21879603 -0.09418744 -0.17636345 0.11437681 0.22964785 0.02118379
-0.18362224 -0.034990996 0.20771134 -0.1661508 -0.123818696 -0.00659493 -0.12118441 -0.08390491
0.16666171 -0.03467755 -0.137524 -0.14166948 0.24383725 -0.35703918 -0.08968122 0.25677866
-0.05349013 0.10616972 0.04987766 0.38002065 0.32826126 0.37504235 0.12557843 0.16561954
0.15750141 -0.037216775 0.28893045 0.29611838 0.23828742 0.2988064 -0.09205725 0.20846185

model.rnn.weight_hh_l0 f4 [60, 15]
00000000: 3409 ed3d cb4e 0cbd 0d1b 5b3b 61cd 1dbc
00000010: 5f32 00be b458 ab3e 92e3 863e 2b82 823e
00000020: d484 bcbd 8079 0bbe 8274 d0be 91f5 a53d
00000030: 138a 793e 19ec 4c3e 93fa 623d 1218 8f3d
00000040: 31a9 8f3d ea58 493d 5f09 93be 8629 cd3d
00000050: 22a4 1fbe c68e 22bd c511 d83d 42e5 b6bd
00000060: 6fbe da3d 80b0 fb3d 67eb 3dbe bfc4 3abd
00000070: 5a57 843e f763 93be c13d 4f3e 56b4 a0be
00000080: a6f5 79bd f35c b33d 893f 87bd e88b 0fbd
00000090: a5b8 593e cfd3 86bd 2c3e 8a3e aa9d 283d
000000a0: c38a e0bc 0a3f 7f3d aa47 9bbd fab8 82be
000000b0: 732d 48be 2496 2c3e d602 8cbe 98bd 22be
000000c0: bc6d fa3d df47 193e 8b7a 093d f02d f13d
000000d0: 7e84 a4bd 1f54 583e 49d1 90be caf4 c13d
000000e0: 4601 553e 1ad8 c93d 0c77 5b3c 9f27 3dbe
000000f0: ad49 66be 582e 55bd 9d58 bc3c a3a9 25be
00000100: ba63 19be 2ae6 783e 5e93 8d3d 3c57 1d3d
00000110: 4ef3 033e 3762 11be 4edf 26be 12f2 0c3e
00000120: 7baa a3bd 0055 ecbd 8b4c 073e 9847 1d3e
00000130: 2123 babd 0cad e0bc 4206 acbd faaf 76bd
00000140: bb9f a53e 10df afbd e9f0 133e 723d 92ba
00000150: a076 8fbe c027 7ebd e8bc 8f3e 07a1 62bd
00000160: 868f 2c3e 86fa 863d 97f6 4d3e a083 6a3e
00000170: cc8a 0a3c 2445 2b3e 31f1 07be d6a4 173d
00000180: 3bc0 b73d 1549 a83d 333a eb3c 697d 54be
00000190: 41a2 0ebd 38ad 333d cb5a dcbd 6b06 2abe
000001a0: a233 613d dab3 ffbd bac8 073e 9e86 62ba
000001b0: 40d4 0e3c 5c6d 9fbe 0680 8dbd c991 91bd
000001c0: 2cbb dd3d 5a15 ab3c 5001 a53d 9cfb 923d
000001d0: 201a 1f3d 609a bb3e 3f0d 783e f2ec 89be
000001e0: dca6 bc3c dd5f 363e d88d d7bd cd2d fbbc
000001f0: ae11 453e 87a6 df3d 011b 97bd 3082 79be
00000200: 4fab 5e3e 7a28 dd3d ef80 67bd 52a6 fe3c
00000210: fb2f 0f3e 0988 6d3d 30ed 86bd 2612 d6bd
00000220: 23b5 3fbe 09b3 0a3e fbd5 8e3e bd95 de3d
00000230: 2559 893d ae9f a1bd f115 70be 2b7b 32be
00000240: 8e6b e53d 170f 203d dc15 5bbe 5fb5 3bbe
00000250: f737 563e ccab d8bd 3ea1 793d aeb6 663e
00000260: 45cb 21be 04fb 753c 3dba 3e3e 0d14 823e
00000270: 4895 713e 0652 fc3b 4480 9ebe e315 2a3e
00000280: 3e8b 3dbd fd28 033e 49e5 633e f800 083d
00000290: be0a 013e 8a90 ddbd f9e4 2bbd 4377 063e
000002a0: d989 383d 3b3c 8f3d c3bf 253c 395d 913d
000002b0: 116f 8f3d 6ef4 8fbe 8f00 65bd f813 fc3d
000002c0: ea82 f6bc 53a0 5f3e 16e5 313e ca0f 9bbe
000002d0: b3b3 ac3d e6f4 51be f96d 623e baec 2dbe
000002e0: 2042 84be a0db 8f3e da7d 493d aa99 1d3e
000002f0: 8775 73bd 7d3d 8e3d b00e 8d3d bd8b 233d
00000300: 4a8a b8bc 72b4 f1bd 26b3 1fbe edb7 b9bc
00000310: bcdd 2dbe fe2d 123d 3aa3 de3d 9aa7 553d
00000320: b2e3 aabd 0ebd 4ebe 39e7 4b3b 9224 5d3e
00000330: 9891 083e 7c2e 11be d9ec bfbe 0ec7 203e
00000340: 0e16 1f3d b79f 36be 2f10 a73c 6a30 583e
00000350: 8834 21be 7f12 bf3d a1c0 7dbe c212 733e
00000360: 2d4a 17be f840 9c3d d446 223e fefb 21be
00000370: 7d32 4f3e 9a00 39bd 66e8 4c3e ba9c 24bc
00000380: 9084 3cbe 0649 d4bc 0695 79be 1dc1 0c3d
00000390: 9d88 883e 3c2b 703e 10de c03d a24a a2bd
000003a0: b228 75be efda e7bd 83ed 123e 693c 9ebe
000003b0: 1f76 7abe a752 13be e025 27bb d9e7 dd3d
000003c0: b48d be3c 8db1 b73e 5a81 4f3e 6a2a 08bc
000003d0: 4657 ba3b f2fe 423e 8475 9cbc ad86 f3bc
000003e0: 60e6 88be 0dce 473d 77f6 9e3d 2e33 923c
000003f0: abb3 03be 7aea 493e 22b7 1b3e 15ed 343e
0.11574021 -0.03425483 0.0033432872 -0.009631486 -0.12519215 0.33466113 0.26345497 0.25489935
-0.092050225 -0.13620567 -0.40713888 0.08103479 0.24369077 0.20011939 0.055414747 0.06987013
0.070146926 0.04915706 -0.28718087 0.100176856 -0.15589955 -0.03968694 0.10550264 -0.08930446
0.106808536 0.12289524 -0.1854683 -0.045597788 0.25847894 -0.28787205 0.20238401 -0.31387585
-0.061025284 0.08757963 -0.06603915 -0.035045534 0.21261843 -0.06583368 0.27000558 0.041165985
-0.027409917 0.062315978 -0.07582028 -0.2553175 -0.19548588 0.16854149 -0.27345914 -0.15892637
0.122279614 0.14968823 0.03356413 0.1177634 -0.080330834 0.2112584 -0.28284672 0.09470518
0.20801267 0.09855671 0.013395082 -0.18472145 -0.22489043 -0.05204615 0.022991473 -0.16177993
-0.14979449 0.2430655 0.06912874 0.03841327 0.12885782 -0.14197622 -0.16296121 0.13764217
-0.07991501 -0.1153965 0.13212793 0.15359342 -0.090887316 -0.027426265 -0.08399631 -0.060226418
0.32348427 -0.08587468 0.14447369 -0.0011157228 -0.2802019 -0.062049627 0.28073812 -0.05532935
0.16851625 0.06590752 0.20113598 0.22901773 0.008455943 0.16725594 -0.13275601 0.037022434
0.08972212 0.08217064 0.028714275 -0.20750965 -0.034822706 0.043866366 -0.10759505 -0.16604011
0.05498088 -0.12485476 0.13260165 -0.00086412753 0.0087175965 -0.31138122 -0.06909184 -0.071078844
0.10826716 0.020884205 0.08056891 0.07176897 0.038843274 0.36641216 0.24223803 -0.26938587
0.023028784 0.17810006 -0.105251014 -0.030661488 0.19245026 0.109204344 -0.073781975 -0.24366069
0.21745037 0.10798736 -0.056519445 0.031085167 0.13983147 0.05799106 -0.06588209 -0.1045268
-0.18721442 0.13544859 0.2789763 0.10868404 0.06706456 -0.078917846 -0.2344587 -0.17429797
0.11202155 0.03907689 -0.21395057 -0.18330906 0.20919786 -0.10579643 0.06094479 0.22530624
-0.15800197 0.01501346 0.18625732 0.25405923 0.23592103 0.0077002076 -0.30957234 0.16609912
-0.04627537 0.12808605 0.22255434 0.03320405 0.12601754 -0.10818584 -0.041966412 0.13131432
0.045053337 0.0699391 0.01011652 0.07097859 0.07003606 -0.28116173 -0.055908736 0.12308496
-0.030091722 0.21838503 0.17372546 -0.30285484 0.084327124 -0.20503578 0.22112264 -0.16984835
-0.258317 0.28097248 0.049192287 0.1539065 -0.059438255 0.06945322 0.06887567 0.039928187
-0.022526879 -0.11801995 -0.15595683 -0.02267071 -0.16979116 0.035688393 0.10870977 0.05216179
-0.08344211 -0.20189306 0.0031113161 0.21595982 0.1333679 -0.14177889 -0.37485388 0.15700933
0.038839392 -0.17834364 0.02039346 0.21112218 -0.15742695 0.093297 -0.24780513 0.23737624
-0.1477439 0.07629579 0.15847331 -0.15818784 0.20234104 -0.04516659 0.20010528 -0.010047132
-0.18409944 -0.025913727 -0.24373254 0.034363855 0.26666728 0.23453993 0.09417355 -0.07924391
-0.23941305 -0.11321055 0.14348416 -0.30905464 -0.24459122 -0.14386998 -0.0025504753 0.10835237
0.023260929 0.35877648 0.20264187 -0.008310894 0.0056866733 0.19042566 -0.019099005 -0.029727304
-0.26738262 0.04878049 0.07761853 0.01784667 -0.12861507 0.19718352 0.15206578 0.17668565

model.rnn.bias_ih_l0 f4 [60]
00000000: c350 c83d 7092 1d3d 3a1d d03d 8305 c4bd
00000010: 546e 203e b3ba ad3e 53eb 803e f4b1 913e
00000020: 8706 9f3d 7179 d9bd 4927 efbd 2cb0 c5bd
00000030: 4b7e 183e 504b e63d ff2d 863d f595 97be
00000040: 11e0 843e f7ef 093d e0a7 36be 7b96 693e
00000050: fdcc ab3e cd72 583e 5b6a db3c dc10 5d3e
00000060: eb15 f3bc 0cc2 35bd a73e cbbd ad53 b3bd
00000070: 2760 b13d 9355 f93d 3720 c2bd 16e1 333e
00000080: 9320 843e dff2 053e 797f 94be 3aac 8c3e
00000090: 8db4 d03d 4c11 2bbe 206f 90be 396a c43b
000000a0: be69 823e 253f 383e 5791 0a3e db35 573e
000000b0: e53b 85be d897 e63d 3652 b83e 3666 743c
000000c0: 60cd d03b 52a6 06be 1615 9f3e 5dad 60be
000000d0: 2cdb f53b 5353 2ebe 823b e1bc 4a9e d13a
000000e0: 4924 b93e 436d 933e 6d61 a2be 2018 37be
0.09781029 0.03846973 0.101618245 -0.09571364 0.15667087 0.33931503 0.25179538 0.2845608
0.07764917 -0.10618866 -0.11677415 -0.09652743 0.14891927 0.112448335 0.06551742 -0.29606596
0.259522 0.033676114 -0.17837477 0.2281131 0.3355483 0.21137543 0.026784113 0.21588463
-0.029673537 -0.04437451 -0.09924059 -0.08756194 0.08660918 0.12174525 -0.09478801 0.17566332
0.25806102 0.13080929 -0.29003504 0.27475148 0.10190687 -0.16705817 -0.28209782 0.005994108
0.254713 0.17992838 0.13532005 0.21016638 -0.26022258 0.11259431 0.36000222 0.014916947
0.006372139 -0.13149384 0.31070775 -0.21941133 0.007502934 -0.17023973 -0.027494196 0.0015992608
0.36160496 0.28794298 -0.31714955 -0.17880297

model.rnn.bias_hh_l0 f4 [60]
00000000: 9160 8dbb 1dda 8c3d 9da4 62be 6129 5ebd
00000010: 4de2 733e 5565 c43e faa7 973d b470 8b3e
00000020: 1ff6 99bd 9bb4 7ebe 8257 d53d eaeb 523e
00000030: dfaf 1e3e fae1 4abe e4c7 4c3e 49e9 af3d
00000040: 3663 a0bd 147b 483e 2df8 13be 9669 4e3e
00000050: aaed fc3d a86e 36bd 0f7d f53d 7fd3 0f3d
00000060: 404f 73be 43bc 893e 51f5 44bd bca0 1ebe
00000070: 7c71 83be 735c ea3d d352 e73c 1ca1 3b3e
00000080: 2fe5 0bbb 83a4 993d 4595 a6be ccb7 923d
00000090: e9fe acbd f84c 603e 00e2 7ebd 7e53 243e
000000a0: c00a 0a3d 3a91 773e 0e34 8e3e 759e 01be
000000b0: 98c5 d33d 6170 3c3e 2528 973e cacd 5cbe
000000c0: 1c0a b7bd af3b 11be 64b7 87bd b31e 9c3d
000000d0: 5e37 5abd 7e28 04be 3af2 343e 9165 28be
000000e0: 740c 833e 0a24 af3e ed0f 173e 740e 703e
-0.00431449 0.06877539 -0.22133107 -0.05423868 0.23816796 0.3835856 0.07405086 0.27234423
-0.07517647 -0.24873583 0.104170814 0.20597807 0.15496777 -0.19812766 0.19998127 0.085894175
-0.07831423 0.195782 -0.1445014 0.20157465 0.12350018 -0.044539124 0.11986744 0.035113808
-0.237607 0.26901445 -0.048085514 -0.15491003 -0.2567252 0.114434145 0.028237736 0.18323177
-0.002134632 0.07502081 -0.3253576 0.07163963 -0.08447058 0.21904361 -0.06222725 0.16047475
0.03370166 0.24176493 0.2777409 -0.12658103 0.103404224 0.18402244 0.29522815 -0.21562877
-0.08937475 -0.14182924 -0.06626776 0.07623043 -0.05327546 -0.12906072 0.17670527 -0.16444995
0.25595438 0.34207183 0.14752169 0.23443013

exp_avg f4 [1, 15]
00000000: 49b5 d33b 8157 833b d92f 9e3b e6e6 8cbb
00000010: ae0a b2bb be51 0abb 9799 9c3b a149 d6ba
00000020: a690 98bb da17 69bb 8c09 24ba 78ba 12ba
00000030: 731a 9a3b 4f9e 173b bc03 9abb
0.00646082 0.004008234 0.004827481 -0.004299986 -0.005433402 -0.002110585 0.0047790515 -0.0016348847
-0.0046559153 -0.0035567195 -0.0006257526 -0.0005597244 0.00470286 0.002313513 -0.004700152

exp_avg_sq f4 [1, 15]
00000000: 895f 4a39 32ee 8939 f4d0 1839 61d0 4139
00000010: 6a60 9a39 d2b6 7639 7af6 8739 f95a 0539
00000020: 15fa 2b39 0110 9938 9b0d 7736 5aef 1339
00000030: 53d1 9739 84ea c737 181f 4539
0.00019299811 0.00026308146 0.0001457369 0.00018483541 0.00029445003 0.00023528494 0.00025932846 0.00012717758
0.00016400994 7.2985895e-05 3.6813788e-06 0.00014108178 0.00028956923 2.3831853e-05 0.00018798967

exp_avg f4 [1, 15]
00000000: e8de 9abe a295 d3be 3316 85be 1a90 bb3e
00000010: 246b f83e d29a a8be 4aa0 debe 3110 afbe
00000020: cc37 ad3e 7742 e83d 4650 133e e24d dbbe
00000030: 3aff e8be a693 06be f856 b83e
-0.3024819 -0.41325098 -0.259935 0.36633378 0.48519242 -0.3293062 -0.43481666 -0.3419204
0.33831632 0.11340802 0.1438609 -0.42832857 -0.45507222 -0.13142261 0.36003852

exp_avg_sq f4 [1, 15]
00000000: 3731 7b3e 0e62 963f 1f69 393e 96c1 b93e
00000010: 954c 773f d43a 883f 67a4 473f cda3 773f
00000020: 5949 bb3e e8c9 803d 1cba 9f3d 3e4c 8d3f
00000030: 5fa3 983f 281c 313d 5f74 083f
0.24530493 1.1748674 0.18106507 0.36280507 0.9660123 1.0642953 0.77985233 0.96734315
0.36579397 0.062885106 0.077991694 1.1038892 1.1924857 0.043239743 0.5330257

exp_avg f4 [1, 15]
00000000: 8888 83bd 0599 843c cc89 08bd 225f 8b3c
00000010: 70df a73b 0450 a93d 8045 0cbc a5c3 623d
00000020: ec52 a23c d2ea 053d 305f 51bc f8b2 923d
00000030: 140f 273c cd10 9bbc e144 373c
-0.06422526 0.016186247 -0.03333454 0.017013136 0.0051230714 0.08267215 -0.008561492 0.055362362
0.01981493 0.032694645 -0.012779042 0.07163042 0.010196466 -0.01892891 0.011185856

exp_avg_sq f4 [1, 15]
00000000: 9ce3 c53c 4d7e 633d 6dad 913c 7367 cd3c
00000010: c0bf 513d ea8c 4a3d 9bf5 3d3d af60 073d
00000020: 4fdf b63c 55db 073c 90a7 e03a 6b8d 3b3d
00000030: 4b52 6d3d 6459 763b 9a15 073d
0.024156384 0.05554037 0.017782891 0.025073742 0.051208258 0.049450792 0.046376806 0.03305119
0.022323279 0.008292039 0.0017139781 0.045789164 0.05793981 0.0037589902 0.032979585

exp_avg f4 [60, 48]
00000000: 26f5 48b9 1a81 17b9 bc82 28b9 b1dd 50b9
00000010: 8026 77b9 73c0 95b9 e300 b3b9 128d a7b9
00000020: 103f a6b9 5ca1 9eb9 b298 4db9 e8ad 51b9
00000030: b2ee 4cb9 1d95 07b9 7454 eab8 5a22 bfb8
00000040: 90ac adb8 4bdc b5b8 6735 a5b8 1e64 52b8
00000050: 3263 55b8 76b0 60b8 7270 7db8 dd60 86b8
00000060: 76a6 5cb8 ca3e 59b8 f40c 49b8 2e00 08b8
00000070: 1c80 f3b7 04fe ffb7 501f fdb7 a21e 9fb7
00000080: f7ee b8b7 f161 97b7 42ae 03b7 20ec d8b6
00000090: 8038 97b6 b882 e7b6 18ef ffb6 b86a bbb6
000000a0: 1e10 e139 ede4 8cb0 0c83 28bb 147b ca38
000000b0: b39c aab8 c4de 0439 024e 7539 0f34 8bba
000000c0: 4204 44b9 b6c5 9ab9 40c5 aab9 1b1e b2b9
000000d0: 2ca7 c5b9 a612 e1b9 1e42 f7b9 eec8 dd39
000000e0: 639c 9739 7439 fb38 b4b6 fc38 7652 8038
000000f0: e0fe 4fb8 6b1d 8cb8 f1cf d0b8 1380 1ab9
00000100: 7bbe 26b9 f9f3 2db9 cb4f 3db9 3041 1eb9
00000110: c63e 25b9 5120 34b9 afc7 04b9 afe2 06b9
00000120: a857 20b9 156f f6b8 788d f3b8 d6e2 13b9
00000130: e9b8 e6b8 2fec dbb8 c6d5 e7b8 9b31 89b8
00000140: f682 82b8 0355 85b8 618d d5b7 0326 c9b7
00000150: b9ee c6b7 3e98 47b7 39f3 46b7 5cb2 3eb7
00000160: 5d15 7239 a2a7 e8b0 ed79 baba b7df 9f38
00000170: d74b 4938 dc56 a0b5 ceff 0139 43cf 24ba
00000180: 7477 42bc 4231 24bc 8890 13bc 8677 06bc
00000190: a83b 04bc 121d e4bb 38ad c5bb 85a4 e1bb
000001a0: 9e0f edbb 4de6 d6bb 89ce 7fbb 82b5 98bb
000001b0: f27d 9abb d457 75bb 09e7 92bb 6644 93bb
000001c0: 6eee 75bb 7b5c 98bb 24cc 9dbb 7c2f 9abb
000001d0: 0e12 b1bb ea69 b3bb 0ac2 d9bb 78c3 e4bb
000001e0: dac4 d3bb 8c81 babb e371 c6bb af14 aebb
000001f0: 1220 1dbb 24b3 26bb 48a3 10bb 0204 60ba
00000200: 586b 7fba b810 5fba 8c6f 19ba c82f 28ba
00000210: 9a86 26ba de8a 7cb9 c0f1 c0b9 9c68 e3b9
00000220: 605f 603b 78f2 572f 6872 0fbd eccd cfb9
00000230: 4a55 9739 495f 0039 5b20 ec3a 00ce 1abc
00000240: 5905 dbbb 6c8e b5bb 5ea5 9fbb da85 90bb
00000250: 4283 82bb 49be 59bb 3eba 3ebb 6851 9abb
00000260: d7a1 97bb 513f 80bb df4a 67bb fd0f 6ebb
00000270: 4d91 52bb 13c0 48bb b858 4ebb 6660 33bb
00000280: 524a 32bb 40ae 3dbb 7394 28bb 54d2 32bb
00000290: 64bf 3ebb 8e63 31bb 19d5 66bb 386a 76bb
000002a0: db15 68bb 27df 6cbb f17e 7bbb 0e61 69bb
000002b0: b570 29bb 4a6d 37bb 3e2e 31bb 16b7 c2ba
000002c0: 76a5 c8ba 8046 c0ba d2a4 3dba ce77 46ba
000002d0: 1599 49ba 0ec2 04ba 4755 14ba a9bc 18ba
000002e0: 1f98 2f3b 6426 cf2e 8163 b4bb 5636 2738
000002f0: 93f1 9e38 ec72 07ba b1fe ad3a bf91 05bc
00000300: f7fa 62b8 2724 90b7 3584 9f37 fc2d 5c38
00000310: 900c b138 0cca fd38 eb61 1139 3ca7 1538
00000320: f6d2 3038 22b3 7f38 3b4f 8538 8ed6 8638
00000330: 9f52 a138 b6bd ba38 3625 c238 4c8f dc38
00000340: 1c69 cf38 8165 cb38 856a e538 ccce ac38
00000350: e432 a438 10c6 b238 45ca 9538 bb9b 9338
00000360: e357 a638 665d 8538 e215 8238 0737 8f38
00000370: 9d9b 5c38 d23f 5b38 8d9f 6738 2d80 0e38
00000380: 2a4c 0e38 8560 1638 ddd9 3e37 e043 2137
00000390: 7fe8 1037 474c a536 a62b 9936 cc36 a036
000003a0: 48ec 99b8 5780 c0af 9c85 053a 3591 a136
000003b0: 5039 2cb7 19e1 1938 7e0e 26b8 9434 c139
000003c0: 49fe 8536 f60e e8b6 b802 16b7 c84d 27b7
000003d0: 4526 54b7 7284 96b7 7552 c7b7 8cf4 a636
000003e0: 9de2 5e36 f0ab a0b4 00fc 02b3 2e9e 5bb6
000003f0: b830 bdb6 4c88 0d36 34de 53b5 6106 41b6
-0.00019164811 -0.00014448576 -0.00016070431 -0.00019919012 -0.00023570098 -0.0002856288 -0.000341422 -0.00031957828
-0.00031708973 -0.0003025633 -0.00019607207 -0.00019996578 -0.00019543877 -0.00012930152 -0.0001117372 -9.113988e-05
-8.281425e-05 -8.671785e-05 -7.87776e-05 -5.0161143e-05 -5.087554e-05 -5.3570104e-05 -6.0424623e-05 -6.40766e-05
-5.2607116e-05 -5.179531e-05 -4.7934198e-05 -3.2425094e-05 -2.9027513e-05 -3.0516654e-05 -3.0174531e-05 -1.8968542e-05
-2.2045786e-05 -1.804621e-05 -7.848781e-06 -6.46479e-06 -4.506728e-06 -6.899554e-06 -7.6274264e-06 -5.585458e-06
0.00042927352 -1.0251405e-09 -0.0025712876 9.655036e-05 -8.135419e-05 0.00012671488 0.00023394081 -0.0010620373
-0.00018693603 -0.00029520475 -0.0003257189 -0.00033973236 -0.0003769932 -0.00042929238 -0.00047160772 0.0004230211
0.00028917482 0.00011979314 0.000120503275 6.118875e-05 -4.9590017e-05 -6.6812e-05 -9.956945e-05 -0.00014734296
-0.00015901953 -0.00016589453 -0.0001805417 -0.00015092338 -0.00015759011 -0.00017178176 -0.00012662889 -0.00012863682
-0.00015291444 -0.00011750885 -0.000116134936 -0.00014103515 -0.00011001697 -0.000104867264 -0.00011054757 -6.541909e-05
-6.2232764e-05 -6.357769e-05 -2.5457413e-05 -2.3978768e-05 -2.3714603e-05 -1.1896771e-05 -1.1858349e-05 -1.136641e-05
0.00023086877 -1.6927866e-09 -0.001422701 7.623381e-05 4.7992766e-05 -1.1946208e-06 0.00012397693 -0.0006286988
-0.0118693 -0.01002151 -0.009006627 -0.008207208 -0.008070864 -0.0069614733 -0.006032612 -0.0068860673
-0.0072345277 -0.0065582157 -0.0039033017 -0.0046603093 -0.004714721 -0.0037436383 -0.004483108 -0.0044942377
-0.0037526148 -0.0046496964 -0.004815595 -0.0047053676 -0.0054037636 -0.0054752724 -0.0066454457 -0.0069813095
-0.0064626755 -0.0056917127 -0.006056057 -0.0053125243 -0.0023975414 -0.0025436366 -0.002206998 -0.0008545519
-0.00097434735 -0.0008509266 -0.00058531086 -0.00064158114 -0.00063524547 -0.00024084325 -0.00036801212 -0.00043374754
0.0034236535 1.9640278e-10 -0.035021216 -0.0003963554 0.0002886451 0.00012242528 0.0018015014 -0.009448528
-0.006683987 -0.0055406597 -0.004872008 -0.0044104876 -0.0039829323 -0.003322499 -0.0029102708 -0.0047094114
-0.004627447 -0.003913798 -0.003529243 -0.0036325448 -0.0032130063 -0.0030632063 -0.0031485986 -0.002737069
-0.0027204943 -0.0028942972 -0.0025723248 -0.002728601 -0.0029105777 -0.0027067396 -0.003522223 -0.0037599932
-0.0035413417 -0.0036143751 -0.0038375224 -0.0035610828 -0.0025854532 -0.0027988725 -0.002703562 -0.0014855589
-0.00153081 -0.0014669448 -0.0007234338 -0.0007570953 -0.00076903525 -0.0005064317 -0.0005658459 -0.00058264524
0.0026793552 9.42009e-11 -0.005505026 3.9866507e-05 7.579024e-05 -0.0005166966 0.0013274756 -0.008152424
-5.4116328e-05 -1.7182972e-05 1.901584e-05 5.2494914e-05 8.442358e-05 0.00012101614 0.00013864755 3.5680117e-05
4.2158143e-05 6.0963568e-05 6.356692e-05 6.429582e-05 7.6924676e-05 8.9045076e-05 9.257572e-05 0.000105171086
9.890107e-05 9.698701e-05 0.00010939412 8.240118e-05 7.8296085e-05 8.5245934e-05 7.142549e-05 7.038513e-05
7.931867e-05 6.359331e-05 6.202959e-05 6.829021e-05 5.2597014e-05 5.2273106e-05 5.5223285e-05 3.397481e-05
3.392637e-05 3.5852678e-05 1.1375608e-05 9.612151e-06 8.637201e-06 4.926263e-06 4.5648367e-06 4.774751e-06
-7.339619e-05 -3.5015787e-10 0.0005093457 4.8150782e-06 -1.0265343e-05 3.668768e-05 -3.959098e-05 0.00036851002
3.9933116e-06 -6.9158805e-06 -8.94133e-06 -9.9720855e-06 -1.2645095e-05 -1.7943068e-05 -2.3761046e-05 4.9756545e-06
3.3212484e-06 -2.9927423e-07 -3.0497176e-08 -3.2725616e-06 -5.6383105e-06 2.1089973e-06 -7.8926973e-07 -2.8762954e-06

exp_avg_sq f4 [60, 48]
00000000: ecd6 9f35 c8e1 9e35 43ba a435 1966 b635
00000010: 7ff1 d735 6351 0336 dd84 2336 2aaf a635
00000020: 240f a135 65a0 9d35 98ff a535 5e4a 9f35
00000030: c65d 9b35 9e6a ae35 1477 a835 6e0b ab35
00000040: dd2d b635 f82f ad35 d16f a635 d813 a735
00000050: 68ea 9d35 fcdf 9735 d0b4 8f35 10bf 8835
00000060: 908b 8435 5754 7e35 6f32 7435 a3a5 6d35
00000070: cb6e f034 a090 ea34 a0ec e834 8d95 7b34
00000080: 2b41 7434 07d8 7134 a129 d833 9764 d233
00000090: 86ee d033 bc8a 8d33 8061 8833 08e1 8733
000000a0: 7a88 d635 e43d 3a21 66c9 4638 186c ae33
000000b0: 49d5 5133 02e3 cb33 3763 f434 0c45 6437
000000c0: 58b4 b436 38db 9436 95e6 8836 e89a 8636
000000d0: d7b1 7d36 f186 7036 65a3 7036 80b7 dd36
000000e0: cb41 c236 8a20 9d36 6fba 8e36 f0e7 7d36
000000f0: cf72 5d36 8aef 4036 097f 3336 ce15 2736
00000100: 5978 1836 bd68 1236 1ad6 0d36 165f 1036
00000110: 7ebf 0a36 9238 0836 e24e 0836 ad6d 0336
00000120: 3087 fb35 4a16 0436 7784 fd35 ce58 ef35
00000130: de95 a235 5dd2 9b35 ad5a 9435 e145 3835
00000140: 1dd9 2e35 a685 2535 3689 6934 0776 5c34
00000150: d4d0 5034 2370 0134 42df f633 4379 ec33
00000160: 96bc 3036 4505 f621 69af 8d38 4af9 b532
00000170: 2f98 a133 2623 1f34 ee71 4e35 2f34 b337
00000180: 8bf3 d638 5af6 cc38 844a ca38 00cd ca38
00000190: b5b9 cb38 3268 cc38 39e8 cf38 0470 c738
000001a0: 1d28 c438 8262 c038 ee75 c238 caf7 bd38
000001b0: 9c5f bb38 e5be c038 5a3e bc38 7c88 b938
000001c0: 5ef6 ba38 2ea8 b738 6963 b438 2b60 b638
000001d0: 4d59 b238 0d1c af38 fbbd ab38 a923 a938
000001e0: 9996 a338 7130 9b38 6de9 9738 7e83 9238
000001f0: 1289 e037 ce73 d737 15de cf37 688d 1e37
00000200: 6c95 1837 0fac 1337 4cf7 1436 9b6d 0e36
00000210: 4897 0836 8be3 ed35 3ff6 d635 fd42 c735
00000220: 30ae 9d38 69df e51e 4a73 813b a3cb 2435
00000230: 9a50 1235 3594 7e35 6653 ad37 6589 273a
00000240: 6861 b438 adf8 b538 81ff b938 4791 bc38
00000250: e906 c138 8b38 c838 1127 cf38 7705 ac38
00000260: 1f04 ac38 1982 ae38 71aa a238 6d5c a238
00000270: 13b1 a438 aa1c 9c38 d903 9b38 5887 9d38
00000280: 7d62 9738 6fee 9438 9c82 9738 d065 8f38
00000290: 1690 8c38 e29a 8e38 9f24 8838 944b 8538
000002a0: 1925 8738 cac2 7f38 7aed 7938 89cc 7c38
000002b0: d1fd 0838 89eb 0838 1199 0a38 b72b 7637
000002c0: 0f5f 6b37 7cd9 6c37 7306 2836 ef21 2636
000002d0: 2133 2636 28f0 a835 a4a3 a735 e9f9 a635
000002e0: ede9 8f38 840d d51d 8e27 9a3a 5379 0435
000002f0: 3b6f a534 a8b2 5435 af70 9a37 3494 1f3a
00000300: e248 1935 c8f3 1a35 5ebf 1d35 443c 2135
00000310: af43 2835 f2bf 2735 26a6 2035 78ea 0935
00000320: 249b 0735 b033 0235 c97e cd34 f80f d034
00000330: 8b87 d034 382a aa34 6aff ae34 726c af34
00000340: 87a7 8e34 a6ec 8f34 0509 8e34 aba8 6f34
00000350: 567f 7334 d5a0 7234 2506 5534 91cf 5634
00000360: 2cda 5534 4a2b 3834 7d13 3934 6134 3a34
00000370: a456 8133 9cc4 8233 020c 8333 0a53 8b32
00000380: 5cd4 8732 a715 8532 b6df 4a31 986d 4531
00000390: c2fc 4331 75ae b230 8a64 a830 1307 a530
000003a0: 84e6 c134 1fcb b41f 3058 a337 1f9a 0031
000003b0: 9dfd fb31 ad30 1533 b371 0e34 87ce 3b36
000003c0: 9de7 c232 8d62 0b32 1659 9731 5672 8531
000003d0: 69f4 8531 47ae 8831 ca67 8f31 ff49 9131
000003e0: 8604 a931 dbe4 1832 c7e9 3731 9dee 2a31
000003f0: efd6 2331 6172 2331 7768 1631 da47 1131
1.1908974e-06 1.1837628e-06 1.2273161e-06 1.3589771e-06 1.6089033e-06 1.9567894e-06 2.436623e-06 1.2418943e-06
1.1999841e-06 1.1744092e-06 1.2367846e-06 1.1868067e-06 1.1575692e-06 1.299504e-06 1.2551632e-06 1.2743819e-06
1.3573405e-06 1.2903465e-06 1.2400507e-06 1.2448245e-06 1.1765633e-06 1.1315565e-06 1.0706954e-06 1.0188396e-06
9.875384e-07 9.4745104e-07 9.0970474e-07 8.8530413e-07 4.4784096e-07 4.3691125e-07 4.3385535e-07 2.3430603e-07
2.2747979e-07 2.2523464e-07 1.0065856e-07 9.797184e-08 9.729142e-08 6.59106e-08 6.350729e-08 6.32736e-08
1.5983962e-06 6.3101163e-19 4.7394446e-05 8.1221685e-08 4.8855586e-08 9.4942166e-08 4.552073e-07 1.3605935e-05
5.385413e-06 4.436264e-06 4.079959e-06 4.0115447e-06 3.7803454e-06 3.5841333e-06 3.5857895e-06 6.6076755e-06
5.78931e-06 4.6827527e-06 4.2536335e-06 3.7834943e-06 3.2998394e-06 2.874966e-06 2.6747023e-06 2.4897631e-06
2.2719817e-06 2.181666e-06 2.113526e-06 2.151302e-06 2.0675066e-06 2.0298507e-06 2.0311495e-06 1.958436e-06
1.8740302e-06 1.9682507e-06 1.8888521e-06 1.7832733e-06 1.2113558e-06 1.1609624e-06 1.1053249e-06 6.864703e-07
6.513599e-07 6.1661774e-07 2.1749733e-07 2.0532035e-07 1.9447481e-07 1.2054856e-07 1.1495878e-07 1.1011664e-07
2.6335815e-06 1.6671003e-18 6.7560766e-05 2.1184537e-08 7.524829e-08 1.4820816e-07 7.690677e-07 2.1362763e-05
0.000102496786 9.7733646e-05 9.64599e-05 9.670295e-05 9.714385e-05 9.746886e-05 9.913784e-05 9.509924e-05
9.35348e-05 9.173622e-05 9.272607e-05 9.0583766e-05 8.9346635e-05 9.19083e-05 8.9761525e-05 8.8469096e-05
8.9150606e-05 8.757446e-05 8.6015854e-05 8.696349e-05 8.504335e-05 8.349875e-05 8.189302e-05 8.06519e-05
7.800497e-05 7.399999e-05 7.24372e-05 6.986315e-05 2.676671e-05 2.5683923e-05 2.4779738e-05 9.450458e-06
9.094696e-06 8.801943e-06 2.2197664e-06 2.1223448e-06 2.0353637e-06 1.77241e-06 1.601591e-06 1.4846152e-06
7.518788e-05 2.4338718e-20 0.003950511 6.139109e-07 5.450653e-07 9.4838043e-07 2.0662043e-05 0.0006391018
8.601212e-05 8.677072e-05 8.869079e-05 8.9915986e-05 9.204244e-05 9.547275e-05 9.877806e-05 8.202617e-05
8.202367e-05 8.321199e-05 7.756509e-05 7.7419776e-05 7.853112e-05 7.443999e-05 7.3916926e-05 7.511553e-05
7.218586e-05 7.101602e-05 7.224569e-05 6.8377354e-05 6.702558e-05 6.799937e-05 6.4918066e-05 6.356012e-05
6.4442116e-05 6.097815e-05 5.9587393e-05 6.027197e-05 3.266131e-05 3.2644286e-05 3.3044318e-05 1.4672921e-05
1.4029224e-05 1.4117333e-05 2.5037705e-06 2.475568e-06 2.4765689e-06 1.258687e-06 1.2490095e-06 1.2440697e-06
6.8623434e-05 5.6394605e-21 0.0011761056 4.935038e-07 3.0814576e-07 7.9236133e-07 1.8410703e-05 0.00060874526
5.7103e-07 5.772422e-07 5.8765534e-07 6.006487e-07 6.268337e-07 6.2491665e-07 5.984642e-07 5.1377674e-07
5.051718e-07 4.850399e-07 3.8276474e-07 3.8754638e-07 3.884164e-07 3.1695686e-07 3.2595864e-07 3.2675194e-07
2.6571453e-07 2.680801e-07 2.6456124e-07 2.231997e-07 2.2677463e-07 2.2596517e-07 1.9839406e-07 2.0005815e-07
1.9916541e-07 1.7152084e-07 1.7236557e-07 1.7341655e-07 6.0227904e-08 6.08936e-08 6.102347e-08 1.6219492e-08
1.5812638e-08 1.5493084e-08 2.9522034e-09 2.872957e-09 2.851991e-09 1.3000788e-09 1.2252184e-09 1.2007341e-09
3.6116774e-07 7.6569e-20 1.947218e-05 1.871406e-09 7.333894e-09 3.4736036e-08 1.3266144e-07 2.7985386e-06
2.2689898e-08 8.113273e-09 4.4048063e-09 3.883808e-09 3.8985957e-09 3.977934e-09 4.173647e-09 4.228468e-09
4.9190616e-09 8.8996e-09 2.6762892e-09 2.4873892e-09 2.3841797e-09 2.3784639e-09 2.1887254e-09 2.114112e-09

exp_avg f4 [60, 15]
00000000: ac35 2439 e8d4 14ba 205d 85b8 454a f738
00000010: 7eb2 9539 d0ea ecb9 9b9c 80b9 e67f 90b9
00000020: 70d1 e338 5cba 7137 0c45 6839 c665 f0b9
00000030: 8a1d d2b9 729a 84b7 d264 6339 3a02 bb38
00000040: 3845 d538 304c 6737 eece 3838 47f2 c237
00000050: 8fff 80b8 0d44 0bb8 4cde f6b8 4938 73b7
00000060: 785b ecb7 0034 8bb8 d85f 6eb8 e6e7 cfb8
00000070: f374 86b6 7989 4237 b9b3 1dbb bfbb 71bb
00000080: 7cfd 0abb a861 6b3b cadd 943b 32d8 8dbb
00000090: 37ef 86bb 53ec 8bbb 85c0 4d3b 7eac ee39
000000a0: 8886 b23a e745 a5bb f1d2 8abb 2ca1 92ba
000000b0: 9244 673b 9bcb ceba d24a 3fbb f7bf 77ba
000000c0: cc14 db3a 925b 593b a4a0 83bb 459f 24bb
000000d0: 3fef 2fbb a8b2 023b 004d 5db6 e930 ab3a
000000e0: 6d01 71bb 94f0 4ebb 5ef1 b2b9 475a 183b
000000f0: db8d 7d38 091a d238 4a3d 4538 142b 36b8
00000100: de95 92b8 12df ca37 f5ab 6738 585a 7038
00000110: 3ec5 f8b7 00e1 b9b7 c1bf 60b8 ddd3 2a38
00000120: 307c c838 9f35 0d38 2a4b 26b8 8a69 41b5
00000130: 956a deb6 b81e 9b35 fc77 46b6 a6a2 6636
00000140: 9fe3 4b37 5999 1bb6 b078 20b7 0e35 1735
00000150: 0aac 71b5 daf3 ff36 796d dcb6 86a8 bfb6
00000160: 2c32 9235 56cc f8b5 474a 0d38 6ae6 9738
00000170: 721f 0738 c10e f9b7 234a edb7 8f90 2238
00000180: 7a4c 0538 bf0c 3638 fb7d 08b7 3f94 67b7
00000190: 3d50 2bb8 87e9 9437 baaf 2e38 3cd5 e937
000001a0: 84f5 cbb7 27a5 6939 3a66 98b9 01b9 8fb8
000001b0: a742 dd38 1121 8c39 b185 b6b9 ad57 75b9
000001c0: 4d57 5db9 ff8a 6338 3a81 db37 71cd 4f39
000001d0: 4cfa ceb9 8a8a c7b9 7bc4 13b8 e12e 5f39
000001e0: 92da 9fbb 7f76 89bc 0470 e2bb b2ab 573c
000001f0: b2ac 933c 52b8 a3bc 68eb 82bc e848 8ebc
00000200: d9cc 353c 5b8a 733a 6e2b de3b f8f4 bebc
00000210: 46af 94bc 3387 63bb 26a5 5d3c c6cd 7abb
00000220: aec5 dcbb 0078 9abb a28c fb3b 062d 053c
00000230: c437 e3bb efa9 02bc e4be 8abb 5561 bc3b
00000240: 6e2a 1e3b fed4 033b c94b 1cbc fdaa fcbb
00000250: c1bf 0bbb f41f e63b 7339 b638 23ee b339
00000260: 694d c938 6461 10b9 a8de 97b9 54e9 5139
00000270: 6f79 7a39 9cdb 5639 3845 25b9 e835 6eb8
00000280: 0b12 45b9 44ab a238 ed98 a839 74ed 5038
00000290: eab6 7cb9 160c aab9 664f 683a dbdb 9339
000002a0: 1549 27b8 b6e7 25ba 0ae7 5a3a 22ac d739
000002b0: f6a1 333a 47e8 e5b8 9e0e 3db9 50f9 c3b9
000002c0: 0fc8 8a3a 7e19 5e3a 18f8 2f39 f574 11ba
000002d0: c31b db37 ae30 6439 0245 1638 18a0 1c37
000002e0: 3c6e 1ab9 3d1e 4339 402d af38 caf2 fb38
000002f0: 7562 18b8 6914 3fb8 6cc4 15b9 96cb 1939
00000300: e9eb 3639 77ad e037 0ee6 0fb9 1732 13bb
00000310: 9f18 43bb d06d 07bb 4567 3e3b 3d0d 633b
00000320: 431b 37bb 34ca 52bb 2d2c 35bb ff44 243b
00000330: 6a59 613a 59bc 6b3a 15d5 2dbb ca62 57bb
00000340: 3965 a1ba 0187 3c3b 55b5 8438 7bf6 b138
00000350: 3c1c 4638 61be 3fb8 411e 7ab8 1098 4038
00000360: 30ac 5d38 e96b 9238 b345 01b8 3193 80b7
00000370: 81b4 0db8 6895 1f38 74eb b438 bda5 2c38
00000380: 7444 30b8 483d 233a 4ce8 2abb fe3f 94b9
00000390: 2e55 563a 13fb fb3a b4b1 5abb f6c0 c8ba
000003a0: f31a 38bb cd93 5a3a 02ed 62b9 9b71 a63a
000003b0: ce83 3fbb 0fea 1ebb 401f f7b6 6dc2 b43a
000003c0: 6169 7d39 e54d ebb9 24e7 8438 1245 efb7
000003d0: 06d0 1437 6f01 2a37 4a66 94b7 e2f3 d6b9
000003e0: ff3d 87b8 079e 88b8 d1f6 9939 b264 ccb8
000003f0: cdc4 46b9 4959 1936 9b9a 1bb8 a80a 30bb
0.00015660253 -0.00056774775 -6.35928e-05 0.000117917116 0.00028552482 -0.00045188377 -0.00024530743 -0.00027561112
0.00010863214 1.440811e-05 0.00022150966 -0.00045852194 -0.0004007633 -1.5807545e-05 0.00021685965 8.9172696e-05
0.000101695245 1.3786412e-05 4.4061737e-05 2.3239421e-05 -6.151117e-05 -3.320356e-05 -0.000117716 -1.4497034e-05
-2.8175986e-05 -6.637722e-05 -5.6832883e-05 -9.9137236e-05 -4.007126e-06 1.1595309e-05 -0.0024063422 -0.0036885587
-0.0021208217 0.0035916362 0.004543041 -0.004328751 -0.004117872 -0.0042701154 0.0031395268 0.00045523414
0.0013620416 -0.0050437334 -0.004236572 -0.0011186949 0.0035288674 -0.0015777232 -0.0029188883 -0.0009450907
0.0016714572 0.0033166152 -0.0040169526 -0.0025119346 -0.0026845483 0.0019942913 -3.2976386e-06 0.0013060841
-0.0036774531 -0.0031576501 -0.00034130638 0.002324717 6.0452014e-05 0.0001001843 4.702554e-05 -4.34323e-05
-6.9897374e-05 2.4184152e-05 5.523484e-05 5.7304598e-05 -2.9655752e-05 -2.2158492e-05 -5.3584346e-05 4.072847e-05
9.559875e-05 3.366696e-05 -3.9647486e-05 -7.205168e-07 -6.6285234e-06 1.155734e-06 -2.957414e-06 3.4367345e-06
1.215274e-05 -2.318606e-06 -9.564843e-06 5.632909e-07 -9.0029846e-07 7.6279803e-06 -6.569255e-06 -5.7118623e-06
1.089245e-06 -1.853691e-06 3.3686196e-05 7.243159e-05 3.2215794e-05 -2.9689983e-05 -2.8287124e-05 3.875844e-05
3.1780895e-05 4.3404052e-05 -8.135564e-06 -1.3803189e-05 -4.0844305e-05 1.775172e-05 4.164849e-05 2.787506e-05
-2.4313813e-05 0.00022282136 -0.00029067864 -6.853231e-05 0.00010550516 0.00026727517 -0.00034813353 -0.00023397683
-0.00021108724 5.4250468e-05 2.616701e-05 0.00019817591 -0.00039477868 -0.00038059457 -3.5230518e-05 0.00021284401
-0.0048783505 -0.016780136 -0.006910326 0.013163494 0.018026683 -0.019985352 -0.015981391 -0.017368749
0.011096203 0.0009290331 0.0067800796 -0.02331017 -0.018149983 -0.0034718036 0.013528144 -0.0038269623
-0.0067374324 -0.004714012 0.007676677 0.00812841 -0.006934138 -0.007975086 -0.0042341817 0.0057489076
0.0024134177 0.0020115967 -0.009539553 -0.007710813 -0.002132401 0.007022852 8.689137e-05 0.00034318966
9.598846e-05 -0.00013769191 -0.00028966856 0.00020018715 0.00023887095 0.00020490441 -0.00015761412 -5.6793826e-05
-0.00018794106 7.756663e-05 0.00032157396 4.981221e-05 -0.00024100734 -0.00032433931 0.0008861929 0.0002820183
-3.9883966e-05 -0.0006328778 0.00083504675 0.00041136245 0.0006852442 -0.00010962836 -0.0001802989 -0.0003737905
0.0010588187 0.00084724266 0.00016781723 -0.0005548739 2.6119762e-05 0.00021761909 3.5827055e-05 9.335599e-06
-0.0001472765 0.00018607914 8.353079e-05 0.00012013836 -3.633132e-05 -4.5556957e-05 -0.0001428292 0.00014667059
0.00017444756 2.6783657e-05 -0.00013723245 -0.0022460276 -0.0029769314 -0.0020664819 0.0029053253 0.0034645342
-0.0027939833 -0.003216398 -0.002764474 0.002506554 0.00085963926 0.00089926046 -0.0026524712 -0.003286528
-0.0012313492 0.0028766992 6.328026e-05 8.485928e-05 4.7233174e-05 -4.5715253e-05 -5.963282e-05 4.5917986e-05
5.2850868e-05 6.981922e-05 -3.082091e-05 -1.532733e-05 -3.3785127e-05 3.80477e-05 8.6269254e-05 4.116235e-05
-4.2025422e-05 0.0006227088 -0.00260784 -0.00028276438 0.0008176145 0.0019224606 -0.003337008 -0.0015316296
-0.0028092235 0.0008338064 -0.00021641332 0.0012698652 -0.0029222849 -0.0024248397 -7.3648116e-06 0.0013790854
0.00024167217 -0.0004488073 6.337304e-05 -2.8523184e-05 8.869922e-06 1.0133123e-05 -1.7690607e-05 -0.00040998968
-6.448849e-05 -6.51442e-05 0.00029366327 -9.746234e-05 -0.00018956065 2.2850747e-06 -3.7098867e-05 -0.002686182

exp_avg_sq f4 [60, 15]
00000000: 7d4e 2735 3716 ce35 74c1 5234 67f1 ce34
00000010: 4074 7b35 8130 9435 a8f1 8b35 3543 8c35
00000020: dffa 9e34 22af 9033 fc93 a733 f307 d235
00000030: c672 b735 629d 4e33 3b3d 2e35 259f 6035
00000040: 3b51 6d35 5e9a 8f35 02e9 5a35 5487 ba35
00000050: eb95 9135 cd72 0936 4e81 b934 5dcb 6234
00000060: b894 7935 323b c333 e46b a635 2099 ad35
00000070: d849 de34 dbb0 dc35 175d 5a37 fe1a c138
00000080: 0a00 5c37 e50b 0038 ef19 9d38 b19a ad38
00000090: d60d 7f38 3eaf 9e38 f1ff d837 7796 5a36
000000a0: d7f5 e336 3926 b938 48d2 c538 11a4 7e36
000000b0: e26e 2d38 6dc0 8c37 eb4b af38 624c 3a37
000000c0: e602 ac37 04a6 9038 8c23 9a38 3339 5c38
000000d0: e938 8338 a8bf d037 62c0 7f36 3d81 ce36
000000e0: a30d a138 ae5a b138 7c2e 0e36 f7bb 1738
000000f0: 62a8 6a32 50bb 1d33 bed4 8633 0ff0 7733
00000100: d166 2633 3974 1732 eb67 1934 d850 a831
00000110: acd2 b131 3a12 0833 e616 0e32 5a54 2833
00000120: 4bdc ca31 5def 6433 2a86 b233 ccec f12f
00000130: c3e6 a730 a622 7e30 6a59 2d30 f0d9 da30
00000140: f918 c030 4513 0e31 47f4 ce2f c85b a42f
00000150: 7a40 5830 25e2 842f 0ca8 1131 2de7 b930
00000160: f5f3 1130 a598 0431 23aa 3d34 7d62 cd34
00000170: a4cf ea34 68f6 7d34 eccd d834 ff58 4c34
00000180: 234b b735 9e65 ab33 8908 1634 5b85 e134
00000190: c180 a633 e59c a734 5cc9 4234 4880 0b35
000001a0: 623a 7235 3294 0e34 bfa6 b534 7402 8b33
000001b0: 8047 3f34 8938 8f34 2fd6 9d34 43ce c634
000001c0: bf2e 4034 8d64 6933 36d4 9e32 db49 3733
000001d0: efb9 1b35 8f38 bc34 ac9a c932 3244 7234
000001e0: 3621 ac39 42f7 033b d86d 9d39 bbc2 2b3a
000001f0: 725c d93a 9b3f ef3a 93aa b03a 02e9 db3a
00000200: 49b7 1a3a 46f1 b638 2011 1239 a79e f53a
00000210: 1bb6 063b fb1c a938 c7ae 703a 8e0b 2239
00000220: 6607 193a 7e23 e538 76ee 5a39 d276 023a
00000230: 14c0 0d3a 232a d839 118d f339 7174 5a39
00000240: 51cb 3f38 bd6e f637 ee37 0c3a ef5c 1c3a
00000250: d409 cd37 0da1 9739 4410 3b35 f095 1c36
00000260: 7359 b734 c4d7 3735 0f61 0a36 e175 f035
00000270: b61f c435 257d e335 3f18 5435 a26f 6f34
00000280: 62b3 6434 9c53 f135 5706 1d36 911f ce33
00000290: c056 ac35 c18c 9136 1e21 3537 d64a 0837
000002a0: c1bd da36 5bc5 3737 a5b0 2a37 a836 8e37
000002b0: 67d7 b236 311b f335 fff0 a736 df7a ed34
000002c0: 6e70 4637 fbc8 4537 8653 7836 009e 4937
000002d0: 9bf8 d835 1d95 3f35 ca46 1c36 ca69 9d35
000002e0: b721 e435 556c b135 0ab1 6a36 2c4c 5234
000002f0: 51df f533 4557 0936 cf2f 0133 1bd5 a435
00000300: f104 9f35 2a23 9c35 aab4 4936 ac48 a337
00000310: c76c 8d38 b665 8137 5021 ef37 2347 7038
00000320: 8b44 8138 0298 5638 8dec 6a38 392d bc37
00000330: 9359 b936 99ca 6d36 1a11 8438 38c9 9238
00000340: 2109 9f36 0571 1a38 2171 9a32 463d 9e33
00000350: 7cf5 3c33 839d 5233 0d1b 4733 1d36 ae31
00000360: f3cd 4d34 ad88 5631 c73d 9c32 83aa 1d33
00000370: f401 a732 d9be 2033 cac4 ab31 8c39 bd33
00000380: 61e7 f433 11c6 cb38 de96 7a39 bdbb 3c38
00000390: e7d7 9738 babf 5439 bd5d 6c39 63fc 2739
000003a0: a02a 5c39 235a cf38 cd17 a937 6d6b 3437
000003b0: 7db7 5439 9121 7b39 6b83 d636 9a9b e538
000003c0: 1c9d 8135 4138 ba35 e315 8d35 4b64 9335
000003d0: fe66 d535 7fed b035 168e 1a36 82e9 6135
000003e0: 8206 8b34 676f 4935 21ac 2634 86f5 f035
000003f0: 3b10 ea35 9118 be34 727a e635 58ae 6c38
6.2326563e-07 1.5354661e-06 1.9628152e-07 3.8546133e-07 9.367395e-07 1.1040976e-06 1.0426638e-06 1.0450373e-06
2.9612326e-07 6.737379e-08 7.803462e-08 1.5648533e-06 1.3667966e-06 4.810625e-08 6.4909153e-07 8.367809e-07
8.8407586e-07 1.0699257e-06 8.15504e-07 1.3897466e-06 1.0846974e-06 2.0481414e-06 3.4553017e-07 2.1121873e-07
9.297614e-07 9.091163e-08 1.2399364e-06 1.293407e-06 4.140445e-07 1.6442749e-06 1.3015487e-05 9.207985e-05
1.3113031e-05 3.0528656e-05 7.491174e-05 8.278096e-05 6.0809623e-05 7.5666685e-05 2.5868389e-05 3.2572113e-06
6.7937467e-06 8.828607e-05 9.43286e-05 3.7944449e-06 4.1349682e-05 1.6778906e-05 8.358791e-05 1.1104248e-05
2.0505347e-05 6.897378e-05 7.349913e-05 5.250536e-05 6.257167e-05 2.488478e-05 3.8109943e-06 6.1543237e-06
7.679618e-05 8.456908e-05 2.1186706e-06 3.617626e-05 1.36588785e-08 3.672477e-08 6.278559e-08 5.77275e-08
3.8743398e-08 8.815783e-09 1.428704e-07 4.8986344e-09 5.1753286e-09 3.1681544e-08 8.270694e-09 3.9192265e-08
5.904018e-09 5.3303086e-08 8.313175e-08 4.40059e-10 1.2216436e-09 9.24539e-10 6.30641e-10 1.5923529e-09
1.3976936e-09 2.0674673e-09 3.764475e-10 2.989664e-10 7.867197e-10 2.4171345e-10 2.11958e-09 1.3526226e-09
5.3097376e-10 1.9295296e-09 1.7663892e-07 3.8255885e-07 4.3736975e-07 2.3652103e-07 4.0382963e-07 1.9031357e-07
1.365643e-06 7.981292e-08 1.3972944e-07 4.2006545e-07 7.7533976e-08 3.122033e-07 1.8140912e-07 5.196821e-07
9.0236983e-07 1.3278694e-07 3.38352e-07 6.473138e-08 1.7814273e-07 2.667696e-07 2.9399368e-07 3.703045e-07
1.78984e-07 5.434099e-08 1.8490123e-08 4.267518e-08 5.801257e-07 3.505888e-07 2.3469816e-08 2.2562816e-07
0.0003283114 0.002013639 0.00030027214 0.00065521494 0.0016583337 0.0018253209 0.001347857 0.0016777816
0.00059019454 8.723377e-05 0.00013930025 0.0018739299 0.002055532 8.063946e-05 0.00091813173 0.00015453828
0.0005837589 0.00010926182 0.00020878934 0.0004976812 0.0005407345 0.00041230125 0.00046453674 0.00020833478
4.57273e-05 2.9377052e-05 0.00053489103 0.0005964776 2.4442481e-05 0.00028920957 6.96866e-07 2.3333087e-06
3.415149e-07 6.848679e-07 2.0620098e-06 1.7915701e-06 1.4612367e-06 1.694924e-06 7.9011437e-07 2.2299221e-07
2.1299414e-07 1.7980233e-06 2.3398513e-06 9.5983644e-08 1.2840246e-06 4.3377227e-06 1.0796151e-05 8.123656e-06
6.5189965e-06 1.09536e-05 1.0173918e-05 1.695317e-05 5.3298895e-06 1.8112825e-06 5.0050435e-06 4.423409e-07
1.1827897e-05 1.1788909e-05 3.7003497e-06 1.2017321e-05 1.6165608e-06 7.1370033e-07 2.3287016e-06 1.17282e-06
1.6997136e-06 1.3219056e-06 3.4971767e-06 1.9585485e-07 1.14493226e-07 2.0465388e-06 3.0078635e-08 1.2280974e-06
1.1847861e-06 1.163314e-06 3.0056494e-06 1.9464955e-05 6.743665e-05 1.5425361e-05 2.8506533e-05 5.728671e-05
6.1639665e-05 5.1163144e-05 5.6010253e-05 2.2432405e-05 5.5238575e-06 3.543368e-06 6.297436e-05 6.9993024e-05
4.739632e-06 3.682172e-05 1.7979405e-08 7.368594e-08 4.3995428e-08 4.903769e-08 4.63579e-08 5.0702185e-09
1.9167037e-07 3.121879e-09 1.8188883e-08 3.670949e-08 1.9442247e-08 3.7426478e-08 4.9991273e-09 8.811466e-08
1.1404223e-07 9.716687e-05 0.0002389806 4.4997538e-05 7.240456e-05 0.00020289319 0.00022541634 0.00016020382
0.00020996714 9.8873184e-05 2.0157453e-05 1.0753848e-05 0.0002028625 0.0002394973 6.392996e-06 0.00010948554
9.656974e-07 1.3874452e-06 1.0511689e-06 1.0981543e-06 1.5899711e-06 1.3182142e-06 2.3030493e-06 8.415883e-07
2.5895503e-07 7.5040447e-07 1.5522575e-07 1.795285e-06 1.7439082e-06 3.5408132e-07 1.7171972e-06 5.6429155e-05

exp_avg f4 [60]
00000000: 671d 01ba eaaf 8ab9 4ee2 80bb 2bce 49bb
00000010: 946a b038 7040 5fb6 cbee 88b7 b29d 0cba
00000020: 17a1 92bc 6855 05bc a01f 3f38 ae18 653a
00000030: 7139 0bb9 4974 55bb 22ba cf38 2e21 28bb
00000040: d02f 11b9 2326 e9bb 7d5b 1cbc a0bd 9137
00000050: 4b5f aa3a 7a5d 30b9 f1cc 213c bc25 04bc
00000060: 87be 11bb 1b31 183b 850d 033c 962b e239
00000070: abda 81b9 46c3 aab5 4e4f 6bbd f896 64b9
00000080: e68f 92ba 5491 1b3c 357f ae39 eb64 a03b
00000090: ea7d 15b9 3265 213d ec0c c23b 0b0b cf3c
000000a0: aa0c 48bb 5839 ef3c 78a9 513a 22d2 94b9
000000b0: fdfb 3339 b231 b7ba 6cba ce39 301b c9bc
000000c0: 8a36 40bc b9c5 3fbb c844 9aba 5677 18bb
000000d0: 83d0 95ba abbc 09bc 3da8 4fba 70ba 843c
000000e0: 938f 92b8 4e4e 12ba 40c4 9ebb 9a0b 20bc
-0.0004925341 -0.00026452477 -0.0039332276 -0.0030793052 8.412186e-05 -3.3267097e-06 -1.632366e-05 -0.00053640746
-0.01789908 -0.008138038 4.55674e-05 0.00087393343 -0.00013277472 -0.0032570532 9.905199e-05 -0.0025654542
-0.00013846089 -0.007115142 -0.009543297 1.7373648e-05 0.001299837 -0.0001681949 0.009875522 -0.008065637
-0.0022238807 0.0023222629 0.007998829 0.00043138553 -0.00024767718 -1.2722819e-06 -0.057448678 -0.00021800015
-0.0011181801 0.009495098 0.00033282643 0.004894843 -0.00014256654 0.039403148 0.0059219506 0.02527382
-0.0030525126 0.029202148 0.000799797 -0.0002838532 0.00017164643 -0.0013976602 0.00039430277 -0.024549097
-0.011731753 -0.002926214 -0.0011769766 -0.002326449 -0.0011429939 -0.008406798 -0.0007921493 0.016202182
-6.988565e-05 -0.00055811263 -0.004845172 -0.009768391

exp_avg_sq f4 [60]
00000000: 1d4b 1236 3b31 7636 6048 d038 921d bf38
00000010: 8bdf 0b35 1aaf d231 dbe3 a736 6d51 5b35
00000020: a70b 0c3b a381 233a 8ca5 3336 8c0f ec37
00000030: 2c5d d236 9c56 a638 106e 9435 29fd 8139
00000040: 17cb 6d36 72e1 8939 ca85 103a 590a 2f35
00000050: 4f78 5d38 fd7b 4e37 fdc3 cd39 fde6 823a
00000060: 3822 4a38 ec0a 0f37 bfb1 c239 0bd4 dd36
00000070: c64b cf35 6c7f e935 e1db ec3c 7c28 0b36
00000080: ca76 013a b020 a03b 84c6 1f38 6550 303a
00000090: 0744 1839 81e0 083c e423 773a fd73 0e3b
000000a0: 9c7e 9239 930b 0e3c f3a8 a536 6666 cb36
000000b0: d2e4 e837 bdac a237 514a 8237 4b09 893b
000000c0: ca80 bc3a acbe 473a 12fb 3838 08d7 543a
000000d0: 4b2c 1f38 1cab 3f3a a0e3 1038 34de b83a
000000e0: 2c79 ab36 9fa3 ab37 661c f738 c645 ab3a
2.1799417e-06 3.6685512e-06 9.931694e-05 9.1130976e-05 5.2106833e-07 6.131711e-09 5.0035137e-06 8.170235e-07
0.002136925 0.0006237274 2.676944e-06 2.8140632e-05 6.2693343e-06 7.931629e-05 1.1058892e-06 0.00024793416
3.5433966e-06 0.00026298646 0.00055131 6.520764e-07 5.2802552e-05 1.2307425e-05 0.0003924667 0.0009987053
4.819242e-05 8.526007e-06 0.00037134995 6.6109983e-06 1.5444755e-06 1.7396937e-06 0.02891344 2.073618e-06
0.00049386604 0.004886709 3.8093436e-05 0.0006725847 0.00014521192 0.008354307 0.00094276504 0.0021736615
0.0002794162 0.008669752 4.9370515e-06 6.061792e-06 2.7763108e-05 1.9392342e-05 1.5531814e-05 0.004182016
0.0014381644 0.000761966 4.4102846e-05 0.00081192004 3.7949805e-05 0.0007311569 3.4544268e-05 0.0014104308
5.1103034e-06 2.046098e-05 0.000117831674 0.0013067059
