lightning_logs/version_2/checkpoints/epoch=8-step=450.ckpt (torch, 77806 bytes, 33 tensors)

model.param_proj.proj.0.weight f4 [1, 13]
000000 a2 9a e3 3d a3 3c 46 3e 03 8d a8 3e cb e2 0c be
       0.11113478 0.19359069 0.32920083 -0.1375839
000010 63 9d 96 3b c0 cb e9 3d cb c0 a1 ba 82 50 7a be
       0.0045963987 0.11415815 -0.0012340782 -0.24444774
000020 af f7 87 3c 09 ea 26 3e 39 b6 7f be 95 38 3a 3e
       0.016597597 0.16300215 -0.24971856 0.18185647
000030 29 28 c1 3d
       0.09431488

model.param_proj.proj.1.weight f4 [1, 13]
000000 5a 5a f4 bd 5d 42 83 3e d4 38 b2 be b9 62 4e 3d
       -0.11931296 0.2563657 -0.3480898 0.050387118
000010 92 db 83 be 90 f8 67 be 2a 34 83 3e e8 b6 5d 3a
       -0.25753456 -0.22653413 0.25625736 0.0008457736
000020 7b fe 08 3e bb 9d 82 be d7 45 1d 3e 49 2e 59 3e
       0.13378327 -0.25510964 0.15358673 0.21209063
000030 d8 de 0f 3e
       0.14049852

model.param_proj.proj.2.weight f4 [1, 13]
000000 ac d3 5a be 6b 63 c8 be 34 a9 b4 be 6a 09 b9 be
       -0.21369809 -0.3913835 -0.35285342 -0.36139995
000010 01 a6 9e be 5e 08 96 3e 0b 4a df be 2f 83 c9 3d
       -0.30986026 0.2930326 -0.43611178 0.098394744
000020 d7 a0 5a be a4 6a b2 3e e5 35 27 3e fe ad c6 be
       -0.21350418 0.34846985 0.16329153 -0.3880462
000030 f8 7d a6 3e
       0.32517982

model.rnn.weight_ih_l0 f4 [52, 48]
000000 ab da d6 bd 7d e5 8f be 4d 30 24 be 57 86 1a be
       -0.10490926 -0.28104773 -0.1603405 -0.15090309
000010 c5 5a 78 3e 85 b7 ea bd 0a 74 43 3d 76 99 60 3e
       0.24253376 -0.11460785 0.047718085 0.2193354
000020 20 e8 fe bd 98 0c a0 3d 5c 15 18 3e 93 00 30 3e
       -0.12446618 0.07814902 0.14851898 0.17187719
000030 26 d1 9c bd bb 65 0a 3c 4d 70 2a be e3 9a 7f be
       -0.076570794 0.008447106 -0.16644402 -0.24961428
000040 30 4f 39 be d8 d7 c3 bd e5 c0 25 bc 46 56 97 bd
       -0.18096614 -0.09562653 -0.01011679 -0.07389502
000050 d3 41 f0 3d 2d f4 c3 3c 15 47 6b 3e b3 a7 1a 3d
       0.11731305 0.023920143 0.22976334 0.037757587
000060 d3 fa 3a be 62 d6 47 3e 92 2c d1 3d 5e 9d 89 3e
       -0.18259744 0.19515374 0.10213579 0.26877874
000070 f6 06 ee 3d 9a 4e 17 3e d3 01 81 3e 5e c6 fa 3c
       0.116224214 0.14776078 0.25196704 0.030612167
000080 f4 52 e5 3d de f9 50 3e 8d e7 61 be b3 9b a0 3d
       0.11197463 0.20407817 -0.22060986 0.07842197
000090 77 61 79 be 09 69 5e 3e ce 93 59 be f2 9c 16 be
       -0.24353586 0.21719755 -0.2124779 -0.14708307
0000a0 68 e2 e3 3d 0d 9d d4 bd 19 f4 34 3e 3f 74 ab be
       0.11127168 -0.103815176 0.17671241 -0.33487126
0000b0 a4 03 35 3d 7b 8d b9 bd d4 e6 49 3e d1 d3 d0 3d
       0.044192925 -0.090601884 0.1971696 0.10196651
0000c0 ca 87 88 3e 3d 3c 4e 3e 66 a0 6e 3e 96 5d 8f bd
       0.266661 0.20140167 0.23303375 -0.07000272
0000d0 6b cb 34 bc 6d 53 18 bd db c8 69 3e 13 10 96 3e
       -0.011034827 -0.037188936 0.22830527 0.2930914
0000e0 2e cb a1 3e 7e e5 25 3e 5d 5e 05 be 32 51 b3 3d
       0.31600326 0.16200826 -0.13024278 0.08755721
0000f0 04 58 4b 3e e7 60 d3 bc 8d f7 8a bd 38 5f 32 3e
       0.19857794 -0.025803043 -0.06785498 0.17419136
000100 cf fe 46 be 9b 0c 2b be eb 39 1e be 04 ea 59 bd
       -0.1943314 -0.16704027 -0.15451781 -0.05320169
000110 c6 0b 28 be 62 73 93 bd 7c 01 39 be f4 e3 90 bc
       -0.16410741 -0.07199742 -0.18066972 -0.017686822
000120 25 be 84 3e 83 ef 44 bd 45 54 e7 3c 14 08 08 be
       0.2592632 -0.04807998 0.028238425 -0.13284332
000130 c3 45 28 3e ae 5c 56 3e df ff 83 3d d8 1e cd bd
       0.16432862 0.20933792 0.06445288 -0.100156486
000140 bd 0c 82 3a 8b 90 4b 3e 16 1b 0b be b4 10 83 3d
       0.0009922009 0.19879358 -0.13584551 0.0639967
000150 4a 09 25 3e 1b 3c 83 3e ec e7 9e bd b5 ce 85 3c
       0.16116825 0.25631794 -0.07759079 0.016333917
000160 70 7e a4 3a 0e 45 cf 3d 5e 8a 25 3d f3 19 91 be
       0.0012549888 0.10120593 0.04041516 -0.2834011
000170 22 1c cf bd 4a 5e b1 be 60 6e 41 3e 9d 1e 2c 3e
       -0.10112788 -0.3464225 0.18889761 0.16808553
000180 d8 59 8b be 45 22 63 be ec 91 77 3d d3 60 4a 3c
       -0.27216983 -0.22181042 0.060441896 0.012352186
000190 ec 61 e4 bc f0 d6 79 3d c2 e3 70 be 09 3a 3f be
       -0.027878724 0.060995996 -0.23524383 -0.18674482
0001a0 39 2e 0b be 48 31 1f bc 52 dd 3c be 36 0a 86 3d
       -0.13591851 -0.009716339 -0.18443802 0.06544916
0001b0 6a 13 14 be 28 ce 2d 3e ad ae bd 3d e9 10 81 3e
       -0.14460531 0.16973174 0.092618324 0.25208214
0001c0 ed 53 7c 3e e6 08 4e be bd e5 23 3e b6 2b b9 3d
       0.2464139 -0.20120582 0.16005607 0.0904154
0001d0 c2 88 be 3d bc 56 7d be 96 04 d0 bd 5e c7 8b be
       0.09303428 -0.24740118 -0.10157125 -0.27300543
0001e0 92 1d d6 3d 44 6d f5 3c 3a 1d 92 be 15 5c 41 bd
       0.10454859 0.029959328 -0.28537923 -0.047206957
0001f0 15 b7 68 be 2d 1f 22 3e 89 3a 41 3e b1 d4 22 3e
       -0.2272609 0.15832205 0.18869986 0.15901448
000200 9b 01 9b 3d 48 b5 83 3e 8b 1a db 3d fa 12 cf bd
       0.075686656 0.25724244 0.10698422 -0.10111041
000210 db fd 7a 3e ab 81 6c 3d 17 7c 30 3e e1 e9 53 be
       0.245109 0.05774085 0.17234837 -0.20694686
000220 66 44 30 3c 75 45 9c bd ab 2c 7c be 4c 35 88 be
       0.010758495 -0.076304354 -0.24626414 -0.26603162
000230 6c e3 3b 3e 62 6c 12 3c a5 6d d2 bd 59 bf 07 be
       0.18348473 0.008936973 -0.10274819 -0.13256587
000240 23 13 02 bd 33 f3 38 3d a7 0e 3b 3e 6a 26 fb 3d
       -0.03175653 0.045153808 0.18267308 0.12263186
000250 cb bb 5e 3e e1 d3 6e be 07 25 86 be eb 29 8c 3d
       0.21751325 -0.23323013 -0.26200125 0.06843933
000260 90 a7 8e 3e 40 cb 32 3d 31 bc 56 3e db 4f 89 bd
       0.27862215 0.043650866 0.20970227 -0.06704684
000270 36 52 30 3e e4 51 ad 3e 83 45 48 be f4 f6 38 be
       0.17218861 0.3385154 -0.19557767 -0.18062955
000280 ec f5 26 bd 81 00 73 3e 59 d1 33 be d1 3f 4b 3e
       -0.040761873 0.23730661 -0.17560329 0.19848563
000290 66 c4 2f be 0e b2 b9 bd 9c 58 91 3e 36 e9 5f 3e
       -0.17164764 -0.09067164 0.28387916 0.21866307
0002a0 7c 88 3e bd 5b 0c 61 be 91 13 2f be 97 3c 8a 3e
       -0.04651688 -0.2197737 -0.17097308 0.2699935
0002b0 24 f5 06 be 44 81 57 3e 84 27 60 be 61 b6 34 3e
       -0.13179451 0.21045405 -0.21890074 0.17647697
0002c0 e2 7c 20 3e 82 16 ec bd b2 2b 66 3d 43 88 b5 3d
       0.15672639 -0.115277305 0.056194015 0.088638805
0002d0 4b 00 94 bd 88 6e 96 3e 8c 96 ba 3d 16 da 32 be
       -0.072266184 0.29381204 0.09110746 -0.17466006
0002e0 d8 b3 92 be 32 d6 2e be 68 4e 11 3e b4 b2 9e 3c
       -0.28652835 -0.17073897 0.14190066 0.019372322
0002f0 e6 dc ab 3d 6b e0 58 be ef 0d 99 3d e8 34 f8 bd
       0.083917424 -0.21179359 0.07473361 -0.12119466
000300 0e c4 fd 3b cf 31 e5 bd 64 85 d4 3c 9d 0a a8 3d
       0.007744319 -0.11191141 0.025942512 0.08205149
000310 cf c4 0d be 7b ba de bd cb 70 1c be 49 4c 75 be
       -0.13844608 -0.10875412 -0.15277402 -0.23954882
000320 52 43 4b be 6a 2b 8a 3c aa f8 47 bc 18 fc a5 bc
       -0.198499 0.016866405 -0.012205282 -0.02026181
000330 33 ff 3c be bf 91 50 be 4f f7 31 3e a9 8f f7 bc
       -0.18456726 -0.20368098 0.17379497 -0.03021987
000340 9f c9 ac 3e 28 30 41 3e 75 3f 8b bb ee ff 58 3e
       0.33747575 0.18866026 -0.004249508 0.2119138
000350 b1 36 2f be 9d 21 16 bb 30 8c 67 3d f4 72 b5 3c
       -0.17110707 -0.0022908219 0.056530178 0.02214954
000360 9a 01 46 3e 59 e5 2c be 2d fd c6 3d 4e 35 75 bd
       0.19336548 -0.16884364 0.09716258 -0.05986529
000370 51 64 2f 3e ca 59 4a be 44 ae a5 3e eb 75 3f 3e
       0.17128111 -0.19760814 0.32359517 0.18697326
000380 f0 4e 5a 3d e1 83 e6 3d e2 31 18 3e 7f 9d 12 be
       0.053297937 0.11255623 0.14862779 -0.14317892
000390 3f a6 58 be 71 71 9c bc 49 2b 67 3d 4d 3f 04 3e
       -0.21157168 -0.019097062 0.056437764 0.12914772
0003a0 e7 fc 3d 3e d6 ae 00 be 23 1c 8e 3e b6 81 87 be
       0.18553506 -0.12566695 0.27755842 -0.2646615
0003b0 9b 1d 03 be 95 8b d5 3e f3 db 59 be 5c ac 3d be
       -0.12804262 0.41708055 -0.2127531 -0.18522781
0003c0 4e da 3b be 04 6c 4e be 88 91 d2 bd 6b 93 8e 3e
       -0.18344995 -0.20158392 -0.10281664 0.27846846
0003d0 ba da 4d be f6 6e 88 3e a0 2a 90 3e c1 61 44 be
       -0.20102969 0.26647156 0.2815752 -0.19177915
0003e0 ff 51 86 bc 3f 00 34 3e 8c 7c ff 3d a0 a9 82 3e
       -0.01639652 0.17578219 0.12474927 0.2552004
0003f0 d6 b4 f3 bd 08 c0 8a 3c fa 4c ea bc 07 d5 38 be
       -0.11899726 0.01693727 -0.028601158 -0.18050013

model.rnn.weight_hh_l0 f4 [52, 13]
000000 43 a3 7d 3e 12 c1 d6 3d bb 0a 71 bd d3 a7 a5 3d
       0.2476931 0.10486044 -0.058848124 0.080886506
000010 b0 b0 4e be a6 38 7e bd 4c e5 52 ba c3 d5 8f 3e
       -0.20184588 -0.062065743 -0.0008045032 0.28092775
000020 b7 25 1e 3e 41 4e 84 be 62 b7 44 3d 17 2a 8d 3d
       0.15444075 -0.25840953 0.04802645 0.068927936
000030 f8 55 57 be 8d 5c d0 3d ef 2a 49 3e 9e 1c 22 3d
       -0.21028888 0.10173903 0.19645284 0.039578073
000040 95 28 3d bc 11 49 08 3e a9 cc 06 bd f1 9b 5e 3d
       -0.01154532 0.13309123 -0.032910023 0.054347936
000050 37 a7 86 be 6b b5 8c 3e ce 7e 89 be fc 07 3a be
       -0.2629945 0.2748216 -0.26854557 -0.18167108
000060 ba 1a 5f 3e e8 02 d6 3d 82 f3 e5 bb 7e b5 8b bd
       0.21787539 0.10449773 -0.007017554 -0.06821726
000070 ee 26 46 be ee 43 2e 3e 02 6d 59 3e 82 f1 03 bd
       -0.19350788 0.170181 0.2123299 -0.03221274
000080 32 d3 59 3e 81 a7 3f 3e 7f ad 6f be 0c 35 80 be
       0.21271971 0.18716241 -0.23406027 -0.25040472
000090 5f 31 65 3e 01 bd dc bc 5f 02 19 3d 39 9c 5a 3e
       0.22382115 -0.026945593 0.037355777 0.21348657
0000a0 3a fa 93 be 08 9e 00 3e 78 ae 90 3e 37 d1 e4 bd
       -0.28901845 0.12560284 0.2825811 -0.11172717
0000b0 27 70 14 be 09 83 9b 3d 25 b2 c2 be 88 54 64 3e
       -0.14495908 0.07593352 -0.38026538 0.22297871
0000c0 e3 1b ea 3d 91 01 23 bd 34 2a dd bc 8a f0 5e 3e
       0.114311 -0.039796416 -0.026997663 0.21771446
0000d0 aa 29 64 3d fe 13 1b bd 2d a5 8f be d1 f0 8c be
       0.055703796 -0.037860863 -0.28055707 -0.27527478
0000e0 97 c3 ad bd 08 36 ad bd 2d fb bd 3d d7 59 59 3d
       -0.084845714 -0.08457571 0.092764236 0.053064194
0000f0 f7 04 78 3e 86 74 13 bd a1 91 05 3e 17 03 d0 bc
       0.24220644 -0.035999797 0.13043834 -0.025392098
000100 58 4c b0 be 20 90 bd 3d 5f 69 f4 bd 0d 01 8f 3e
       -0.34433246 0.09256005 -0.119341604 0.2793049
000110 36 a9 3b be 4c a0 b4 3d 07 e5 ef bd 5b 18 1f bd
       -0.18326268 0.08819637 -0.117136054 -0.038841587
000120 7f 75 6e bd 43 47 be 3d bd db 4f 3e cf dc 99 3e
       -0.05821752 0.09290936 0.20298667 0.30051276
000130 02 1b 0d be 05 d5 6d 3d 15 64 43 be 71 09 40 bd
       -0.13779834 0.05806448 -0.19081147 -0.046884004
000140 02 2b 8e 3e 70 d8 ae bc 4f 17 97 bd 7d cd 0b be
       0.27767187 -0.02134344 -0.07377493 -0.13652606
000150 5a 5f cf bd 0a 15 66 3e 80 9d 30 bd dd 67 71 3e
       -0.10125609 0.22468963 -0.043118954 0.23574777
000160 26 8f 4f be fe 4d 4b bd d0 e6 8b be 56 43 79 3b
       -0.2026945 -0.049634926 -0.27324533 0.003803452
000170 62 06 71 be e7 42 48 3e 17 3b 08 be c2 ff bd 3e
       -0.23537591 0.19556771 -0.13303791 0.3710919
000180 35 5d 8f 3e d3 3d 12 3e 80 de 01 3d 48 76 b9 3e
       0.280008 0.14281397 0.031706333 0.36223054
000190 b4 5b 02 bd 3a c6 30 3d 87 5b 70 3d 7a b4 96 be
       -0.031825736 0.043157794 0.058681037 -0.29434568
0001a0 2f 05 35 3d 0d 99 97 3b 75 96 4c be 54 1d 20 be
       0.044194397 0.0046263994 -0.1997927 -0.15636188
0001b0 7d e7 5f bd e4 84 58 be a1 91 dd 3d 68 e0 28 bd
       -0.054664124 -0.21144444 0.10818792 -0.041229635
0001c0 6a 9f 48 be be d8 40 be 4a 60 aa 3d cc a9 a6 3e
       -0.19592062 -0.1883268 0.08319147 0.3255142
0001d0 88 5f ce 3d 2d 52 9e be b4 d8 09 3d 7a 9a 41 be
       0.10076815 -0.3092207 0.03365393 -0.18906584
0001e0 f1 43 f0 bb b9 79 45 3e 83 26 a7 3e f4 ff 22 3e
       -0.007332318 0.19284715 0.3264657 0.15917951
0001f0 38 81 00 be 8b 90 3e 3e a9 7d 43 3d e0 7e 81 3d
       -0.12549293 0.18609826 0.04772726 0.063230276
000200 40 a4 30 3d 0e c9 8c 3e bb d6 59 3e 1b 16 b8 be
       0.04312539 0.27497143 0.2127332 -0.35954365
000210 9c 6a 29 be 3e fa 22 be 97 b4 44 be 75 46 a9 be
       -0.16544574 -0.15915772 -0.19209515 -0.33061567
000220 fb 56 2f be 78 73 22 3e f5 69 92 3d 57 b6 6f 3d
       -0.17123024 0.1586436 0.07149116 0.058523502
000230 d6 d9 3b 3d bd 56 50 be d3 54 4d 3e 50 35 a1 bc
       0.04586204 -0.20345588 0.20051889 -0.019678742
000240 8f 4d 61 3e 18 ab 02 3b 69 1c 1e bd 53 54 89 3e
       0.22002243 0.0019938406 -0.038601313 0.26822147
000250 83 02 a3 be 27 b9 19 3e fe 8c 4d be e5 32 db bc
       -0.31837854 0.15012036 -0.20073316 -0.026757667
000260 30 5b 3f bd 29 aa 3a be 15 cd 3e be 3a f5 eb 3d
       -0.046717823 -0.18228973 -0.1863292 0.11521383
000270 51 be 25 3e 1e b6 4d be 36 c2 80 3d 61 5a 1f be
       0.16185881 -0.20089003 0.06287043 -0.1556182
000280 36 35 fd 3d ec 98 b7 bd 1b d1 ae bd cc e9 9d bc
       0.12363665 -0.089647144 -0.085359775 -0.019276522
000290 c1 79 23 3e 47 19 1e 3e 82 68 52 be eb 3b b4 bd
       0.15964414 0.1543933 -0.20547679 -0.08800491
0002a0 fd 78 22 bd f7 a8 86 bd 35 53 45 be bc 39 0e bd
       -0.039666165 -0.06575196 -0.19270022 -0.03472303
0002b0 75 89 17 3b cf ff 97 be 69 c0 47 3e d3 3c 1f be
       0.0023122702 -0.29687354 0.19506992 -0.15550546
0002c0 4b bf b2 3e 92 f3 c6 bc 92 be 5a 3d 38 79 ba 3d
       0.3491157 -0.024286065 0.0534044 0.09105152
0002d0 fe 24 4b 3d 08 2d 30 3e 73 5b 0c 3e ad 65 d2 bd
       0.049595825 0.17204678 0.1370676 -0.10273299
0002e0 de 21 1d bd 66 4d 37 be 26 49 b7 bd 45 31 9e bd
       -0.038362376 -0.17900619 -0.08949499 -0.07724241
0002f0 b2 a6 4c 3e 43 8b 18 3e cc f6 ae 3b b6 e8 4d 3e
       0.19985464 0.14896874 0.005339479 0.20108303
000300 a7 8f 3c be 4c 4c 0c 3d ee 4e 28 3e ec 25 47 3d
       -0.18414174 0.03425245 0.1643636 0.04862015
000310 8e 05 13 bd e2 49 cc bd 94 c6 92 bd dc 25 e4 bc
       -0.03589397 -0.099750295 -0.07166782 -0.027850084
000320 6d 9f 31 be 81 14 c5 bd 97 4b dd bd d1 79 34 3e
       -0.17345972 -0.096230514 -0.10805433 0.17624594
000330 5b 58 24 be 95 d0 85 3e d3 2a 24 be 74 53 87 3e
       -0.1604933 0.26135698 -0.16031961 0.26430857
000340 0e e3 62 3e 72 89 07 3c 20 cd 0e 3e fe 81 8b bd
       0.22156927 0.008272516 0.13945436 -0.068119034
000350 fa 3f 96 be 90 06 a4 be 1a 63 21 3e ce d9 c8 3e
       -0.29345685 -0.32036257 0.1576046 0.39228672
000360 fc f5 7c be 6d 03 85 3d 78 b8 94 be 25 aa b4 be
       -0.2470321 0.06494794 -0.29046988 -0.3528606
000370 db 1a 55 3d 5b 1e d2 3d b2 54 2d 3e ed e6 94 3c
       0.052027564 0.10259696 0.1692684 0.01817652
000380 3a 59 29 3d ff 29 05 be 4b 8f 37 be ac 1d dc bd
       0.04134486 -0.13004301 -0.17925756 -0.10747847
000390 b0 85 2f 3d 95 a6 f5 3d 8e a4 db bc 6f 79 90 3e
       0.042852104 0.119946636 -0.026811864 0.28217646
0003a0 b0 6f a6 3c e3 2b 32 be 91 13 3c 3e 1a a0 e8 bc
       0.020316929 -0.17399554 0.18366839 -0.028396655
0003b0 b7 6b 97 3b 53 46 16 be ee d1 55 3d 70 c5 a1 3d
       0.004620995 -0.14675264 0.052202158 0.07898986
0003c0 36 f2 88 be da f5 0a 3d 87 d7 93 3c 7a 05 fa 3c
       -0.26747292 0.03392587 0.018047107 0.03052019
0003d0 0a 6f 5c be 09 6b 82 3e 03 df 0d bd ba 7e 85 ba
       -0.21526733 0.25472286 -0.03463651 -0.0010184862
0003e0 43 5b 85 bd e1 19 b6 3e d7 43 d7 bd ba 4b 51 3e
       -0.065115474 0.3556662 -0.10510986 0.20439044
0003f0 51 82 9d 3d ec 68 60 3d b0 8e 0f 3e a0 df 91 3c
       0.076908715 0.05478756 0.14019275 0.017806828

model.rnn.bias_ih_l0 f4 [52]
000000 94 43 2b be 0d e2 45 3e c6 85 88 3c 3e 3c 37 3e
       -0.16724998 0.19324513 0.01666535 0.17894074
000010 c8 51 61 3e 88 40 12 bd 57 cc 45 be 02 4a 7b 3e
       0.22003853 -0.035706073 -0.1931623 0.2453995
000020 22 e3 25 3e 3b d9 78 bc 4f 0c 3b 3e 1d 49 4b 3e
       0.16199926 -0.0151885105 0.18266414 0.19852109
000030 17 6e 32 ba 3b 8e 36 be be 60 0b be 70 43 f4 3b
       -0.0006806566 -0.17827694 -0.13611123 0.0074543282
000040 bc 2d ff 3d 81 27 6c 3e 03 b5 68 be a4 31 82 be
       0.12459895 0.23061945 -0.227253 -0.25428498
000050 f2 0d 0a 3e 45 24 36 be 5c e5 49 3d d9 72 50 3c
       0.13481882 -0.17787273 0.049291 0.012722694
000060 a1 71 1d be 6e b2 46 be 4c ea 81 3e 96 ec 91 3d
       -0.15375377 -0.19404003 0.25374067 0.07125203
000070 bd 6b 39 be b2 5c e7 3d 99 b1 b0 bc 73 13 79 be
       -0.18107505 0.11296977 -0.02156906 -0.24323826
000080 6c 99 24 3e ac 96 12 3d ed 41 fc 3d 23 e0 75 be
       0.16074151 0.035788223 0.12317262 -0.24011283
000090 3e a9 e1 3c 8f 39 1b be c5 49 1a be 80 62 b6 bd
       0.027546521 -0.15158676 -0.15067203 -0.08905506
0000a0 4b 2c a1 3c c9 b5 79 3e 14 26 b4 bd b9 21 3a be
       0.01967444 0.24385752 -0.08796325 -0.18176927
0000b0 6c 47 51 be 7a df 31 3e 2e b5 e6 bd 68 dc 2b 3e
       -0.20437402 0.17370406 -0.11265026 0.16783297
0000c0 1e 5e 8c bc 56 b7 84 be 7d c4 3d 3e 14 ea 01 3e
       -0.017134722 -0.25921124 0.18531986 0.1268695

model.rnn.bias_hh_l0 f4 [52]
000000 20 35 5a 3e d4 07 d6 3d 2f c9 bf 3d 9e 32 18 bc
       0.21309328 0.10450712 0.093645446 -0.009289412
000010 e0 a2 ef bd a2 05 d8 3d 3c e0 84 be f1 c8 47 be
       -0.11700988 0.105479494 -0.25952327 -0.19510247
000020 d9 9c e1 3d 45 c6 a5 3d 57 0a 30 3e 69 9b 0d be
       0.110162444 0.080944575 0.17191444 -0.13828816
000030 9d 2b 4d be 67 da 77 3d e6 8b a1 3e d3 ab 40 be
       -0.20036168 0.06051102 0.31552047 -0.18815546
000040 17 02 97 3d f0 f2 ac 3d 07 25 30 3e a6 1d 43 be
       0.073734455 0.08444774 0.17201625 -0.19054279
000050 67 f0 2e bd e9 22 31 3d 8c f8 77 3e 25 59 69 bd
       -0.042709734 0.043246184 0.24215907 -0.05696978
000060 a4 bc 3c 3e 57 0c 7d 3d e7 48 43 be 24 2a fd bd
       0.18431336 0.061779346 -0.19070779 -0.12361553
000070 b0 24 16 be f0 a7 ec bd 31 d4 3e 3e 00 4b 87 be
       -0.14662433 -0.11555469 0.18635632 -0.26424408
000080 6c 18 16 be 82 4a 0a be 8c 34 91 3e 16 67 7f be
       -0.14657754 -0.13504985 0.28360403 -0.24941668
000090 fc ef 21 bd db cd cb bd 45 7e 29 be 63 01 04 be
       -0.039535508 -0.09951373 -0.16552074 -0.12891154
0000a0 b6 cc b6 3d dd 92 60 3e e7 ce 2e 3e 60 e8 aa 3d
       0.08925764 0.21931024 0.17071114 0.08345103
0000b0 85 92 bf 3c 23 62 48 3e d6 2d 9f 3e 4c 45 37 be
       0.023385296 0.19568686 0.31089658 -0.17897528
0000c0 e9 b3 12 be 54 38 b1 3d 1c 1e a6 3e b7 9b a1 3e
       -0.14326443 0.08653322 0.32444847 0.31564113

model.rnn.weight_ih_l1 f4 [52, 13]
000000 dd da 2c 3e 1d 7d f1 3b 54 55 14 bb 86 1f ac 3d
       0.16880365 0.007369651 -0.0022633867 0.0840445
000010 eb 75 44 be 47 4b 84 3c 79 7a 93 3e 66 1a b8 be
       -0.19185607 0.016149176 0.28804377 -0.3595764
000020 c0 8c 55 be 77 10 34 be c5 09 c3 3d be 55 dc 3e
       -0.20854473 -0.17584406 0.09523348 0.43034166
000030 d7 dd 1f be 95 88 ac 3d c6 a4 31 be c3 ae 36 3e
       -0.15611969 0.084244885 -0.17348012 0.17840104
000040 21 da 04 be 08 81 90 3e e5 d8 85 3e 23 4c 46 be
       -0.12973835 0.28223443 0.2614204 -0.19364981
000050 17 39 59 3e 29 47 84 3e 46 65 95 be dc 58 6a 3d
       0.21213184 0.2583554 -0.29178828 0.05721365
000060 fb f5 16 3d eb 71 84 3c 2e b5 14 3e 79 e2 24 be
       0.03685568 0.016167602 0.1452224 -0.16102017
000070 f0 98 8f bd 28 7a 5d be 39 2d d6 3e 4c 6a 58 3d
       -0.070115924 -0.2162863 0.41831377 0.052835748
000080 33 fd 6b 3d 05 2a 0d 3e e3 66 91 3e 56 03 2d be
       0.057614516 0.1378556 0.2839881 -0.16895804
000090 5c 6e e7 3c 36 e9 90 bd 45 58 79 be 14 03 82 3c
       0.028250866 -0.070757315 -0.24350078 0.015870608
0000a0 4f 0b da 3d 4b 77 63 be 0c d9 d9 3d 9a fe 51 be
       0.10646688 -0.22213475 0.106371015 -0.20507279
0000b0 cd 03 33 bd 04 ab 1e 3e 03 23 83 be 2d ef 82 3e
       -0.043704797 0.15494925 -0.2561265 0.25573102
0000c0 eb 8d 20 be a5 09 f2 bd 68 b5 71 bd 30 25 26 be
       -0.15679137 -0.11818246 -0.059010893 -0.16225123
0000d0 b6 eb 0e be d9 98 ba 3d 2f ce 64 bd 6a 85 80 be
       -0.13957104 0.091111846 -0.055860694 -0.25101787
0000e0 00 58 37 3e 2a f2 87 3e 93 a2 19 3e 2e 8a 67 3e
       0.17904663 0.26551944 0.15003423 0.22611305
0000f0 c9 22 8c bc 0e fc 08 be 97 de 37 3e c1 e2 a7 bd
       -0.01710643 -0.13377401 0.17956005 -0.08197547
000100 b7 53 75 be 05 d7 94 bc 85 d8 0a be 2e ff 16 3e
       -0.23957716 -0.018168936 -0.13559158 0.14745781
000110 49 8e 2b be 82 ea 40 3e 18 b2 4f 3d e4 6e 3a 3e
       -0.16753496 0.18839458 0.050706953 0.18206364
000120 ce 9a 93 3d c1 17 12 3e aa 52 3b be 48 55 27 3e
       0.07207261 0.14266874 -0.18293253 0.16341126
000130 26 10 d4 be 44 55 31 bc 93 83 c0 3c 2c 52 45 3d
       -0.4141857 -0.010823552 0.02350024 0.04817407
000140 09 33 70 3d 66 d0 8f be da f6 0f be 9e a7 41 bd
       0.05864242 -0.28088683 -0.1405901 -0.047278993
000150 37 6c 08 bd 11 09 4e 3e 90 5d 8c 3e 5c cd cf bd
       -0.033306327 0.20120646 0.27415133 -0.10146591
000160 38 d8 9d 3d 3b d6 e3 be 21 15 d2 bd 8b 01 ae 3d
       0.07707256 -0.44499382 -0.10257936 0.08496388
000170 44 92 83 be 5c b0 5a be 9e 25 22 3d 89 de 08 be
       -0.2569753 -0.21356338 0.039586656 -0.1336614
000180 ba 49 29 3e cf e5 86 3e 0a 35 79 3d 15 f2 54 bd
       0.1653203 0.26347205 0.060841598 -0.05198868
000190 1b ee 27 3e 21 ce 16 be d9 1c cc be b9 fb 9e bd
       0.16399424 -0.1472707 -0.3986576 -0.07762856
0001a0 a0 1f b8 bd ad ee 3c be e7 2e 90 bd b7 0b e2 3d
       -0.08990407 -0.18450423 -0.07040196 0.11037391
0001b0 b5 80 76 3e 2b 90 fa 3d f3 74 16 be e9 23 b8 bd
       0.24072535 0.12234529 -0.1469305 -0.08991224
0001c0 78 82 63 3e 81 07 13 3d 19 1a 44 3e 63 4b 5f be
       0.22217739 0.03589583 0.1915058 -0.21806102
0001d0 0c 8d 82 3b c0 2c 49 3d a8 40 c2 bb 17 70 89 bd
       0.0039840993 0.049114943 -0.005928118 -0.067108326
0001e0 29 d7 b4 be cc 7e 3c be 50 97 96 3e f8 50 57 3e
       -0.35320404 -0.18407744 0.29412317 0.21026981
0001f0 9f c2 3d 3e 0c df 2d ba 99 3a 86 be 03 1e 16 3e
       0.18531273 -0.0006632663 -0.2621658 0.14659886
000200 d2 9c bd 3d aa 95 27 be 67 70 90 3d a1 14 9f be
       0.09258427 -0.16365686 0.07052689 -0.31070426
000210 58 b4 12 be 67 fb e0 3c d5 2a 66 3b 3e a0 ba 3d
       -0.14326608 0.027463628 0.0035120745 0.09112595
000220 90 2e be bd 3c 27 5b 3e 54 67 23 be e1 4e 76 3e
       -0.09286225 0.21401685 -0.15957385 0.24053527
000230 a2 c2 91 3e d3 98 41 3e bb 6f 8a be bc 63 11 be
       0.28468806 0.18905954 -0.2703837 -0.14198202
000240 12 62 e3 bd 45 46 5c 3e cf 1f 8a be 83 2b 23 3e
       -0.1110269 0.2151118 -0.26977393 0.15934567
000250 a7 41 83 3e 36 7f 5d 3e a9 54 16 be 33 5b 5c 3e
       0.25636026 0.21630558 -0.14680733 0.21519165
000260 fe 40 97 be 08 92 58 be 8b de 8f be 75 b7 10 3c
       -0.29541773 -0.21149457 -0.28099474 0.008832802
000270 6b 7e 16 3e ce cb 97 bd 43 29 79 be 02 12 4e bc
       0.14696662 -0.074119195 -0.24332146 -0.012577536
000280 03 cc 9a 3e 77 e5 f1 3a 54 78 e1 3d 4f 17 0e bf
       0.30233774 0.0018455227 0.11009279 -0.55504316
000290 50 68 f4 3d 47 5d 81 3e 2b ce 19 be 8a 7d aa 3e
       0.119339585 0.25266477 -0.15020053 0.33298904
0002a0 e2 f5 3b be 30 0c 05 3e 6b c3 77 3e f2 f8 0b be
       -0.18355516 0.1299293 0.2419564 -0.13669184
0002b0 2c 60 95 bb 37 8c 42 be ab 78 85 3d f3 d7 9e 3e
       -0.0045585837 -0.189988 0.06517156 0.3102413
0002c0 4f 54 12 be 54 ff dc bd 8f b6 94 bd c8 0e 1d be
       -0.14289974 -0.107908875 -0.07261383 -0.1533767
0002d0 87 55 99 3e da 99 62 3e 21 3b 6d be e2 d8 54 be
       0.29948065 0.22129002 -0.23167087 -0.20785859
0002e0 8c ef 37 3e ed a4 9f be 9e da a0 bd 06 88 b7 3e
       0.17962474 -0.31180516 -0.07854198 0.35845965
0002f0 63 ea 83 bd bc 71 8f 3e 2d e3 bc bb 98 57 9b 3d
       -0.0644119 0.2801646 -0.005764386 0.075850666
000300 1a e4 51 be 22 7d 8f be d1 c0 47 be e0 bc ef bd
       -0.2049717 -0.28025156 -0.19507147 -0.11705947
000310 c6 32 5c 3d e8 b1 30 3e d1 50 86 3b d4 8a 9d 3e
       0.05375936 0.17255366 0.0040989895 0.3076998
000320 66 be 3a be 4b 63 9d 3d b6 c1 2e be 4e 1c 08 3e
       -0.18236694 0.07684954 -0.17066082 0.13292047
000330 9d f2 56 3e ae 16 02 be bb e3 85 3e 8a f6 5e 3e
       0.20990987 -0.12703964 0.26150307 0.21773735
000340 96 e3 37 3e df 40 33 3e 31 50 65 be e1 b5 23 bd
       0.17957911 0.17505215 -0.22393872 -0.039968375
000350 1d 4b 21 be 39 2a fa bd b9 b0 4b 3e 8f 11 9a bd
       -0.1575131 -0.122150846 0.19891633 -0.0752288
000360 43 97 fc bd 0c ce 94 3d 18 b8 50 3e 3f 46 30 be
       -0.123335384 0.07265863 0.20382726 -0.17214297
000370 1e c2 05 3d ca a4 12 be 8c 69 b9 bd 05 40 1b bd
       0.032655828 -0.14320675 -0.090533346 -0.03790285
000380 c5 e7 39 3d ad 4b 55 be 2a d6 1a 3e b8 fa 0e be
       0.04538705 -0.2082965 0.1512076 -0.13962829
000390 6d 86 b5 3e 8c 42 a2 be cd 08 82 3e 33 f1 24 be
       0.3545412 -0.31691396 0.2539734 -0.16107635
0003a0 66 03 35 be 2d c2 2c bc 64 bc 10 3e ab f3 56 be
       -0.17677078 -0.010544342 0.14134365 -0.2099139
0003b0 b2 ee ce 3d db 8d 2a 3e ec 2d 2e 3e 10 39 b4 bd
       0.10104121 0.16655676 0.17009705 -0.08799946
0003c0 bf ae 77 3e 7f 73 d0 3d 48 96 52 3e d1 59 9c be
       0.24187754 0.10178279 0.2056514 -0.30537274
0003d0 8c 74 6d 3e 17 08 b8 be 72 b2 1c 3e 4b 34 92 be
       0.2318899 -0.35943672 0.15302446 -0.2855552
0003e0 dc b2 92 be ea bd d3 bd 75 c8 62 3d 35 3e f0 3d
       -0.28652084 -0.103389576 0.055366952 0.11730615
0003f0 13 a0 96 3d 2c 2e 35 be e0 f9 85 3d f2 77 f3 bd
       0.073547505 -0.17693394 0.065418005 -0.11888112

model.rnn.weight_hh_l1 f4 [52, 13]
000000 60 98 9a 3d fe 32 d8 3c cf bc 6d 3e 83 d5 50 be
       0.075485945 0.026391502 0.23216556 -0.20393948
000010 dc b6 55 3e 0e e9 69 be 92 0c 01 3e d9 7d 15 3e
       0.20870537 -0.2284281 0.12602451 0.14598788
000020 97 3a b8 bd 5f c5 47 3e c4 fd c6 3d 64 c4 07 3e
       -0.0899555 0.19508885 0.09716371 0.13258511
000030 4b 9d 0d be f4 3f 87 b9 d7 8b 99 3e 07 82 31 3e
       -0.13829534 -0.00025796855 0.29989502 0.17334758
000040 d6 0b 21 3e cf 44 f1 bd c9 fb be bd 46 41 a1 3d
       0.15727171 -0.11780702 -0.09325368 0.07873778
000050 ce ec 68 bc 3d 88 33 be ae eb c7 bd 51 f3 aa bd
       -0.014216615 -0.1753244 -0.09761749 -0.0834719
000060 ac ed 16 bd 57 9b c1 3d 20 fb cd 3b 1c 8a 6a 3c
       -0.036847755 0.09453457 0.00628604 0.014315154
000070 2a 0e 7b 3e 6f 4d d6 3e ef db 2c be 73 17 13 be
       0.24517122 0.41855952 -0.16880773 -0.14364414
000080 38 52 e1 3e a7 ed 6c be ea 4c dd 3e c2 85 9f be
       0.4400804 -0.23137532 0.43222743 -0.31156737
000090 92 62 80 bd a8 5a a7 bd b0 01 a0 3d 71 bf b4 bc
       -0.06268801 -0.08171588 0.07812822 -0.022063943
0000a0 61 71 a9 3e b1 1f 5f 3e e9 98 93 bc 58 97 57 be
       0.33094314 0.21789433 -0.01801725 -0.21053827
0000b0 16 cd 59 be 19 0d f6 3d 30 f0 e0 3d 57 19 1e be
       -0.2126964 0.12014217 0.10983312 -0.15439354
0000c0 e4 33 24 be db 4d 42 be 95 23 a3 3e b7 68 8d be
       -0.1603542 -0.18975012 0.31863084 -0.27618954
0000d0 1d 10 1d be 7e 56 82 3e 5a b4 26 3e b3 c3 24 3e
       -0.15338178 0.25456613 0.16279736 0.16090278
0000e0 c5 68 bd bd 3d 17 e5 3d 55 4d ec bb cd 6f 9a 3d
       -0.09248499 0.11186073 -0.007211367 0.075408556
0000f0 84 79 73 3e 1c bc 1a 3c 7e 51 92 be 49 08 93 3e
       0.23776823 0.009444263 -0.285778 0.2871726
000100 5d e6 93 be 85 e6 b5 bd 09 61 72 be ee 6a 77 bd
       -0.2888669 -0.08881859 -0.23669828 -0.06040471
000110 8d fd 96 bc 21 77 86 bd 38 bc f9 bb a4 bc c5 bd
       -0.01843145 -0.06565691 -0.0076213144 -0.09655121
000120 0c 08 0e be 2c 48 9b bc af 75 88 bc 70 c2 7d be
       -0.13870257 -0.018955313 -0.016657678 -0.24781203
000130 1a 40 aa bd 39 94 df bd 41 96 77 3e 6e 57 86 3e
       -0.08313008 -0.10916943 0.24178411 0.2623858
000140 2d 8f 84 3e f5 29 0b 3e e0 b1 1c 3e 9c f8 a0 be
       0.25890484 0.13590224 0.15302229 -0.31439674
000150 45 c2 49 3e c7 4a 52 3d 1d 05 4d bd cd 9b a8 3c
       0.19703014 0.051340844 -0.050053705 0.020582104
000160 48 82 88 3d 3b 89 02 be 75 c7 4f 3e 66 a7 33 3d
       0.06665474 -0.12747662 0.2029093 0.043860815
000170 ad 77 1b 3e 62 06 55 3e 0f b4 06 3d 78 0b 16 bc
       0.15182371 0.20803216 0.03288656 -0.009158008
000180 3a 67 70 be fe 8c 68 3e 6c 68 d8 bd b6 a9 b1 bd
       -0.23476878 0.22710034 -0.10566792 -0.08674948
000190 ea d2 39 3d c3 23 6a be 17 c8 8c 3e cf 57 31 be
       0.04536716 -0.22865205 0.27496406 -0.17318653
0001a0 f3 3b 7a 3b 5a 06 93 3e c0 b7 b1 bc a3 e9 43 3d
       0.0038182705 0.28715783 -0.021694064 0.047830235
0001b0 b2 2a 63 3e 58 1a 6f be 99 10 4b be 57 51 ac bd
       0.22184256 -0.23349893 -0.1983055 -0.08413952
0001c0 ed c1 07 3e 2c 9e 2d be cd f5 14 3e 3b a3 87 3e
       0.1325757 -0.16954869 0.1454689 0.26491722
0001d0 6b 0a dc bd 1e 35 33 3d a6 61 86 3e f7 f2 87 3e
       -0.107441746 0.04375183 0.26246375 0.26552555
0001e0 25 6c 86 3e e5 e7 9b bd 22 7c 0f 3e ff 8b 2b 3e
       0.26254383 -0.0761259 0.14012197 0.16752623
0001f0 8e df 2a be bb 9a 37 3d d5 a3 8e be 82 51 1d 3e
       -0.16686842 0.044825297 -0.2785937 0.15363124
000200 0a 02 41 3e 4c a1 63 3e d9 a9 b0 3d 52 bf b9 bd
       0.18848434 0.22229499 0.08626146 -0.090696946
000210 c5 e5 a7 3c 2e 10 16 3e e6 6e 89 be 09 3d d4 bb
       0.020495305 0.1465461 -0.2684242 -0.0064770025
000220 68 fa 55 3e 1a c1 88 bd 4a 04 8b 3e dc 6e d6 3d
       0.20896304 -0.06677456 0.2715171 0.104703635
000230 f5 26 a5 bd 0e f0 3b 3d 40 0b ee 3b 28 0b d0 bd
       -0.08064071 0.04588323 0.0072645247 -0.10158378
000240 b9 39 a4 bd 62 f1 ab 3e f4 4b 1a bd bd 0d 02 3e
       -0.08018822 0.33582598 -0.03767009 0.12700553
000250 d7 14 b6 3d 6b d9 08 be 6f 2b a8 bd b6 cf 07 3e
       0.08890694 -0.13364188 -0.08211409 0.13262829
000260 00 63 91 be 47 34 84 3d db ef d0 bd a5 d7 1d be
       -0.28395844 0.064552836 -0.10201999 -0.15414293
000270 ab 49 9b 3d 9e 6c 8b 3c d4 3d a8 3e b2 61 7b 3e
       0.075824104 0.017019566 0.3285967 0.24548987
000280 3c 0c 54 3e 59 e8 15 3e 2c 12 6a bd 4a fb b1 3a
       0.20707792 0.14639415 -0.057146236 0.0013578918
000290 e7 53 2e be c2 54 b6 3d fd dc 92 be b7 01 46 3e
       -0.17024194 0.08902885 -0.28684226 0.19336592
0002a0 3f 67 30 be 5b f1 73 3e c1 2e 67 be 95 4c bc bd
       -0.17226885 0.23822539 -0.22576429 -0.09194294
0002b0 76 16 91 3d 2d fa 5f 3e 89 3d 31 be eb 47 5a 3b
       0.07084362 0.21872778 -0.1730863 0.0033307027
0002c0 21 36 80 be 3c 7d 88 3d c4 04 2b 3e c4 c8 e4 3d
       -0.25041297 0.066645116 0.16701037 0.111711055
0002d0 3e 0b d8 bd 9b 58 f2 3d d2 1c aa 3d 02 d8 90 bc
       -0.10549019 0.118333064 0.08306278 -0.017681126
0002e0 2b 18 9d bd e2 d8 03 be 8c 6c d9 3d fe 98 1e bd
       -0.07670625 -0.12875703 0.10616407 -0.038720123
0002f0 b7 e2 23 be 32 f8 b6 bd a6 da 9a 3e cf bb 98 be
       -0.16004454 -0.08934058 0.3024494 -0.29830787
000300 61 df 85 3e b4 bd 9b 3e bf ea 25 be 1b 45 f8 bd
       0.26146987 0.3041817 -0.1620283 -0.12122556
000310 6b 28 7d bc a9 28 0b be e1 95 19 be c8 17 0d bc
       -0.015451531 -0.1358973 -0.1499858 -0.008611627
000320 05 8a c5 3d 19 15 7d 3e f3 15 0e be 08 1b e3 3c
       0.09645466 0.2471508 -0.1387556 0.02772285
000330 db 4b 69 be 4e be 1d 3e b6 43 4f be 5b 3a a3 be
       -0.22782843 0.15404627 -0.20240673 -0.3188046
000340 70 94 05 3e c0 39 55 3e c0 73 f6 3e cf 88 04 3e
       0.13044906 0.20822811 0.48135185 0.12942813
000350 e0 50 44 be 15 76 d6 3c 95 4e a4 3e b3 ac f9 bc
       -0.19171476 0.026179353 0.32091203 -0.030477857
000360 a8 61 be 3d 49 dd 7f be 38 b1 e2 bd 37 3d 4a 3e
       0.0929597 -0.24986757 -0.11068958 0.19749914
000370 ed 1f c9 bd a9 96 45 3e fd 4c 6c 3d c8 7c 65 be
       -0.098205425 0.19295754 0.05769061 -0.22410882
000380 a6 26 23 3e df 91 73 be 35 fe 1c be 3d 0f b4 bd
       0.15932712 -0.23786114 -0.15331347 -0.08791969
000390 74 67 3a bd a5 7d 54 be 02 44 21 3e 97 08 8a bd
       -0.045508817 -0.20751055 0.15748599 -0.0673992
0003a0 4a 1c 26 be 31 94 2b be a0 33 1c 3d d2 88 1b be
       -0.16221729 -0.1675575 0.03813517 -0.15188912
0003b0 dc 1b 23 3e c0 a4 0f 3e f2 ea 1e 3d fd 37 9e be
       0.15928596 0.14027691 0.03879828 -0.3090209
0003c0 6d 49 c9 3d 63 9b 29 3d 0a 8e ac 3d 75 68 69 be
       0.09828458 0.041407954 0.08425529 -0.22793753
0003d0 4b 53 8e bd 00 47 28 3d 8b 28 86 bd 28 aa 60 bd
       -0.069494806 0.041083336 -0.06550702 -0.054849774
0003e0 24 c2 87 3e 56 75 8c 3e 95 03 17 3e 01 7e 68 3e
       0.26515305 0.2743327 0.1474746 0.22704317
0003f0 3d a3 c9 bd a2 49 46 3d c2 bf d3 3d e5 dc 29 be
       -0.09845588 0.048410065 0.10339309 -0.16588171

model.rnn.bias_ih_l1 f4 [52]
000000 dc 2f 2b 3e 22 58 84 3e 71 fa 35 3e 57 60 40 be
       0.16717476 0.2584849 0.17771317 -0.1878675
000010 db 89 6c be a2 5b 61 3e 21 05 bc 3d 1f 29 06 3d
       -0.23099463 0.22007611 0.09180666 0.03275406
000020 15 a4 92 3e 34 69 18 3e 7e 8e 6c 3e 9d ab 42 3e
       0.2864081 0.14883882 0.23101231 0.19010778
000030 70 e3 6d 3c fa 36 84 bd 8a f1 93 3d f7 3b 0c 3e
       0.014519557 -0.064557984 0.07223804 0.1369475
000040 5c 19 fc bd 07 6b 39 be d0 a5 91 bb 1a 2c d0 bd
       -0.123095244 -0.18107234 -0.004444815 -0.10164662
000050 db 3c b4 bd 34 e8 7b 3e a3 7f d9 3c 53 85 66 3e
       -0.0880067 0.24600297 0.02655012 0.22511797
000060 20 00 5e be 8c 6b 3e 3e 18 fd 41 3e 80 3c a2 bd
       -0.21679735 0.18595713 0.18944204 -0.07921696
000070 2b d0 b1 3d 89 19 be bc 2c 3e 42 bc 12 12 9c be
       0.08682283 -0.023205535 -0.011855643 -0.30482537
000080 40 32 e3 3d bd 49 48 be 0c 2b 93 3e af 59 92 be
       0.11093569 -0.19559379 0.2874378 -0.28584048
000090 63 22 7c 3d 1c 11 0c bd 12 7e 4a be 6a 8d c9 bd
       0.06155623 -0.034196004 -0.19774655 -0.09841426
0000a0 23 60 21 3e 84 6f 92 3d a0 7c ca 3e 02 6c 86 3e
       0.1575933 0.07150176 0.39548206 0.26254278
0000b0 96 b3 eb 3d 2d 9d 11 3e 9e f7 60 3e 96 28 48 3e
       0.11508863 0.14220114 0.21969458 0.19546732
0000c0 7f d6 81 3e d8 0c 7f 39 76 69 a3 3e ad bc 6f 3c
       0.2535896 0.0002432348 0.31916398 0.014632386

model.rnn.bias_hh_l1 f4 [52]
000000 f6 de 50 be 50 12 96 bb cf 60 23 3d 71 85 a8 bd
       -0.20397553 -0.0045798197 0.039887246 -0.08228577
000010 fc 91 9f 3d 25 0b 2f 3e 55 9d c6 bd 41 96 a7 3e
       0.07791516 0.17094095 -0.096979775 0.32731822
000020 e8 f6 0b 3e 33 37 32 3e d0 6c 8b 3d fd 9b b1 3d
       0.13668406 0.1740387 0.06807864 0.086723305
000030 c8 88 74 3d 83 f0 21 be 5c 89 09 bd 32 97 32 be
       0.059700757 -0.15814404 -0.03357826 -0.17440489
000040 83 c9 32 3c 99 3a 05 be d8 39 3d 3e 1b c8 67 3e
       0.010912302 -0.13010634 0.18479097 0.22634928
000050 93 58 93 3e 66 c7 5e be 8b ae 13 be f3 b3 96 3e
       0.28778514 -0.21755752 -0.14422052 0.29434165
000060 6a b8 95 3e 95 9b 1c 3c 91 3e 4a 3e a8 ed 49 be
       0.2924226 0.009558578 0.1975043 -0.19719565
000070 85 b8 d1 bd dc 3e 89 3e e2 b7 31 bd 16 d2 dc bc
       -0.102402724 0.2680577 -0.043388255 -0.026955646
000080 37 03 a5 3d 03 3c 1e be 4a c5 29 3e 49 59 22 3e
       0.08057254 -0.1545258 0.16579166 0.15854372
000090 d8 e9 5f be 2c b9 91 3e 58 79 1e 3e 0d 4e f2 bd
       -0.21866548 0.28461587 0.15475976 -0.11831293
0000a0 ad 2e 93 3e 95 fe 65 3e 30 4b 83 3e 6c 17 6a 3e
       0.28746548 0.22460397 0.256433 0.22860497
0000b0 32 ae 52 3e 5c ef 57 3d e9 db a5 3e 56 8b 24 be
       0.20574263 0.052718505 0.3239434 -0.16068777
0000c0 cb 68 0d be 98 7a 8a bd be 86 1b be 3d e9 9b 3d
       -0.13809507 -0.06761664 -0.15188119 0.07612846

exp_avg f4 [1, 13]
000000 14 fd 65 ba 23 27 1c bb d3 9e e9 bb 90 56 5a bb
       -0.00087733683 -0.0023827038 -0.007129529 -0.0033315755
000010 74 76 b8 ba 7f 46 01 3b 4b 36 3c bb 8b e2 3e 3b
       -0.0014073388 0.0019725857 -0.0028718885 0.002912673
000020 3d 0f 14 bb 7f a4 0c 3b df 4d 07 3b 3c 24 6a bb
       -0.002259209 0.0021460352 0.002064578 -0.0035727164
000030 9d de 82 3b
       0.0039938227

exp_avg_sq f4 [1, 13]
000000 90 ab 83 34 3c 5f f1 38 65 89 ec 37 95 bc 10 39
       2.452548e-07 0.00011509514 2.8197372e-05 0.00013803162
000010 12 59 e8 36 01 fd 07 39 ad 62 7f 38 9c 82 f4 38
       6.924508e-06 0.00012968855 6.0888637e-05 0.000116591546
000020 76 3f ff 38 b8 c2 da 38 fb 68 d4 36 b5 d4 aa 38
       0.00012171168 0.00010431319 6.3303137e-06 8.1458515e-05
000030 97 44 cc 37
       2.4350635e-05

exp_avg f4 [1, 13]
000000 b2 0d 40 3c 9d 07 86 3d 24 01 38 3d e3 bf a1 3d
       0.011722015 0.06544421 0.044922963 0.078979276
000010 96 c6 c9 3c 20 f0 82 bd eb 6c 8c 3d 38 15 96 bd
       0.024630826 -0.063934565 0.06856712 -0.07328266
000020 c6 3a 70 3d ee 38 87 bd 3a 14 6b bd 4f 0a d2 3d
       0.0586498 -0.06602655 -0.057392336 0.102558725
000030 42 5d b2 bd
       -0.08709194

exp_avg_sq f4 [1, 13]
000000 28 1f 23 3b 17 7c 02 3f 30 aa 5f 3e 1d cb 28 3f
       0.0024890397 0.50970596 0.21842265 0.65934926
000010 ee 56 0e 3c 49 4c fc 3e 7a a7 af 3e e2 86 04 3f
       0.008687718 0.4927695 0.34307462 0.51768315
000020 f2 e2 00 3f cf 07 e1 3e 35 d0 98 3d b4 18 c7 3e
       0.5034629 0.4395127 0.07461587 0.38886034
000030 43 48 8d 3e
       0.27594194

exp_avg f4 [1, 13]
000000 ad e8 c8 3c cb 6c ff 3d 29 0d 1c 3e 03 a1 1c 3e
       0.024525011 0.124719225 0.15239395 0.15295796
000010 80 f7 b2 3b 16 bf f6 bd e1 20 eb 3d a9 45 0a be
       0.005461633 -0.120481655 0.114808805 -0.13503136
000020 41 15 06 3e 7e 13 ef bd dd 1d a6 bd 37 06 0a 3e
       0.13094045 -0.1167364 -0.08111165 0.13478933
000030 ee 69 fa bd
       -0.12227236

exp_avg_sq f4 [1, 13]
000000 52 61 a9 38 b6 cc c1 3c 24 87 cb 3b 70 f1 df 3c
       8.076675e-05 0.023657184 0.0062111784 0.027336806
000010 12 81 3e 3a dd 62 d1 3c 4b 84 68 3c 3b 2b cb 3c
       0.0007267158 0.025559837 0.014191697 0.024800887
000020 1c de bc 3c ec 92 ae 3c b3 3d 34 3b 5d 5c 87 3c
       0.023055129 0.021310292 0.0027502596 0.016523534
000030 f8 23 ff 3b
       0.00778627

exp_avg f4 [52, 48]
000000 bd 4a be ba 67 26 e1 ba e8 b6 05 bb cc 8a 21 bb
       -0.0014518123 -0.0017177582 -0.002040321 -0.002464938
000010 d1 46 4d bb 12 7c 7c bb 43 94 94 bb 7a 89 6f bb
       -0.0031322727 -0.00385261 -0.0045342757 -0.0036550448
000020 b9 9e 71 bb 0c 38 7d bb 08 b3 68 bb 16 cc 6d bb
       -0.0036868288 -0.0038638143 -0.0035507102 -0.0036284975
000030 ea 3e 7d bb 31 80 49 bb 78 c3 4b bb 12 16 59 bb
       -0.0038642236 -0.0030746574 -0.003109185 -0.0033124727
000040 61 09 66 bb 32 e3 59 bb c6 6d 58 bb 7d 98 1a bb
       -0.0035100805 -0.0033246991 -0.0033024414 -0.0023589425
000050 8d 33 0e bb 53 d6 0a bb 70 71 29 bb e5 61 1c bb
       -0.0021698207 -0.0021184876 -0.0025854968 -0.002386206
000060 92 bd 13 bb 7a 15 44 bb 30 b7 36 bb ad 25 27 bb
       -0.0022543413 -0.0029920028 -0.0027880184 -0.0025504634
000070 b6 96 f6 ba 11 00 de ba b0 50 c7 ba 9d 20 54 ba
       -0.0018813226 -0.0016937276 -0.0015206542 -0.0008092018
000080 7b e6 48 ba 9c 89 3c ba c5 fe 4e ba 73 98 4c ba
       -0.0007663739 -0.0007192136 -0.000789624 -0.0007804699
000090 e2 ff 46 ba 74 bf f7 b9 d3 b2 fd b9 2f 0f 01 ba
       -0.000759123 -0.00047254155 -0.00048389155 -0.0004923222
0000a0 60 6b d6 3b 5a f8 8f b0 8c db 28 bc 1d 17 3e 3a
       0.006543562 -1.0475205e-09 -0.01030625 0.0007251369
0000b0 50 8a 96 38 db 18 61 3a 86 05 f5 3a 51 1d 2b bc
       7.17832e-05 0.00085867726 0.0018693663 -0.010444001
0000c0 53 81 8d 38 64 82 58 38 48 e3 14 38 c2 db bd 37
       6.7474924e-05 5.161985e-05 3.5497622e-05 2.2632888e-05
0000d0 e9 ef 88 37 2c 45 c1 37 3a 23 fe 37 5c cd 40 39
       1.632418e-05 2.3039604e-05 3.0295563e-05 0.00018387049
0000e0 ae 63 30 39 00 3c 1c 39 b0 3c 26 39 64 e8 16 39
       0.00016821802 0.00014899671 0.00015853602 0.00014391687
0000f0 19 00 0e 39 1f 1a 86 39 6b a4 86 39 34 cc 70 39
       0.00013542212 0.00025577933 0.00025680973 0.00022964255
000100 38 21 89 39 93 4b 8c 39 3b 88 81 39 87 3e ae 39
       0.00026155426 0.00026759188 0.00024706297 0.00033234453
000110 91 bf a8 39 32 a7 9a 39 d9 0c bc 39 7e b1 c2 39
       0.00032186185 0.0002949774 0.00035867727 0.00037134805
000120 8a e5 b7 39 dd 35 a0 39 f2 d0 9c 39 05 1e 88 39
       0.000350755 0.0003055771 0.00029910315 0.00025962308
000130 e0 95 62 b7 21 8a 81 b7 14 0b 83 b7 d0 8a 1f 35
       -1.3505545e-05 -1.544232e-05 -1.5621576e-05 5.9434115e-07
000140 58 26 12 35 af db ba b6 3b c6 0d b7 84 07 15 b7
       5.4445036e-07 -5.5688065e-06 -8.450409e-06 -8.882842e-06
000150 8d 2c 1a b7 28 93 9b b6 6b 3e 9f b6 ae d6 a3 b6
       -9.189488e-06 -4.636491e-06 -4.7458357e-06 -4.8827706e-06
000160 f0 da 85 37 f0 5a 8c 30 2e 95 d7 b8 2c fe fd 37
       1.5956786e-05 1.0212187e-09 -0.00010279786 3.0278308e-05
000170 74 f9 d9 b6 f2 2e cf 37 d0 f0 2e b5 24 9e 10 39
       -6.496144e-06 2.4698184e-05 -6.517048e-07 0.00013791822
000180 b5 ed 48 bb 7c f9 61 bb 89 8f 73 bb 7e d2 7f bb
       -0.0030659263 -0.003448098 -0.003716441 -0.0039035375
000190 89 86 85 bb cd dd 8b bb 0d 83 93 bb b4 58 7d bb
       -0.0040748757 -0.004268384 -0.0045017065 -0.0038657608
0001a0 af 09 82 bb 72 dc 87 bb 43 2e 9d bb d1 e3 95 bb
       -0.0039684395 -0.004146152 -0.0047967746 -0.004574277
0001b0 5b 0f 92 bb ee 13 98 bb 54 73 91 bb a5 60 8e bb
       -0.004457397 -0.0046410477 -0.004438797 -0.004345017
0001c0 a9 26 98 bb 7a af 8f bb bf d6 89 bb a2 36 83 bb
       -0.0046432805 -0.004384932 -0.004206508 -0.0040043155
0001d0 2c 63 75 bb e0 3e 69 bb 96 7d 80 bb 07 40 79 bb
       -0.0037443144 -0.0035590455 -0.003921221 -0.0038032548
0001e0 ab 8c 75 bb b6 8f 69 bb 45 e2 69 bb c3 22 6c bb
       -0.0037467878 -0.0035638637 -0.0035687846 -0.0036031462
0001f0 7b 24 2e bb a9 50 2b bb 52 ae 2a bb ee 5b 88 ba
       -0.0026572037 -0.0026140606 -0.0026043844 -0.0010403374
000200 fc 34 8d ba 72 05 94 ba 70 40 03 ba 1d ca 06 ba
       -0.0010773237 -0.0011293127 -0.00050068554 -0.00051418116
000210 d2 c9 09 ba 67 a7 96 b9 36 9f 98 b9 c6 9b a0 b9
       -0.0005256209 -0.00028734954 -0.0002911032 -0.00030633638
000220 00 98 06 3c e2 b1 53 b0 6e 15 8d bc 83 40 33 3a
       0.008214951 -7.701414e-10 -0.017222133 0.0006837921
000230 c5 9c 8e 39 17 07 f4 39 01 f3 17 3b 15 ab 51 bc
       0.00027201153 0.0004654459 0.0023185613 -0.012797137
000240 18 2f 4d 3a 9e 65 bc 3a 88 55 f6 3a 4e be 03 3b
       0.0007827147 0.0014373546 0.0018793801 0.0020102444
000250 b4 c5 e7 3a de d4 c6 3a 8e c7 d2 3a 54 6d e4 3a
       0.0017682821 0.001516964 0.00160812 0.0017427602
000260 6f 6e f8 3a 61 6e 10 3b 23 10 21 3b 19 9f 29 3b
       0.001895381 0.0022038447 0.0024576269 0.0025882183
000270 21 67 3f 3b cb 4f 21 3b 9c ed 27 3b f1 4b 38 3b
       0.0029205757 0.002461421 0.0025623804 0.0028121436
000280 c4 af 38 3b ad 7a 3f 3b cb 1d 53 3b 20 4e 3d 3b
       0.0028180936 0.0029217408 0.0032213803 0.0028885677
000290 bb d2 43 3b 7b b9 54 3b 5e 13 34 3b 52 da 38 3b
       0.0029880244 0.0032459188 0.0027477364 0.00282063
0002a0 28 6b 48 3b b6 6f 36 3b e7 b4 3c 3b 57 f0 4d 3b
       0.0030581448 0.002783758 0.002879435 0.0031423771
0002b0 cf 3c 0e 3b ae 5c 0a 3b 7e fb 0b 3b a6 73 0e 3a
       0.0021703725 0.002111237 0.0021359618 0.0005434103
0002c0 91 2d 0a 3a 5e 79 28 3a 76 4d e9 38 be 52 ba 38
       0.0005271072 0.00064267765 0.00011124734 8.884583e-05
0002d0 82 ea db 38 bf 3b 46 b9 90 ac 2d b9 d5 8e 04 b9
       0.00010486414 -0.00018905009 -0.0001656285 -0.0001264171
0002e0 ff 26 77 bb 87 a3 ec b0 10 bf b6 3b 1e 25 02 3a
       -0.0037712452 -1.7217737e-09 0.0055769756 0.00049646373
0002f0 76 16 6d b9 42 e1 1a 39 87 8f 88 ba 9d 38 db 3b
       -0.00022610449 0.000147705 -0.0010418751 0.0066900984
000300 64 54 fa ba 93 5c ff ba 6b 89 fc ba 74 36 c8 ba
       -0.0019098637 -0.0019482545 -0.0019267028 -0.0015275017
000310 84 2c 92 ba 44 f4 8f ba 4d b1 b6 ba b0 28 a8 ba
       -0.0011152183 -0.0010982831 -0.0013938338 -0.0012829509
000320 b1 77 bb ba 6e 9f d6 ba 10 7c 06 bb 2a 6a 06 bb
       -0.0014302639 -0.0016374418 -0.0020520724 -0.0020510056
000330 6f 2d 00 bb 19 f4 90 ba d9 9b 90 ba 38 67 7f ba
       -0.001955833 -0.0011059075 -0.0011032774 -0.0009742859
000340 d6 52 74 ba 04 8f 83 ba 09 42 61 ba a4 7b 39 b9
       -0.0009320205 -0.0010037129 -0.0008592909 -0.00017689035
000350 e5 82 3d b9 1e 50 2d b9 42 8d 63 b9 ca 0b 64 b9
       -0.00018073207 -0.00016528412 -0.0002170103 -0.00021748166
000360 34 8f 66 b9 12 71 86 b9 97 ff 7e b9 b9 aa 6c b9
       -0.00021987857 -0.00025642716 -0.00024318542 -0.00022570313
000370 20 b0 a3 b8 a4 f0 9c b8 28 58 99 b8 56 a4 b9 b7
       -7.8052515e-05 -7.4834825e-05 -7.312029e-05 -2.2130243e-05
000380 e4 05 a1 b7 d7 13 89 b7 9c 69 13 36 c5 a6 36 36
       -1.9195439e-05 -1.6340911e-05 2.196618e-06 2.7217186e-06
000390 fb 9a 4b 36 94 ee d0 36 3e 05 c8 36 07 60 c8 36
       3.0339568e-06 6.226657e-06 5.9610747e-06 5.9716435e-06
0003a0 f5 3f 8d 3b 01 3d ae b0 89 e3 d3 bb 8b c3 0d 3a
       0.004310603 -1.2677505e-09 -0.0064663333 0.00054078613
0003b0 db 4a 88 b8 b9 72 86 3a f5 8a a9 3a 26 46 97 bb
       -6.498928e-05 0.0010257579 0.0012935089 -0.0046165166
0003c0 e6 14 84 3a cc 98 2e 3a fa b8 9b 39 98 14 d8 37
       0.0010077029 0.0006660342 0.00029701722 2.5758796e-05
0003d0 69 33 61 b9 b7 f7 c4 b9 2f df 18 ba 92 0b 8a ba
       -0.00021476824 -0.00037568595 -0.0005831597 -0.0010532013
0003e0 48 e4 a0 ba 3d 00 c2 ba c4 0f 8f ba 1b 70 8f ba
       -0.0012275064 -0.0014801096 -0.0010914733 -0.0010943444
0003f0 93 37 a2 ba fc 40 12 b9 4b d6 e8 b8 52 51 2b b9
       -0.0012376182 -0.00013947854 -0.00011102537 -0.00016338125
