lightning_logs/version_11/checkpoints/epoch=2-step=150.ckpt (torch, 704318 bytes, 45 tensors)

model.param_proj.proj.0.weight f4 [1, 49]
000000 59 8a 0e 3e 5f c0 00 be 98 82 56 3d 61 bf bd bd
       0.13919963 -0.12573384 0.052370638 -0.09265018
000010 2d e2 d7 bd 65 10 c4 bc 23 4f 94 3c a9 64 02 3e
       -0.105411865 -0.023933599 0.018104142 0.12733711
000020 fb b6 35 be d1 41 d5 bd 73 2e 20 be f8 99 35 3d
       -0.17745583 -0.10412944 -0.15642719 0.04433629
000030 fd 6b b7 3d cf 70 35 3e 58 57 32 3e 96 7c 92 3d
       0.08956144 0.17718814 0.17416131 0.07152669
000040 35 d7 82 3d ec 09 29 be ea f7 36 3e 2c fe bb bd
       0.06388704 -0.16507691 0.17868009 -0.09179339
000050 77 50 ed bd 18 da d3 bd 90 37 b9 bd 77 fe 97 3d
       -0.11587613 -0.103443325 -0.09043801 0.07421582
000060 a1 e4 03 be 26 d8 8c 3d f5 a5 10 b9 65 bb 04 3e
       -0.12880184 0.068771645 -0.00013794734 0.1296211
000070 17 1b 16 bd 0a 62 bd bd 08 ad 52 bb e0 93 17 be
       -0.03664693 -0.09247215 -0.0032146592 -0.14802504
000080 68 82 20 3d 9e 89 0e 3e ee bc e2 bd 87 0f 2b be
       0.039186865 0.13919684 -0.11071192 -0.16705142
000090 bf b5 a2 bc b4 12 86 3d d5 a8 24 3e aa 79 00 3e
       -0.019862054 0.06546536 0.1608003 0.12546411
0000a0 c9 50 24 be f9 c1 8b bd fe ff 32 be 6d 45 d3 bd
       -0.16046442 -0.06824107 -0.17480466 -0.10315976
0000b0 65 ef 3f be 3b 91 5d 3d 25 5d d8 3d 21 de 0e 3b
       -0.18743666 0.05409358 0.10564641 0.002179988
0000c0 ee 27 80 3b
       0.00391101

model.param_proj.proj.1.weight f4 [1, 49]
000000 43 d1 25 be 5f 69 82 3c 36 99 51 3d 67 d8 bc bc
       -0.16193108 0.015919385 0.051171504 -0.023052407
000010 b9 7a 65 bd 7d 89 52 3d 9f 0b 29 be c2 0f 50 3d
       -0.05602524 0.05140065 -0.1650834 0.050796278
000020 e5 e8 00 be 84 6f fc bd 9e 48 72 3d 06 8f 0d be
       -0.12588842 -0.123259574 0.059151284 -0.1382409
000030 56 9d a2 3d e8 a7 a7 bd ef 38 db bd c2 c0 9e 3b
       0.07940166 -0.081863225 -0.107042186 0.004844756
000040 06 50 a5 3c 68 f1 39 3d 20 d4 fa bc 2e ec e5 bc
       0.02017976 0.04539624 -0.030618727 -0.02806672
000050 91 fc 29 bd 82 35 28 3e 4f 3d 1e 3e 5b 2f 26 be
       -0.04150063 0.16426662 0.15453075 -0.16229002
000060 04 01 d3 bd 5a 83 a7 3d 3c 4f 7e 3d dc 8b b6 bd
       -0.10302928 0.0817935 0.062087283 -0.08913395
000070 e4 da 26 3c ef f0 d3 3d af 8d c3 3d 04 83 0e be
       0.0101840235 0.10348689 0.095485084 -0.13917166
000080 46 61 0f 3e f8 5f fc bc d0 df a9 3d 26 22 6b bd
       0.1400195 -0.03080748 0.08294642 -0.057405613
000090 07 fd fd 3d 94 53 e3 3d ff 6c ae 3d ae 22 6f 3d
       0.12401777 0.11099926 0.08516883 0.058382683
0000a0 3b ae 79 bd cc c7 c3 3b a1 11 17 3c b1 61 98 bd
       -0.060957175 0.0059747454 0.009220512 -0.07440508
0000b0 0e 4d 8d 3b d5 c1 1b be 19 2d c5 bd a3 1e 61 bd
       0.004312164 -0.1521066 -0.09627742 -0.054960858
0000c0 24 26 2d be
       -0.1690908

model.param_proj.proj.2.weight f4 [1, 49]
000000 8d 0c 59 3e c9 cb 22 be dd 8a 3c be e2 c4 c5 bd
       0.21196194 -0.1589805 -0.18412347 -0.09656693
000010 54 bc e8 bd 73 1f 32 3e b1 2d e8 bd 59 b3 ce 3d
       -0.11364046 0.1739481 -0.1133684 0.100928016
000020 31 70 41 3e e6 ce b6 3d 76 5b 2e be fb dc 8d bd
       0.18890454 0.089261815 -0.17027077 -0.06926914
000030 f0 b9 05 3e e4 c5 ab 3d 2a 63 0b 3e b7 0c 00 3e
       0.13059211 0.08387354 0.13612047 0.1250485
000040 98 54 a8 3d 13 fe 12 be 46 c6 05 be 93 77 17 be
       0.0821926 -0.14354734 -0.13063917 -0.14791708
000050 68 e2 29 be 17 44 06 3d 63 f9 e6 3d 86 16 19 3e
       -0.16590273 0.03277978 0.112780355 0.14949998
000060 60 73 20 3e 6f a6 23 3e 78 96 de 3d ab e5 54 be
       0.15669012 0.15981458 0.108685434 -0.20790736
000070 9b f5 1f 3e d7 fd cb 3d 4f 12 9c bd 3a ea 5c 3e
       0.15621035 0.099605255 -0.076206796 0.21573725
000080 a7 5c 47 3e d1 b3 4c be bd 4a 3f 3e 4d 94 0d 3e
       0.19468938 -0.1999047 0.18680854 0.13826104
000090 ba aa 0e 3e ac fb ab 3d 89 02 a0 bd eb 84 48 bd
       0.13932315 0.08397612 -0.078129835 -0.048954885
0000a0 d0 b5 e1 bd ac aa 2c 3e 56 8c 9a 3d 8c d1 21 3c
       -0.11021006 0.16861981 0.07546298 0.00987662
0000b0 c8 de eb bd 30 58 e0 3d 9c 8b d8 bd 80 f9 e1 bc
       -0.115171015 0.109543204 -0.105735034 -0.027584791
0000c0 d1 8d 42 be
       -0.18999411

model.rnn.weight_ih_l0 f4 [196, 37]
000000 cb 47 d1 bd ab db 5e bd f0 e4 c2 3d 61 5a ca bd
       -0.102187715 -0.05440871 0.095163226 -0.0988052
000010 e9 93 bc bd 2c 4b cc 3d 85 75 d5 3c bd 46 c6 bd
       -0.09207899 0.099752754 0.026057014 -0.09681461
000020 ed 11 8c bc 27 05 3a 3d d0 7b 09 be 38 cf 6c bc
       -0.017098391 0.04541507 -0.13426137 -0.014453702
000030 3e 8e b7 3d 89 67 0d be e6 9d 2f 3d 3f 95 dd 3c
       0.089626774 -0.13809027 0.042875193 0.027048705
000040 41 1d b5 bd 44 73 a4 3c 9d 24 d2 bd 01 6c 7f 3d
       -0.0884347 0.020074494 -0.1026089 0.06235886
000050 1f 6c f9 bd 6f 44 bf bd 7f 9d 37 3d 3b 73 dc bb
       -0.121788256 -0.093392245 0.044827934 -0.0067276037
000060 2c 7e 12 be a8 eb e2 3d 58 b3 2e be 1b 74 05 bd
       -0.14305943 0.11080104 -0.17060602 -0.03258143
000070 f1 bc be 3c dd e8 0a be 5a d7 10 be 5a 0b 14 bd
       0.023283454 -0.13565393 -0.1414465 -0.03614364
000080 93 34 e7 bd 60 18 e6 bb a6 0d 32 bb b2 64 f5 bd
       -0.112893246 -0.0070219487 -0.002716878 -0.11982097
000090 6f 7a b9 bc 49 d8 27 3e d0 42 99 3d be e8 5d 3d
       -0.022641389 0.163911 0.074834466 0.05417704
0000a0 6b 0c b4 bc 4f ad 3c 3d 89 d1 9d 3d 66 29 93 bb
       -0.021978578 0.046063717 0.07705981 -0.004491019
0000b0 c3 56 2a bd 06 9e 88 3d c0 70 ad bd 5f b0 34 3d
       -0.04158665 0.066707656 -0.08468771 0.044113513
0000c0 a4 3d a0 3c 40 73 96 3d c1 26 18 3e 1e 1e bb bb
       0.019560643 0.07346201 0.14858533 -0.0057103774
0000d0 e3 94 78 bd 26 95 11 3e 33 23 bf bd 73 56 61 bd
       -0.060688864 0.14217052 -0.093328856 -0.055014085
0000e0 91 7a e1 bd 76 a7 13 3e 80 75 d2 3d 9e 4c 90 3d
       -0.11009706 0.1441935 0.102763176 0.070458636
0000f0 9c 18 63 3c d0 7b d4 bd aa c7 d8 bd 62 b0 e4 bd
       0.013860848 -0.10375178 -0.10584958 -0.11166455
000100 e2 8b 1f 3e 0b 1a a7 3c 6f 90 49 bc b7 7c b8 3d
       0.15580705 0.02039816 -0.012302502 0.090081625
000110 08 62 60 3d b5 c3 0a be a3 b6 c9 3d 02 a4 c1 bc
       0.05478099 -0.13551219 0.09849288 -0.023637775
000120 0b 48 aa 3d b8 02 28 3e 93 c5 01 3d 4a a5 62 3d
       0.08314522 0.16407287 0.031682562 0.055333413
000130 2a 7e 08 3d 2b 15 0e 3e e9 b9 da 3d 43 c5 1b 3e
       0.033323444 0.13875262 0.10679991 0.15211968
000140 f1 a6 27 3d 70 27 b5 bc a2 35 57 3c 8f 06 47 bc
       0.040930692 -0.022113532 0.013135346 -0.01214756
000150 38 1d ff bd 50 05 71 bd 15 6c d7 3c 4e 76 e6 3d
       -0.12456745 -0.058842957 0.026296655 0.112530336
000160 6d ba 22 3e 06 be 31 bd fa 72 4d 3d 96 2b f7 bc
       0.15891428 -0.04339411 0.05015848 -0.03017215
000170 4e 7d 91 3d 8f ea 2f 3c dc 36 85 3c 97 2c 89 bc
       0.07103978 0.0107370755 0.01626151 -0.016744895
000180 1c c2 a1 bd 3c cf be 3d 28 57 1b 3e e8 d4 bd bc
       -0.078983516 0.093168706 0.15169966 -0.02317281
000190 26 bc 2b bd 19 f4 c1 3c 12 8d 7d bc 46 c0 51 3d
       -0.04192748 0.023675965 -0.015475528 0.051208757
0001a0 72 33 dc 3d df 51 45 3c 4c 06 20 3e 9e bb da bc
       0.10752 0.012043445 0.15627402 -0.026700791
0001b0 d4 51 9c bc 68 1d b4 bd a6 55 57 3d e7 c5 65 bd
       -0.019081987 -0.08794671 0.052571915 -0.056096938
0001c0 ed e7 55 bd 64 be 05 be 08 0e e5 3b e5 c6 df 3c
       -0.052223135 -0.1306091 0.006990198 0.02731652
0001d0 0c cd 03 3e 6d eb 5d 3d 6a 32 b0 bd b0 19 b2 b9
       0.12871188 0.054179598 -0.08603366 -0.00033969944
0001e0 45 c8 cb 3d 1f a7 c4 bd a9 59 ba bd 54 d5 f9 3d
       0.09950308 -0.09602188 -0.090991326 0.12198892
0001f0 50 5e cf 3d 55 bb 93 bc dc f4 52 bd b4 d4 a1 3d
       0.101254106 -0.018033663 -0.051503047 0.07901898
000200 55 0b a1 bd 35 66 d1 bd 49 8e b3 3d 95 7b 86 bb
       -0.078634895 -0.102245726 0.08767373 -0.0041040876
000210 46 e3 9c 3d fa 79 40 bd 07 a6 1a be 76 1f 99 bb
       0.076605365 -0.046991326 -0.15102397 -0.00467294
000220 2f 8b ff 3d 65 c9 20 be 9e 03 d9 3d 42 14 82 3d
       0.12477719 -0.15701826 0.10596393 0.0635152
000230 f6 7d 91 3d 2a c7 82 bd ea 67 ce 3d 00 44 ac 3c
       0.07104103 -0.06385644 0.10078414 0.021028519
000240 06 32 46 bd 3d 66 e0 3c 3a db f7 3d cc 5d 9c bd
       -0.04838755 0.027392501 0.12102361 -0.07635078
000250 26 9f c7 3b f7 80 83 bc a7 7e 8c bd 49 4c d5 bd
       0.00609197 -0.016052706 -0.068600945 -0.10414941
000260 55 15 91 3d 8e a2 26 3e 43 95 9f bc 3f e0 7e bd
       0.07084147 0.16272947 -0.019480353 -0.062225576
000270 2d c6 0f 3e c0 97 90 3d 9b 1d 1b 3c 57 55 75 3d
       0.14040442 0.07060194 0.009467508 0.05989584
000280 71 f0 24 bc 8a fb 7c bd e5 90 4f 3d 9e 3e 87 bc
       -0.010067091 -0.061763324 0.05067529 -0.01650935
000290 c8 98 91 bc a5 ff c4 3c 7a f7 ed bd 8f e4 e1 3d
       -0.017773047 0.024047682 -0.11619468 0.11029922
0002a0 df ac 5b bc 46 60 93 3d 4c 4e 08 3e fb e4 7a bd
       -0.013407915 0.07196097 0.13311118 -0.06125353
0002b0 ec f1 fb 3d d2 72 a8 3d c7 e1 92 ba 8b 96 41 bd
       0.12302002 0.08225025 -0.0011206203 -0.04726271
0002c0 ec 8c 60 bd 84 cf 05 3e 47 4f 7c 3d 3c a8 22 bd
       -0.054821894 0.13067442 0.061599042 -0.039711222
0002d0 97 06 f3 3d 5f fa 08 be 6c b2 18 be b4 c4 97 3c
       0.11866491 -0.13376759 -0.14911813 0.018526413
0002e0 e4 1d c7 3d f3 83 9e bd 95 c5 ae 3d c7 85 02 bd
       0.09722498 -0.07740011 0.085337795 -0.03186586
0002f0 ed 94 99 3d a4 4a ee bd dd 18 d8 bd de de dd bd
       0.074991085 -0.1163533 -0.10551617 -0.10833524
000300 f8 f2 85 3c a5 d4 bf 3d c8 41 ae 3d 72 ab 16 3e
       0.016351208 0.093667306 0.085086405 0.14713839
000310 8d 6d b8 bd dc 9a 02 3d 0c 5e 5f 3d 36 03 bd 3d
       -0.0900527 0.031885967 0.05453305 0.09229128
000320 40 01 a0 3c 51 13 8d bc dd c8 1d 3d 83 9f d5 3d
       0.019531846 -0.017221125 0.038521636 0.10430815
000330 76 d7 fc 3d 93 4e d4 3d 7c 08 90 bd 88 87 a9 3d
       0.123457834 0.10366549 -0.07032868 0.08277804
000340 06 ec 11 bd af 48 08 3d 9e 5b 04 be f5 ef 6c bd
       -0.03562548 0.03327244 -0.12925574 -0.05784603
000350 5c 8b a9 bc 67 8f c6 3d 3b 3e 56 bd 12 99 d0 bd
       -0.020696335 0.096953206 -0.05230544 -0.10185446
000360 7f 7a fe bd 35 93 ff 3d ca a7 a2 bd 59 1d 85 3c
       -0.12425708 0.124792494 -0.079421595 0.016249346
000370 57 51 06 3e 06 cb f8 bb 99 09 56 3d dc b0 5e 3d
       0.13116966 -0.0075925617 0.052255247 0.054367885
000380 7a f4 ac bc 16 d2 99 3d a9 01 65 3d b6 61 21 bd
       -0.02111267 0.07510774 0.055909786 -0.039399825
000390 ed d7 3d bd 83 e6 92 3d bf ff cf bd 6a 60 b0 3d
       -0.0463485 0.07172873 -0.101562016 0.086121395
0003a0 93 82 51 bd 70 41 39 3d af 97 e8 3d 95 41 f7 3d
       -0.051149916 0.04522842 0.11357056 0.12073056
0003b0 18 0f a9 bd ad af cf 3d ab 69 cd bd 0d f1 ad bd
       -0.08254832 0.10140929 -0.1002992 -0.084932424
0003c0 d2 85 a5 3d 5b 98 cd 3d c3 f5 d9 bc 10 fa 87 3d
       0.08082165 0.10038825 -0.026606446 0.066394925
0003d0 34 6c 81 bc 0f b8 c3 3d 02 0f 75 bd d9 01 ed 3d
       -0.015798666 0.09556591 -0.059828766 0.11572618
0003e0 85 d9 7d bd a9 1e fd 3d 93 81 0c 3d 92 d2 0c bd
       -0.06197502 0.123593636 0.03430326 -0.034380503
0003f0 f7 5b ae bc 2f ed bd bc 2a 66 8d 3d 3c 95 f3 3d
       -0.021284087 -0.023184387 0.06904252 0.118936986

model.rnn.weight_hh_l0 f4 [196, 49]
000000 26 83 26 3d e9 4d 03 bc 0d b3 9e bc 02 51 82 bd
       0.040652417 -0.008014181 -0.019372487 -0.06363107
000010 91 6f 26 bd 86 36 17 be b7 c0 13 3e c5 74 e9 3d
       -0.04063374 -0.14766893 0.14428984 0.11399225
000020 69 e3 e3 bd b7 56 01 3e 74 a6 c6 bd ff 8e aa 3d
       -0.111273594 0.12630735 -0.09699717 0.083280556
000030 52 b0 6d bd 27 1a 9e 3c 9d 56 3b 3c 09 d1 a8 3d
       -0.05802948 0.01929958 0.011434224 0.08242995
000040 fd 1c 37 bd 3b 2e c9 bd 8a 37 7c bd d8 e8 2a be
       -0.04470538 -0.09823271 -0.061576404 -0.16690385
000050 08 31 05 3c ba a2 bf 3d eb 33 9c ba e1 f8 02 be
       0.008129366 0.093572095 -0.0011917328 -0.12790252
000060 49 99 df 3d e2 4c 97 3c 8c ef bf 3b 15 38 21 3e
       0.10917909 0.018469278 0.0058574136 0.1574405
000070 18 e8 b7 bd ad f8 b4 3c e9 e7 89 3d d1 4a ce 3d
       -0.08979815 0.022091234 0.067336865 0.10072864
000080 36 2b af bd 16 37 bf 3d 36 57 87 3c b6 52 1a 3e
       -0.08553164 0.09336679 0.016521078 0.15070614
000090 31 42 b0 3d 2f 99 71 bd 33 0e c0 3d 6a 0a 0a 3e
       0.08606375 -0.058983978 0.09377708 0.13480535
0000a0 62 7d 47 bd b1 58 4f bb ac 43 13 bd 55 b1 c1 bd
       -0.04870356 -0.0031638558 -0.03595321 -0.094576515
0000b0 d6 fb bd 3d eb b9 05 be 11 b5 05 3d 20 e7 16 3b
       0.092765495 -0.13059203 0.03264338 0.0023025945
0000c0 1f 35 22 3e e2 76 ae 39 c6 08 9b 3d 3d ed 12 bd
       0.15840577 0.0003327644 0.07570033 -0.03587078
0000d0 11 8a 60 3c a2 98 b1 3d 4e 09 10 bc aa 6b 82 bc
       0.013704793 0.086716905 -0.008791281 -0.015920479
0000e0 56 5b c8 3d 94 ad 33 bd 12 22 3f 3d 22 dd 1c be
       0.09783046 -0.04386671 0.04666335 -0.1531873
0000f0 86 45 fc bd 14 48 9b 3d 66 84 01 bc 2b 77 91 3d
       -0.12317948 0.07582107 -0.007905101 0.071028076
000100 88 f6 38 bd cb 33 90 bd 2b 44 02 bc 9f 6b 84 bd
       -0.045156986 -0.07041129 -0.007950823 -0.064658396
000110 7d 4c 08 3e f9 03 a8 bd 38 49 43 bc aa 47 e3 bd
       0.13310428 -0.08203883 -0.011919312 -0.11097653
000120 ae dc 49 bd e5 97 c6 3c 43 4e ea bd cf 81 db 3c
       -0.049282722 0.02424235 -0.114407085 0.026795296
000130 58 c8 02 be a5 f3 b8 bd 20 19 fd 3d 8b 55 ca bd
       -0.12771738 -0.090308465 0.12358308 -0.09879597
000140 27 1e 02 3e 2d ac 08 3e 4b 11 de 3d 5f 8f 04 bc
       0.12706815 0.1334693 0.10843142 -0.008090823
000150 9d 45 96 3c 7c 81 2c 3d be 3f 49 bc 4e 8e a6 3c
       0.018343741 0.042115673 -0.012283264 0.020331528
000160 bd 7a 87 bd a1 9e e6 bd 13 97 e4 3c cb 1b b1 bd
       -0.06615207 -0.11260725 0.027904069 -0.08647879
000170 aa b9 89 bb 14 22 19 be 9e 1b 2c 3e 90 0c 86 bd
       -0.004203041 -0.14954406 0.1680741 -0.06545365
000180 a3 79 89 3c 47 d0 27 3d b8 ea 5d 3d 20 b0 d1 3d
       0.016781634 0.040970113 0.054178923 0.10238671
000190 2b 92 eb bd 71 9a a4 3d 54 d3 21 3d 0c 99 25 3d
       -0.11502489 0.0803727 0.03950818 0.04042916
0001a0 8d 25 0c 3b a9 d8 f1 3d dd 3d a3 3d 91 dc f5 3d
       0.0021384687 0.11808903 0.07970784 0.1200496
0001b0 76 e5 93 3c 6b f0 2d bd 83 74 95 3d b9 dc 82 bd
       0.018053751 -0.04246561 0.072976135 -0.06389756
0001c0 aa c8 6a bd db e2 24 bd ef cd 64 3d 6f 9b 8c 3c
       -0.057320274 -0.04025541 0.055860456 0.01716396
0001d0 4c 0d 7d 3d c7 dc 1e 3e 41 28 42 bd d1 87 80 bd
       0.06178026 0.15513907 -0.04740167 -0.06275905
0001e0 92 e4 85 3d d5 47 20 bd 88 3a 32 3b ce 3b 80 bd
       0.06537737 -0.039131004 0.0027195532 -0.06261407
0001f0 30 75 87 3d b3 62 6c 3d d4 0d 8a bd 0e 35 b6 3d
       0.066141486 0.057711314 -0.06740919 0.08896838
000200 2c 38 3e 3d 0f b4 c0 bd d6 e3 73 bc 5a 99 34 bd
       0.04644029 -0.094093435 -0.014885863 -0.04409156
000210 c8 15 84 3d 66 10 83 bd bf 86 48 3d 1b ff f5 bd
       0.06449467 -0.06399612 0.04895663 -0.12011548
000220 fd 6d b5 bd c0 87 d1 bc 88 c8 90 3d 92 5c ec 3d
       -0.08858869 -0.025577426 0.07069498 0.11541094
000230 9d 06 19 3e 94 dd 0a 3d 60 e5 e5 3d 25 7b e8 bd
       0.14943929 0.03390272 0.112253904 -0.11351613
000240 b9 b4 04 bc 3d 78 f1 bd ba 38 13 bd b1 fa cc 3d
       -0.008099728 -0.11790512 -0.03594277 0.10008753
000250 fa 10 8b bd bd e6 43 3c f1 98 2e 3c 61 c7 a9 3d
       -0.067903474 0.011956868 0.010656581 0.08289982
000260 56 e4 67 3d cb fd 97 bc af 0b cc 3c 12 3c 2b be
       0.056614242 -0.018553635 0.024907915 -0.16722134
000270 d9 ba a1 bc 8c c1 ce bd f8 a0 1b 3e ca 7e e5 3c
       -0.019742416 -0.1009551 0.15198123 0.02801456
000280 bd b3 fe bc a2 2f 6d bd b6 28 bc bd 47 50 01 be
       -0.031091565 -0.057906754 -0.091874525 -0.1262828
000290 fb 57 9a bb d3 2a bf 3d 05 9d 8e bd d4 83 c1 39
       -0.004710195 0.0933434 -0.06963543 0.00036910048
0002a0 8e c0 01 3e 84 14 11 3e 9d a0 07 be 7a cf c7 3d
       0.1267111 0.14167982 -0.13244863 0.0975637
0002b0 56 56 5f bd 63 80 94 bd 53 f2 6d 3d 0e 1c 5a 3d
       -0.054525696 -0.0725105 0.058092427 0.05324941
0002c0 ea f7 99 3d 28 c5 d2 bc 48 da 90 bd 7e 78 a5 bd
       0.07517989 -0.025728777 -0.07072884 -0.08079623
0002d0 90 fa 4b bd a6 0c 2f 3d aa ad fb 3c b9 4c 37 bd
       -0.049799502 0.042736672 0.030722458 -0.044750903
0002e0 75 be 0b be cc 75 eb bc fd 17 01 3e 12 87 dd 3d
       -0.13646872 -0.028742693 0.12606807 0.10816778
0002f0 8e 83 80 3d 16 d4 e3 bc f2 d4 45 3d bb 75 1c 3e
       0.06275092 -0.027811091 0.048298784 0.15279286
000300 87 64 a1 3d 9b 87 23 3c 66 73 9f bd 6e 00 ac 3d
       0.07880502 0.009981061 -0.077856824 0.083985195
000310 69 b8 3d bd 77 0c 03 be 2e ed 06 3e e3 25 99 bd
       -0.046318445 -0.12797724 0.13176414 -0.074779294
000320 6e b1 fe bd 2c 77 59 bd a9 f3 89 3d 1c 8b 0b be
       -0.12436186 -0.053092167 0.067359276 -0.13627285
000330 25 2c f5 bd 72 8c c5 3d 70 df a7 3d ec 2f bd bd
       -0.119713105 0.096459284 0.08196914 -0.09237656
000340 8c b1 cf 3d 3f 31 05 be bb ee 2d 3e 50 5f dc bd
       0.10141286 -0.13007067 0.169856 -0.10760367
000350 ae e8 95 3d 28 68 01 be 87 9f 48 bd ff 6a 85 bd
       0.07319771 -0.12637389 -0.048980262 -0.065145485
000360 a0 4f 8f 3d 4c 7a b1 3d 29 1c 57 bc e5 59 06 bd
       0.06997609 0.086659044 -0.0131292725 -0.032800574
000370 fd f9 a5 bd ce f1 84 3c 09 13 cd bd ee 11 8f 3d
       -0.08104322 0.016228583 -0.10013396 0.06985842
000380 a0 5b d5 3d bc bf f5 bd 6f 60 bd 3d 60 a2 0d 3e
       0.10417867 -0.11999461 0.09246909 0.13831472
000390 2b ea d5 3c d5 36 69 3d 1b b8 5e bd 51 96 92 bc
       0.026112637 0.056937058 -0.054374795 -0.017893942
0003a0 35 13 79 bd e0 7e 84 bd 14 f4 07 3e 36 9b e3 3d
       -0.060809333 -0.06469512 0.13276702 0.111135885
0003b0 e4 b8 70 3d f6 99 3a 3d 05 85 01 3c d2 e4 13 be
       0.058770075 0.045556985 0.0079052495 -0.14442757
0003c0 c6 54 8f 3d 25 89 09 3e 47 27 27 bd bf 05 85 3d
       0.06998591 0.13431223 -0.040808942 0.064952366
0003d0 81 e8 21 3c f3 90 ce 3d 2c b2 24 3e 16 98 f3 3d
       0.009882093 0.100862406 0.16083592 0.118942425
0003e0 7f 66 92 3d f7 9b 95 3d 69 03 bc bd 64 8e b0 bd
       0.07148456 0.073051386 -0.09180338 -0.08620909
0003f0 b6 ed 0c bd d8 10 8e bd db d6 71 3d bc 07 99 bd
       -0.034406386 -0.069368064 0.059042793 -0.07472178

model.rnn.bias_ih_l0 f4 [196]
000000 d6 1e c1 bd 70 9f 95 3d b4 10 b4 bd af a7 0d bd
       -0.094297096 0.07305801 -0.08792248 -0.034583744
000010 ae 91 1f bd 85 01 fe 3c 90 7d 02 3e 4a be ac 3d
       -0.03895729 0.031006584 0.12743211 0.08434732
000020 4e 51 71 bd 81 be 4b 3d b2 42 8d bc 24 75 73 3d
       -0.05891543 0.049742226 -0.017243717 0.059437886
000030 78 18 72 bd 05 95 82 bd d0 b1 ce 3d 8e 37 6b 3d
       -0.059105366 -0.063760795 0.10092509 0.057426028
000040 57 d9 11 3d e8 77 c3 bc ca f9 a1 bd 4a 8b 83 3d
       0.035607662 -0.023860887 -0.079089716 0.06423052
000050 6e d7 61 bd aa 03 ce bd f8 3c b4 3d 68 5b e7 3b
       -0.05513709 -0.100592926 0.08800691 0.007060457
000060 9e 25 f2 bd 29 26 24 3e 44 03 92 3d 3b d5 23 3e
       -0.11823581 0.16030182 0.07129529 0.1599931
000070 74 e1 7b bd 77 94 03 3e 2d ea 2c 3e b3 07 25 3e
       -0.061494306 0.12849604 0.16886206 0.16116218
000080 c7 f6 b2 bd 6a e6 c5 bd 5c d8 00 bc 15 28 df 3c
       -0.08738475 -0.096630886 -0.007864084 0.027240792
000090 42 c3 81 3c 2d 2e 1c bd 28 58 bc 3d 5c 90 0a 3e
       0.015840176 -0.038129974 0.09196502 0.13531631
0000a0 c1 4c 91 bd 57 ab bf bd 29 85 e5 3d 10 43 b4 3d
       -0.07094718 -0.09358852 0.11207039 0.08801854
0000b0 16 40 2b 3e fe 78 84 3c b3 96 5e 3d 6d f9 d3 3d
       0.16723666 0.016170975 0.054342937 0.103503086
0000c0 79 82 ef 3a be ed e7 bd 20 24 df 3d 4e 9f 09 3e
       0.0018273137 -0.113246426 0.10895562 0.13439676
0000d0 f1 ae 1f bd 99 9f 45 3d ac 27 e6 bd 39 f9 bc 3c
       -0.038985197 0.048247907 -0.112380356 0.023068057
0000e0 87 ad 26 3e 13 2b cc bd 75 b3 de 3d a9 94 03 bd
       0.16277133 -0.09969153 0.108740725 -0.032124195
0000f0 ad 0a 50 3d bd b3 35 ba 26 ce db 3d 74 17 2f 3e
       0.05079143 -0.0006931385 0.10732679 0.1709879
000100 6f 1e b9 3d 1c df 20 be 6b 84 32 3e 32 5b 5e 3d
       0.09039008 -0.1571011 0.17433326 0.05428619
000110 99 06 85 3b 3f 0d f1 3c 94 2a 91 3c 7f bf a2 3d
       0.0040596244 0.029425262 0.017720498 0.07946681
000120 16 9e 34 3e e3 77 c3 bd 7a c9 d9 3d 7f 1d cc 3d
       0.1763843 -0.09544351 0.10634132 0.099665634
000130 d6 00 a6 3d c2 f3 d2 bd 06 4b 00 be 3d bb 3e 3e
       0.08105628 -0.10300399 -0.12528619 0.18626113
000140 49 21 c7 3d 3f 07 1d 3e 03 29 96 bd e7 57 50 bc
       0.097231455 0.15334795 -0.07332041 -0.01271627
000150 90 35 02 3c 61 60 f7 3d 1d 90 8c 3c dd 6f a8 bd
       0.007947341 0.1207893 0.017158562 -0.08224461
000160 cb d8 bb 3d 8a 9e cb 3d 4f 27 27 3e e0 ab bd bd
       0.09172209 0.09942348 0.16323589 -0.09261298
000170 a5 56 e7 3c 8d d4 83 bd 0f 16 02 be e6 23 5c 3d
       0.028239558 -0.06437025 -0.12703727 0.053745173
000180 4b 2c 45 bd 75 0e 1e 3e af e3 7a 3d af 09 06 3e
       -0.048137944 0.15435202 0.061252292 0.13089631
000190 13 38 f3 3b 80 d8 95 ba ec 98 93 bd 23 42 03 be
       0.007422456 -0.001143232 -0.07206902 -0.12818198
0001a0 60 48 db bd 9d c5 8b 3d 30 26 97 bd 08 4d 7f 3b
       -0.10707164 0.06824801 -0.073803306 0.0038955826
0001b0 54 0f 19 3c 03 c9 19 3b 63 62 ec 3d 1d b3 18 bd
       0.009342033 0.002346576 0.11542203 -0.03728019
0001c0 0c 8f 73 bc 7e ab 41 bd 59 c3 8d bc 12 29 bb bc
       -0.014865648 -0.04728269 -0.017305063 -0.022846732
0001d0 fa 23 a4 bd 9d b2 6b 3d b3 22 0a 3e 1f 18 0f 3d
       -0.080146745 0.057543386 0.13489799 0.034935113
0001e0 e0 f0 29 be 34 eb 09 3e e0 4a ff 3a 2f 58 ce bd
       -0.16595793 0.13468629 0.001947727 -0.100754134
0001f0 51 e4 d2 3d 57 95 14 be ad 04 c9 3c 05 4b c7 bd
       0.10297454 -0.14510094 0.024538362 -0.09731106
000200 da 53 49 3d 4f a6 1c 3e fc b7 e7 bc c2 12 81 3d
       0.049152233 0.15297817 -0.028285973 0.06302406
000210 d6 de aa 3c 63 cb 17 3d 51 9b d4 bc 5d 0e f8 bd
       0.02085821 0.0370592 -0.025952967 -0.121121146
000220 70 1e 20 be 3a 2c 3a 3d e8 09 8e 3d 6c fa 2f 3e
       -0.15636611 0.045452334 0.06935483 0.17185372
000230 bb 86 b8 3c 5b 8a 10 3e 09 9a 84 bc 85 8a 38 bd
       0.022525182 0.14115278 -0.016186731 -0.045053978
000240 33 af 2b bd 17 66 91 bd 5e 6c 97 3d 19 56 08 3d
       -0.04191513 -0.0709955 0.07393716 0.033285234
000250 70 5e 86 3a e5 5f 83 bd d6 5f 14 3e dd d0 9d 3d
       0.0010251533 -0.06414775 0.14489684 0.07705853
000260 30 21 bb 3d 31 32 6e bc 31 52 37 3e 93 2f 50 bd
       0.091371894 -0.014538334 0.17902447 -0.05082662
000270 d0 23 a1 3d 54 1c e2 3d c1 f0 17 3e 78 be 07 3e
       0.07868159 0.110405594 0.14837934 0.13256252
000280 60 6b af bd 90 dc 21 3e 64 25 98 bd 27 4b 8d bd
       -0.08565402 0.15806794 -0.07429007 -0.068991
000290 a1 66 4d bc 22 97 0f 3e c8 0c 47 bd 91 66 4a 3b
       -0.012536676 0.14022496 -0.048596174 0.0030883888
0002a0 91 03 9d bd 95 71 43 3d cd 01 85 bc e0 fa 66 3d
       -0.07666696 0.047715742 -0.01623621 0.056391597
0002b0 4e 62 9c 3c 53 a5 56 bd 8c 17 b1 bd da b5 fb bd
       0.019089844 -0.05240376 -0.08647069 -0.12290545
0002c0 e5 a9 b5 3d cb 20 03 3d bb 22 b1 3c 0e 53 52 3c
       0.088702954 0.032013696 0.021623006 0.012837185
0002d0 99 23 20 bc 83 45 de 3c cf 5f b6 3d 14 2c 0b 3d
       -0.009774112 0.027132755 0.08904993 0.033977583
0002e0 90 3c ab 3b a3 49 e4 bc 0b 29 5d 3d 04 2f 1d 3e
       0.0052257255 -0.027867144 0.05399422 0.15349966
0002f0 c9 33 ce bd 51 a5 89 bd 08 49 89 3a 86 92 aa bd
       -0.10068471 -0.06720985 0.0010474036 -0.083287284
000300 d6 88 d8 bd 27 5a 0d bd 6b b7 76 bd 1b c1 cc 3d
       -0.105729744 -0.034509804 -0.060233515 0.099977694

model.rnn.bias_hh_l0 f4 [196]
000000 27 17 bb 3d 9f 3d a9 3d a5 9d d5 bd 91 4a 2e 3c
       0.09135275 0.082637064 -0.10430459 0.010637895
000010 ae 49 88 3d 74 ca a4 bd c8 34 1e bd af 20 a0 bd
       0.06654678 -0.08046427 -0.038624555 -0.07818734
000020 64 5b cb 3d 06 cb ed 3c 08 a3 d4 bd 9d 3d 0d 3e
       0.09929541 0.029027473 -0.10382658 0.13793035
000030 f6 26 82 3c c8 c7 0f 3d 15 ff e9 3d 07 1b 7c 3b
       0.015887719 0.035102636 0.11425606 0.0038468258
000040 60 a6 95 3d 65 4a 22 bc 4c 97 65 3d 9a 41 b5 bd
       0.07307124 -0.009905432 0.05605249 -0.08850403
000050 10 92 ea 3d a0 47 77 3d 9b 15 cf 3c b4 d3 95 3d
       0.114536405 0.06037104 0.025278857 0.0731577
000060 6f 4f 93 bd b8 f0 1a 3e 34 e8 b8 3d 3a 5d 98 bd
       -0.07192885 0.1513089 0.09028664 -0.074396566
000070 da 96 b0 3d 89 51 19 bd fa ac 87 bd d1 03 0b bd
       0.08622523 -0.037431274 -0.066247895 -0.033939186
000080 d5 7b c1 bb ae 95 1e 3d 59 b6 a0 bd 2d 81 13 3e
       -0.0059046545 0.038716964 -0.0784728 0.14404745
000090 30 d1 ae bd 3c 47 9f 3d 04 90 07 3d 70 2b da 3d
       -0.08535993 0.07777259 0.03309633 0.10652816
0000a0 03 e6 0a 3e bc af 00 3d 90 b0 1d 3c ac 24 c2 bd
       0.13564305 0.031417593 0.009624615 -0.09479651
0000b0 af 61 24 bb af f0 1c bd fa c8 3d 3d 69 19 26 3e
       -0.0025082638 -0.03831547 0.046334244 0.1622063
0000c0 91 5b 24 3d b8 5c a5 3d de c4 3e 3d 32 b7 ff 3d
       0.040126387 0.08074325 0.046574466 0.124861136
0000d0 6f 46 f0 3b 86 d1 92 3d 39 fc 90 bd f2 50 b4 bd
       0.007332615 0.0716887 -0.07079358 -0.088045016
0000e0 d9 58 2c 3d 6c 34 e3 bd 4f 25 65 bc 03 79 d0 bd
       0.04207692 -0.11093983 -0.013985946 -0.10179331
0000f0 ed ba 03 3d 75 c7 80 bd 0f fe da bd e6 55 28 3e
       0.03216069 -0.062880434 -0.10692989 0.16439018
000100 c4 f7 d3 3d a9 c8 6d 3d d8 65 93 bd 38 0d 97 3d
       0.10349992 0.058052693 -0.071971595 0.07375568
000110 8e 5d 11 3d 4c c4 ca 3d fb 04 c4 bd 4f 07 0d 3e
       0.03548961 0.09900722 -0.095712624 0.1377232
000120 af 3a 21 3d 95 03 b7 bd 25 91 27 3e f7 fd ca 3c
       0.039362606 -0.0893623 0.16363962 0.024779303
000130 0b 7d 07 3e 13 12 89 3b 7b 96 0a 3c b9 48 44 3e
       0.13231294 0.004183063 0.008458729 0.19168366
000140 6b 26 0a bb 60 14 8b bd 3f 09 83 bd ee 7d d0 bd
       -0.0021080028 -0.067909956 -0.06398248 -0.10180269
000150 8a 19 9c 3b 30 2b be 3d d5 a1 ca 3d c7 36 12 3d
       0.0047637867 0.09285581 0.09894148 0.03569677
000160 f3 ee 14 3e ce 83 91 3d 2c 34 ee bc 8f fc 2b 3d
       0.14544277 0.07105218 -0.029077612 0.041988906
000170 62 99 c4 bd 59 af e8 3d fc e4 eb bd 00 b2 b5 bc
       -0.09599568 0.1136157 -0.11518285 -0.022179604
000180 7c 20 18 3e a9 0b df 3c 43 a7 31 3d 81 86 d1 bd
       0.14856142 0.02722724 0.043372404 -0.10230733
000190 da d5 52 3d 07 d0 dc 3d 3c e1 10 3d 25 27 b1 3d
       0.051473476 0.107818656 0.03537105 0.08650044
0001a0 d1 40 d1 bd 08 3f 94 3d 54 f1 25 bd 3f 51 cf bd
       -0.10217441 0.07238585 -0.04051335 -0.10122918
0001b0 aa 72 e2 3c 57 fe 5a bd e2 7d 29 3c 59 ec 83 bd
       0.027642567 -0.053465214 0.010344954 -0.06441564
0001c0 ba 79 10 3e 35 f2 bf bd f8 5e 5e 3d a0 7e 39 bd
       0.14108935 -0.09372369 0.054289788 -0.045286775
0001d0 cb 1d 05 3d dc a2 6f 3d 79 34 8c bd ca 0d d6 bd
       0.032499116 0.058504924 -0.06845946 -0.10451849
0001e0 b2 fa 33 bd f7 4a 58 bc 25 4c 0f b9 f9 2e ab 3d
       -0.043940254 -0.013201467 -0.00013665909 0.08358569
0001f0 c1 52 89 b9 19 c0 c7 3d 04 7a 56 3d 2a 40 e6 3d
       -0.00026192333 0.097534366 0.052362457 0.11242707
000200 70 bc 60 3d 38 6a e7 3d bd b6 5d 3d 46 1b 00 3e
       0.054867208 0.112995565 0.05412935 0.12510404
000210 0e 2a b8 bc 8a e3 a8 3d 17 f1 e0 bd 3d c8 b3 3d
       -0.02248099 0.08246525 -0.10983484 0.08778427
000220 42 85 b0 3d f7 a3 00 be 72 df 5f bd d0 56 0c 3e
       0.08619167 -0.12562548 -0.054656453 0.13704991
000230 e5 4c df 3d d7 a6 03 3c 0b 63 a2 bd 73 09 1d 3e
       0.10903338 0.008035383 -0.07929047 0.15335636
000240 d6 65 26 bc 9a fe e6 3d bb a3 5d 3c 8f 98 2c bd
       -0.0101561155 0.1127903 0.013527806 -0.04213768
000250 f3 84 33 3e e4 0a ae bc 78 e1 d5 bd c0 8d 67 bd
       0.17531185 -0.021245427 -0.104433954 -0.056531668
000260 c3 c5 a7 3d 65 81 bd bd 41 ba 0b bd 10 60 c3 3d
       0.08192017 -0.09253196 -0.034113172 0.09539807
000270 be 86 c3 bd b0 c0 5f bd 45 1a 9b bd 19 c4 5e bd
       -0.095471844 -0.05462712 -0.0757337 -0.054386232
000280 da da f0 3c 94 91 49 bd b8 a1 21 3e e5 ae ff 3a
       0.029401232 -0.0492111 0.15784347 0.0019507079
000290 77 51 8d 3d a2 f1 8a 3d 6a eb d2 bc ec 50 dc 3d
       0.06900304 0.06784369 -0.02574702 0.10757622
0002a0 7a 51 f0 3d 04 8e bd bd ab 11 09 3d 6d 72 ce bc
       0.117342904 -0.09255603 0.033464115 -0.025201047
0002b0 77 94 25 3c ed 6f 09 3e 90 ed cc 3d 12 96 d1 bc
       0.010106198 0.13421603 0.10006249 -0.025584254
0002c0 5b 3d 08 3e a5 2e 79 3d 57 ea 86 bc f5 50 0c 3e
       0.13304655 0.0608355 -0.016469164 0.13702758
0002d0 50 27 6f bd 03 0c 1e 3c 8d 87 2a bd 58 40 a3 bc
       -0.0583871 0.0096464185 -0.041633178 -0.019928142
0002e0 fb 0b 37 3e 8b 84 b6 bd ac 10 9d 3d af 5c 97 3d
       0.17875664 -0.08911999 0.076691955 0.07390725
0002f0 d0 28 16 bd 67 f0 e4 3b a0 13 e4 bb 58 6a 38 3e
       -0.036660016 0.006986666 -0.0069603473 0.18009317
000300 ba 6d 17 3e e3 7c 0f bd 9e d0 30 bd 32 3d 0b 3e
       0.14787951 -0.03503121 -0.043167703 0.13597563

model.rnn.weight_ih_l1 f4 [196, 49]
000000 8f e8 80 3d 6a 0c 29 3e cd 5c 73 bc e1 9e e5 3d
       0.06294357 0.16508642 -0.014853668 0.11211944
000010 31 14 22 be a4 1c 29 3e c3 a5 1c 3d a7 e9 26 be
       -0.15828015 0.16514832 0.03824402 -0.16300069
000020 3f 74 b9 bc e8 aa 4a bd 08 79 28 be a0 31 1a be
       -0.022638438 -0.049479395 -0.1645242 -0.15057993
000030 47 1d cf bd fa ef 24 3e cb 98 17 3e 1e b6 ca bc
       -0.10113006 0.16107169 0.1480438 -0.024745043
000040 6f df 15 ba 6c 43 01 3d 4f f5 03 3e 3a b4 25 3e
       -0.0005717193 0.03155844 0.12886547 0.16182032
000050 5c d7 9f 3d bd d9 e1 bd b5 61 1c 3d 64 08 0d bc
       0.078047484 -0.110278584 0.03817912 -0.0086079575
000060 16 a0 26 bd f5 11 52 3d 78 7b ac bd a9 69 d1 39
       -0.040680014 0.051286656 -0.08421987 0.0003994231
000070 f2 31 91 3d ae 78 bf bd fd 5c 54 bd f3 00 42 bc
       0.070896044 -0.0934919 -0.051846493 -0.011841047
000080 33 de 18 3e 07 68 ce bc f3 89 9a 3c b1 c6 9e bd
       0.14928512 -0.025196088 0.018864607 -0.07752741
000090 08 10 dc bd 04 9f 9a bd c5 ea 98 3b cb a0 1e 3d
       -0.10745245 -0.07549861 0.0046666586 0.038727563
0000a0 7b ce f8 3d f3 88 1b bd a9 03 b0 bd ed 95 75 3c
       0.12148758 -0.0379724 -0.08594448 0.014989358
0000b0 b6 08 8e 3d 0d fc 51 3e 8a dd 4e bd fd 75 d2 bd
       0.06935255 0.20506306 -0.050504245 -0.10276411
0000c0 e3 76 bb bd 49 80 13 bd 5e be f7 3b 4e 96 17 3e
       -0.09153535 -0.036011014 0.0075605353 0.1480343
0000d0 27 35 a0 bc 74 65 2a be 20 20 73 3d e6 5b a6 3d
       -0.019556595 -0.16640264 0.05935681 0.08122997
0000e0 5a 00 89 3c 3b f0 29 3e d1 41 b1 bc d6 0f 07 bd
       0.0167238 0.16595547 -0.021637829 -0.032974087
0000f0 a3 3b 94 3d bb 01 21 be 0b 86 0d be 70 16 de 3c
       0.07237937 -0.15723316 -0.13820665 0.027110308
000100 f3 4d bd bd 4a b3 e4 bd 2f 28 e4 bd e4 0f 4f 3d
       -0.09243383 -0.11167009 -0.11140477 0.050552264
000110 60 84 05 3d 9f 85 44 bd 49 b9 5f 3d e3 e4 71 bc
       0.032596946 -0.047978994 0.05462006 -0.0147640435
000120 e3 fa 3f 3d 87 01 c5 3d f6 c2 99 bc e8 36 2c 3c
       0.046870124 0.09619432 -0.018769722 0.010511138
000130 f6 47 3b 3d 65 24 aa bd 26 f8 25 3d 18 5d af bd
       0.045722924 -0.08307723 0.040519856 -0.08562678
000140 28 10 4c 3e 61 63 52 3c 01 87 fc bd 03 83 40 bd
       0.19928038 0.012841077 -0.123304375 -0.046999943
000150 ef ae a7 bc 15 35 f9 bd 6c b3 d2 3c 1e d4 42 3d
       -0.020469157 -0.12168328 0.02572032 0.047565572
000160 20 c8 a6 3d 0b 3e 3a bd a3 9a 25 3e 76 62 4b bd
       0.081436396 -0.045469325 0.1617227 -0.049654447
000170 fb 60 ca 3b 19 59 9f 3d 09 86 14 3e c4 89 17 be
       0.0061761118 0.07780666 0.14504255 -0.14798647
000180 af 0d 08 3e 1a 64 b5 bd 14 20 22 be 75 11 1f bc
       0.1328647 -0.088569835 -0.1583255 -0.009708752
000190 8f 22 8f bc 65 79 5e bd 39 53 ef 3c 93 d2 a5 bc
       -0.017472534 -0.05431499 0.029214488 -0.020242011
0001a0 be 34 97 3d 54 1c 1a 3c 1b 5a d4 bd ff db 3b 3d
       0.07383107 0.009406168 -0.10368749 0.0458641
0001b0 ce 60 4e 3d 59 7f cc bd 70 42 80 bd 2a b1 ae 3b
       0.05038529 -0.09985227 -0.06262672 0.005331178
0001c0 82 5f 8d bd 37 e1 e2 bb 0a e8 79 bd a5 6e c7 bc
       -0.06902982 -0.0069238204 -0.061012305 -0.024344752
0001d0 38 0f 87 bc fb 42 14 3d 84 ee f9 3d 8a a1 92 3d
       -0.016486749 0.03619669 0.12203696 0.071597174
0001e0 4f 70 1c bc 8e 0f f9 3d 04 fe b2 3d 9e a1 29 be
       -0.009548261 0.1216117 0.08739856 -0.16565558
0001f0 6a 0a 31 3d 8a 70 32 3c 2c 80 a4 bd df bf d4 3c
       0.043222822 0.010891089 -0.08032259 0.025970398
000200 4b 72 d3 3d 58 79 2b 3e 14 cd be 3d 10 87 2c be
       0.10324534 0.16745508 0.09316459 -0.16848397
000210 ab f4 6d 3d 7e 1f 86 bd 29 1d 85 bc 7a 5b cb bd
       0.05809466 -0.065489754 -0.016249256 -0.09929557
000220 4e 9e 84 bd e8 40 a0 bd 22 5d 64 bc d3 f0 b6 3c
       -0.06475507 -0.0782488 -0.01393822 0.02233163
000230 90 17 7c 3d c4 30 3f 3d 09 3c b8 bd de 43 f4 bd
       0.06154591 0.046677366 -0.08995826 -0.11927007
000240 75 d0 67 bd 65 72 78 bd 94 59 cd 3d 9b dd 0e be
       -0.056595284 -0.06065597 0.10026851 -0.13951723
000250 c2 86 40 3d a9 0e 1c 3e a9 05 02 3c 19 24 f0 b9
       0.047003515 0.15239967 0.00793592 -0.00045803262
000260 0f 4d 68 3d b6 7f 1a be 16 70 f3 3b ca ca 33 bd
       0.056714114 -0.1508778 0.007429133 -0.043894567
000270 11 96 2a bd 08 a3 ef 3d 55 2f 46 bc ba 49 04 be
       -0.04164702 0.117010176 -0.012096246 -0.1291875
000280 68 23 d8 bd c4 b4 1b 3d fa 25 e5 3c 43 43 1a be
       -0.10553628 0.03801419 0.02797221 -0.15064721
000290 8b 48 3b 3d 99 91 5d 3d 6c 00 a0 3d ee 72 af bd
       0.04572348 0.05409393 0.078125805 -0.08566843
0002a0 f4 51 3c bd bd 8d e1 bd b6 bc 1f 3e 91 2b 34 bc
       -0.045976594 -0.110133626 0.15599331 -0.010996715
0002b0 05 a0 82 bd 1f 70 0e bd b8 b0 b5 bd bf a4 da bd
       -0.063781776 -0.034774896 -0.08871597 -0.10675954
0002c0 7d 12 05 be 68 88 da 3d 2b a8 35 3e 69 58 52 3d
       -0.12995334 0.10670549 0.17739932 0.051353846
0002d0 b1 1a 76 bd 18 a3 90 bd 12 0b 91 bd 23 cd f3 bc
       -0.06008405 -0.07062358 -0.070821896 -0.029760903
0002e0 39 62 d3 3d 1a ee 0e 3e 67 f1 97 3d a7 77 a6 3b
       0.10321469 0.13958016 0.07419091 0.0050801816
0002f0 10 d3 fa bd 11 28 fd 3d c4 fb 63 bc 4f 8e ab bd
       -0.12247288 0.12361158 -0.013915006 -0.083767526
000300 b2 8b 24 3d 30 ee ff bc d0 33 36 3e 24 00 16 bd
       0.040172286 -0.031241506 0.17793202 -0.036621228
000310 28 d9 7c 3d 7e 99 e2 bc 9d 49 a6 bc 5f 2b 9d bd
       0.061730534 -0.027661081 -0.020298773 -0.07674288
000320 63 42 96 3b 7f 23 9f bd 5c cd 55 bd ba 74 8b bd
       0.0045855506 -0.07770442 -0.0521978 -0.06809373
000330 43 4e 27 bb 4d 9c a9 3d 33 0c 1a be 8d 9b d0 bd
       -0.0025528825 0.08281765 -0.15043716 -0.10185919
000340 ed dd f9 3d 88 aa 9b bc d5 06 13 bb f6 48 2f 3e
       0.12200532 -0.019002214 -0.0022434492 0.17117676
000350 50 02 8e 3d 13 c6 64 bd ee cc fc bd a7 04 d1 3d
       0.06934035 -0.05585296 -0.12343775 0.102059655
000360 23 53 1c 3e f1 2d d7 bd 55 12 7b bd e0 67 16 3d
       0.15266089 -0.105068095 -0.06129678 0.036720157
000370 36 36 ed bd 96 9d 2a bc 83 a6 5c bc 75 e4 9d bd
       -0.115826055 -0.010413548 -0.013467434 -0.0770959
000380 49 ae b2 3c 51 6c b6 bd 04 bf 07 3e 86 90 de bb
       0.021811621 -0.089073785 0.1325646 -0.006792131
000390 78 d1 96 3d f4 7b ee bd e4 3e 5b bd 9d 38 8c 3c
       0.07364172 -0.11644736 -0.053526774 0.017116839
0003a0 8c 14 18 3d 29 a8 ee bd 00 96 aa bd 55 a1 f9 bc
       0.03712897 -0.11653168 -0.083293915 -0.030472437
0003b0 37 55 da bd 72 3c 13 bd 48 93 03 be 3b 27 9c 3c
       -0.10660785 -0.035946317 -0.12849152 0.019061675
0003c0 15 aa ef bd 81 83 e0 3d be b7 b5 3c 57 61 9b 3d
       -0.117023624 0.109625824 0.022182342 0.075869255
0003d0 00 f2 f2 bd 07 c8 9d bd 23 a0 9f bd 76 fa ce bc
       -0.11862564 -0.07704168 -0.077942155 -0.025265913
0003e0 62 b2 92 3d a6 62 9b bd 53 4d 94 3d be ca b5 bd
       0.0716293 -0.07587175 0.07241311 -0.08876561
0003f0 cc bd e1 bd 79 0b 7d bd 92 f6 0c 3e 80 37 23 3c
       -0.11022529 -0.06177852 0.13765934 0.009961963

model.rnn.weight_hh_l1 f4 [196, 49]
000000 0c 55 92 3c 2e 72 b4 3d 0e 68 2c be 41 a7 2c 3e
       0.01786282 0.088108405 -0.16836569 0.16860677
000010 ec cd 36 be 98 fe c9 3d ab 5f e9 bd 67 47 e6 bd
       -0.1785199 0.09863013 -0.113952 -0.11244088
000020 b7 49 7e 3c 84 e1 a2 bd 8e 2e de bd a5 4e d7 3d
       0.015520505 -0.0795317 -0.10848723 0.10513047
000030 17 fb 83 3d a6 38 f0 bd 00 0c eb 3d 4c ed f3 3d
       0.06444376 -0.11729555 0.11476898 0.11910495
000040 1c e0 3d 3e f2 36 aa 3d f1 5f 49 3c e7 a6 89 bd
       0.18542522 0.08311261 0.012290941 -0.06721287
000050 f5 63 ea 3c 17 68 f1 bc bd ed 84 3d f0 b5 bd 3c
       0.028612116 -0.02946858 0.064906575 0.023158044
000060 44 f5 95 3d 15 cf 62 bd ae 7f 3a 3d 57 8b 2f 3e
       0.07322171 -0.05537327 0.04553192 0.17142998
000070 ad 7a f2 bd b6 cd b8 bd dc c5 c9 3d 6d 2d d4 3d
       -0.11839805 -0.09023611 0.09852192 0.10360227
000080 4d 1a c3 3d 07 9f 02 3e ac df 4e 3d 01 ac a9 bd
       0.09526501 0.12755977 0.05050628 -0.0828476
000090 41 75 1d 3d e8 e1 b8 3d b8 8f 29 3e f0 1c 1e be
       0.0384419 0.09027463 0.1655873 -0.15440726
0000a0 c8 e7 ba 3d cf a8 2a be 02 2e 97 3c 1d f3 89 bd
       0.0912624 -0.16665958 0.018454555 -0.06735823
0000b0 86 8c 0e be 06 21 58 bd 40 4f 76 3c 0f 3b 90 bd
       -0.13920793 -0.05276587 0.015033543 -0.070425145
0000c0 b8 fe ab 3d c3 c3 f0 3d f8 c8 ad bd 87 be 4f bd
       0.08398193 0.117560886 -0.08485597 -0.05071881
0000d0 6c 44 75 bd 6d 74 b1 bd 23 35 fb 3d a4 cb 92 3d
       -0.059879705 -0.086647846 0.122659944 0.071677476
0000e0 c7 c8 d7 3d 2a f0 de bd 57 c6 c8 3d ce f4 59 3d
       0.10536342 -0.108856514 0.09803455 0.05321198
0000f0 ea 1b 16 3e b5 dc d6 3d 92 59 06 3e f4 f3 cf bd
       0.14659086 0.10491315 0.13120106 -0.10153952
000100 06 fb 91 bd 5d 78 20 bc 91 0c 50 3d 42 92 a5 3d
       -0.07127957 -0.009794322 0.050793234 0.08084537
000110 8c e9 a4 3d d6 df 37 3e d0 95 9d bd 3b 6c 95 3d
       0.08052358 0.1795648 -0.0769459 0.07296034
000120 66 23 87 3d 84 41 5a 3d aa 75 0b 3e d3 99 48 bc
       0.065985486 0.053285137 0.13619104 -0.012243706
000130 fa d8 13 bd 35 45 b9 bd a7 b6 f0 3c 0a 30 95 bb
       -0.036095597 -0.09046403 0.02938397 -0.004552846
000140 8d f3 93 bd d3 99 8b 3d 91 79 b0 3d 9b 44 d1 bd
       -0.07224188 0.06816449 0.08616937 -0.102181636
000150 25 0c 97 3d d5 05 2a bc 40 97 99 bd 28 90 15 3d
       0.07375363 -0.010377367 -0.07499552 0.03651443
000160 e1 0a 79 bd 4f f4 01 be d0 86 fb 3d 8b b1 a1 bd
       -0.06080139 -0.12690853 0.12281573 -0.07895192
000170 d2 e7 33 3e 3e fb ee bd f1 e2 5b ba ff f2 41 be
       0.17568901 -0.116690144 -0.0008388004 -0.18940352
000180 eb 7b e9 3b 08 ee 0e be e9 98 e6 3d 53 79 91 3d
       0.007125368 -0.13957989 0.11259634 0.07103219
000190 1e d7 28 3c e9 30 b8 3d c0 78 b7 bd ec cf 2e 3e
       0.010305194 0.08993704 -0.08958578 0.17071503
0001a0 f7 ad 00 3e cf 73 26 3d a9 64 ad bc 8a 49 8c 3d
       0.12566362 0.040637787 -0.021166163 0.06849964
0001b0 9d 5e 01 3d 58 75 ef 3d 4c 45 6f 3d 17 fb bc bd
       0.03158437 0.116923034 0.058415696 -0.09227579
0001c0 1e 1a c7 3d 5a 1d b1 3c 89 9a 7f 3d 62 52 98 3d
       0.09721778 0.021620441 0.062403236 0.07437588
0001d0 6f b0 78 3d 1f 1c 7b 3d ef a5 2a 3e 9a 15 9d 3d
       0.060715135 0.061306115 0.16664861 0.07670136
0001e0 19 ad c8 3d 0b 4d 8f bd 95 8a 6c bc fc ff 3d bd
       0.09798641 -0.06997117 -0.014437337 -0.046386704
0001f0 71 0d b1 3d 21 33 aa 3d c7 e0 17 3e 58 93 b2 3d
       0.08645142 0.08310533 0.1483184 0.0871951
000200 f7 10 01 bb e0 2f 0e be 61 7e dc bd e8 2c 12 be
       -0.001969395 -0.1388545 -0.10766292 -0.14274943
000210 61 43 b1 3d ca 2c 12 3e 23 2a c3 3a d5 26 33 3d
       0.0865543 0.14274898 0.0014889877 0.043738205
000220 32 dd 89 3d 13 06 c2 3d d2 c7 14 be e9 83 8b bd
       0.06731643 0.09473815 -0.1452935 -0.06812269
000230 90 46 f6 bd e9 9c 6c 3d 9e d0 09 3d 5c 79 12 ba
       -0.120251775 0.05776683 0.03364622 -0.0005587542
000240 62 0a 1e be a3 37 ea 3d 8f ad 11 3e 3b 92 51 bd
       -0.15433648 0.11436393 0.14226364 -0.051164847
000250 d5 6b b6 3d 61 35 0a bc 67 43 be 3d 58 16 d2 bc
       0.08907286 -0.008435578 0.092902 -0.02564542
000260 b7 b4 01 bd 1f 7a a7 3d b7 5d 17 3d 28 4a f5 bd
       -0.031666484 0.081775896 0.036954608 -0.11977035
000270 9e eb 27 3e cd 00 52 3b 0e 75 02 be 38 c3 fe bc
       0.16398475 0.0032043934 -0.12739965 -0.031098947
000280 eb 61 ef bd 9a 25 00 bc 9f 9b 81 bd 5d 42 92 3d
       -0.11688598 -0.007821465 -0.063285105 0.07141564
000290 27 de 8c 3d 4d fa 12 3d 33 9c 87 bc 0f 0b 29 3e
       0.0687831 0.035883237 -0.016553974 0.16508125
0002a0 7f 5e 92 bc ae 83 3f 3d eb c1 b4 bd 2d 61 87 3d
       -0.017867325 0.04675644 -0.088260494 0.06610332
0002b0 79 a3 da bc 53 59 99 bd c8 b2 ac bc ee 95 91 3c
       -0.026689278 -0.0748774 -0.021081343 0.017771687
0002c0 b4 d7 12 3d 1f a1 8c 3d 41 f3 ac 3d be f5 e5 bd
       0.03585024 0.06866669 0.084448345 -0.11228512
0002d0 5a ea c9 bd c8 9c d6 3d 52 90 f5 bd 48 bc a4 3d
       -0.09859152 0.104791224 -0.119904175 0.08043724
0002e0 a3 07 18 be 4f a7 91 bd 32 ee be 3b 77 ec b0 bd
       -0.14846663 -0.0711199 0.005826735 -0.08638852
0002f0 84 1a f8 3c 96 f9 17 3d 7f 50 64 bc 62 e5 ee bc
       0.030286081 0.037103258 -0.013935207 -0.029162113
000300 61 1f db bd d1 b7 09 be da f5 5d bd 71 cc 40 bb
       -0.106993444 -0.13449027 -0.05418954 -0.0029418732
000310 08 6f 95 3b 6f 06 b7 ba 52 e4 dd bc fd c6 c2 3d
       0.004560355 -0.0013963709 -0.02708641 0.0951061
000320 5b 11 aa 3d 0e eb ea 3d 76 65 64 3b 29 cf 5b bb
       0.083040915 0.114706144 0.0034850514 -0.0033540225
000330 20 d0 d5 3c bb e5 de 3d b7 23 ac 3d 02 4b bc bd
       0.026100218 0.10883661 0.084052496 -0.09193994
000340 63 28 86 bd 44 85 4b ba ff 5c 73 bd 51 df 14 bd
       -0.06550672 -0.00077636936 -0.05941486 -0.036345784
000350 4a 58 11 bd 6c d3 47 bd 0f 29 4e bc 67 b8 df 3d
       -0.03548459 -0.048785612 -0.012583031 0.10923844
000360 25 a2 3e ba 8c e4 94 bd 1c 29 74 bd 61 b6 7f 3d
       -0.0007272086 -0.07270154 -0.059609517 0.06242979
000370 4a 91 98 bc b9 20 f0 bd 5c 95 e1 bd 39 44 e4 bc
       -0.018623967 -0.11724991 -0.11014816 -0.027864562
000380 6f 6f 19 bd 92 2f e4 bc 20 32 25 3e dc 4e bf bd
       -0.037459787 -0.027854715 0.16132402 -0.09341213
000390 50 86 e2 bc 3f fb 8f bd d5 0e 83 3d c6 50 87 bd
       -0.027651936 -0.07030343 0.06399313 -0.06607203
0003a0 62 aa 15 be 6d 13 56 3d 07 97 00 3d f0 67 aa 3d
       -0.14615777 0.05226462 0.03139403 0.08320606
0003b0 9d 42 ce bd 63 74 20 bd dc 92 db 3d 24 f5 2a 3e
       -0.10071299 -0.039173495 0.107213706 0.16695076
0003c0 59 04 22 be e2 47 49 3d b4 84 25 bd 0e 20 4d bc
       -0.15821971 0.04914082 -0.04040976 -0.012519849
0003d0 d9 84 11 be 37 8c c4 bd 5d f7 a7 bd 47 8f 30 be
       -0.14210834 -0.09597056 -0.08201478 -0.17242156
0003e0 a4 e8 04 3e 6b 5a b6 bc 7e 52 18 3d a1 9f e5 3d
       0.1297937 -0.022259912 0.037188046 0.112120874
0003f0 71 3e cb bd 85 2a 9d bd e9 a9 f2 3c ba 54 59 bd
       -0.09924019 -0.076741256 0.029622035 -0.053059317

model.rnn.bias_ih_l1 f4 [196]
000000 a0 37 be 3c 2e c6 c5 3d 82 8e 31 3e b6 b9 c3 3d
       0.023219883 0.096569404 0.17339519 0.09556906
000010 06 45 e5 3d 00 30 d6 bd 6c 1c 98 3d 76 95 99 bd
       0.11194806 -0.10458374 0.07427296 -0.074992105
000020 b8 ed 92 3b 4a d7 23 3e 79 38 b3 3d ec 7d e7 bd
       0.0044839047 0.16000095 0.08751006 -0.113033146
000030 81 b0 1e bd 30 70 0d 3e 68 48 26 3d 20 46 29 bd
       -0.038742546 0.13812327 0.040596396 -0.041326642
000040 b3 4c c7 3d 7c 02 cf bd 11 69 95 3d 42 8b c7 3d
       0.09731426 -0.10107896 0.072954305 0.09743358
000050 ec 0e 8d bd 71 b8 bb 3c 69 5f c9 bd 99 3a 30 3b
       -0.06887612 0.022915097 -0.09832651 0.0026890396
000060 5d 02 d1 3d 1b 5c 03 3c dc 19 ae bd 7f a1 58 3d
       0.10205529 0.008017565 -0.08501026 0.05288839
000070 34 3f ae bd 9e 44 9c bd a2 ab be 3d 27 04 b6 bd
       -0.08508149 -0.07630275 0.0931008 -0.08887511
000080 81 a8 2d bd ac 40 e3 bc 2f e8 87 bd 7b fa 75 bd
       -0.042397026 -0.027740799 -0.066360824 -0.06005333
000090 73 ad f8 3d c2 53 c3 3d 8d c3 a8 bd f7 96 21 bc
       0.12142458 0.0953746 -0.08240423 -0.009862653
0000a0 cd 4d 40 3c b0 06 db 3d 9d b0 4a 3d 76 fb 77 bd
       0.011737299 0.10694635 0.049484838 -0.060542546
0000b0 94 84 c0 3d 03 4f fe bd 7c df 90 3c ab 6a f4 3c
       0.09400287 -0.12417414 0.01768469 0.02983602
0000c0 ee 83 f0 3c 81 49 8c 3d 1b 8a 3e bd 44 0d d1 3d
       0.029359784 0.06849957 -0.046518426 0.10207608
0000d0 6d f2 4a 3d b0 a7 22 3e 89 f2 11 bd 9a 88 11 3e
       0.0495476 0.1588428 -0.03563169 0.14212266
0000e0 4f e3 ce 3b fb 6f 2d 3e 94 88 97 bd 88 89 e5 bc
       0.0063137184 0.16937248 -0.07399097 -0.028019682
0000f0 05 cf b7 bd bc 8b 40 bd 96 41 06 3d 9c 0e c7 3d
       -0.08975033 -0.04700826 0.03277739 0.097195834
000100 44 22 6b 3d 7d 52 72 bd 92 8e d6 bd bf 09 da 3d
       0.057405725 -0.0591607 -0.10476412 0.1064639
000110 65 33 63 3b 6b 57 03 3e 9f db 9f 3c 92 06 b9 3d
       0.0034668085 0.12826316 0.019513903 0.09034456
000120 e5 56 12 3d 0d 92 15 3e 5f 35 c2 3d b9 3a d5 3c
       0.0357274 0.14606495 0.09482836 0.026028978
000130 29 26 0c 3c d7 54 bc bd ab 27 ac bd 80 81 cb bc
       0.00855402 -0.091958694 -0.084060036 -0.024842024
000140 e7 32 39 3c a7 a9 7b bd 8c 33 3c 3d 17 5c c4 3d
       0.01130364 -0.06144109 0.045947596 0.09587877
000150 1e 3b d3 bd ef b0 f6 3d d1 dc 29 3e 9b fd 1c 3e
       -0.1031401 0.12045466 0.16588141 0.15331118
000160 be b3 00 3e cb 41 46 bd 60 49 ad bd ee 9b cb bd
       0.12568566 -0.04840259 -0.08461261 -0.099418506
000170 b8 61 ba bd d0 62 54 3d bd a9 02 be c3 7d 73 bc
       -0.091006696 0.051852047 -0.12760063 -0.014861527
000180 b3 9f 41 3c a8 7f da 3c e9 2e c5 bb 83 c0 2f 3d
       0.01181786 0.0266722 -0.006017555 0.042908203
000190 52 97 79 bd ea 45 13 3e 69 f5 fd 3c 2d 06 c3 3d
       -0.060935326 0.14382139 0.03100081 0.09522662
0001a0 c4 da 92 3d bb 20 19 bd 9b 72 2a be 93 23 2e 3d
       0.071706325 -0.03738473 -0.16645281 0.042514395
0001b0 50 f9 6a 3d 53 d0 6b bd a9 1c b3 3d 97 be 13 be
       0.05736667 -0.05757172 0.08745701 -0.14428173
0001c0 a1 dd c6 bc 1d 80 9d 3b 80 02 2b 3e 43 0d 8d bd
       -0.024275603 0.004806532 0.16700172 -0.06887295
0001d0 a1 4c 37 3c 88 85 64 3d 8e 4e fa 3d 76 94 d7 3d
       0.011187703 0.055791408 0.12222014 0.105263636
0001e0 ab 5f 8f 3d 19 88 81 bd e9 f0 ca bd 1d a1 c6 bd
       0.07000669 -0.06324787 -0.09909231 -0.09698699
0001f0 8e 45 f4 bc 40 70 dd 3d de bc 9e 3d 47 79 c6 bc
       -0.029818323 0.108124256 0.07750867 -0.024227751
000200 ba 9e 08 bd 05 40 3b bc 08 ee b3 bd 33 f2 0a 3e
       -0.0333545 -0.011428838 -0.08785635 0.13568954
000210 5c b6 53 3d 19 fd 86 3c c9 c9 0f be 39 62 66 bc
       0.051687583 0.016478108 -0.14041819 -0.014061504
000220 de 3a 9d 3d d3 be 4d 3d 65 bb c5 3d f9 aa 9d 3d
       0.07677244 0.050230812 0.09654883 0.07698626
000230 a7 15 14 3e aa b8 fd 3d c4 e0 bf bd cb f6 da ba
       0.14461385 0.123887375 -0.093690425 -0.001670563
000240 39 1f 6b bd 74 7f bb 3c ba e0 0a be 01 81 aa 3c
       -0.057402823 0.022887923 -0.13562289 0.020813467
000250 7d 27 31 3e 28 df cc 3d 65 c1 0d 3e 2d 87 25 bd
       0.1730022 0.10003501 0.13843305 -0.040412117
000260 d7 d2 7a 3c 32 84 92 bc eb 8a d9 3d 41 fa ec 3d
       0.015309057 -0.017885301 0.106221996 0.1157117
000270 c9 ff 25 3d ec 60 13 bd 6a f8 4d 3d eb 5f b8 3d
       0.04052714 -0.035981104 0.050285734 0.0900267
000280 aa b1 ab 3c 6c 54 2f 3d 76 fc 93 bd 0f 24 0d 3e
       0.02095874 0.04280512 -0.072258875 0.13783287
000290 5b af 62 bd b9 de 9a bd 18 ae 1f 3e 20 62 b7 3b
       -0.055343013 -0.07562012 0.15593755 0.005596414
0002a0 d1 b0 8c 3d 4b 8e 9a bd d6 70 c2 bd 48 a6 10 3e
       0.068696626 -0.075466715 -0.09494178 0.14125931
0002b0 a9 8b d6 3c 96 b8 d0 bc 55 3c 86 bd a7 75 f7 3d
       0.026189642 -0.025478642 -0.06554476 0.12082987
0002c0 5c f8 12 3d 14 04 16 bb 95 4b fb 3d e2 30 ce bc
       0.035881385 -0.0022890614 0.122702755 -0.025169794
0002d0 70 e3 31 3e 1a 9a 08 3e 18 a1 c2 bd 8e a6 a5 3c
       0.17371917 0.13340035 -0.095033824 0.020221021
0002e0 94 8f 85 bd 48 6d 85 bd 7e 83 b3 3b d2 82 4d bd
       -0.06521526 -0.06514984 0.0054783216 -0.050173588
0002f0 70 10 44 bc 16 59 31 bd 93 49 e9 3d c6 77 32 3e
       -0.01196681 -0.04329785 0.11390986 0.17428502
000300 dc f7 ac bd d4 60 2f 3d 5a 9d 7e 3d 70 a8 3f bc
       -0.08445713 0.042816952 0.06216178 -0.0116978735
