lightning_logs/version_7/checkpoints/epoch=9-step=500.ckpt (torch, 391998 bytes, 45 tensors)

model.param_proj.proj.0.weight f4 [1, 35]
0.12621048 0.20194277 -0.1805219 0.055708762 -0.050041646 -0.06858665 0.17194617 -0.079798415
0.007678025 0.16031271 0.09969431 -0.1517279 -0.120572284 0.10709382 0.21449357 0.027158206
-0.04849461 0.15019901 -0.17999424 -0.11206838 0.035615016 0.2106873 0.08231576 -0.24587375
-0.26181224 0.16561106 -0.09502826 -0.017710848 -0.21739656 -0.16821735 0.09253523 0.101287074
-0.16514729 -0.21531837 0.20131257
00000000: 523d 013e 16ca 4e3e bcda 38be df2e 643d
00000010: 78f8 4cbd 2877 8cbd a812 303e 5a6d a3bd
00000020: f197 fb3b 0429 243e 882c cc3d 8f5e 1bbe
00000030: 9aee f6bd 0154 db3d 34a4 5b3e e37a de3c
00000040: 49a2 46bd c5cd 193e 6950 38be 1b84 e5bd
00000050: 0de1 113d 69be 573e 2a95 a83d 54c6 7bbe
00000060: 410c 86be f295 293e 2d9e c2bd 5716 91bc
00000070: 349d 5ebe 2b41 2cbe 1c83 bd3d 996f cf3d
00000080: 5f1c 29be 6b7c 5cbe e224 4e3e

model.param_proj.proj.1.weight f4 [1, 35]
0.115446664 -0.0372925 0.09229711 -0.008423863 0.057665832 0.08696923 -0.068098575 -0.022944482
-0.16256438 0.13210495 -0.019132633 0.14158548 0.24125913 -0.026730025 -0.032099105 0.1134295
-0.04896404 0.0659226 0.088524364 0.047116794 -0.08762851 0.006749039 0.01300187 -0.10640102
0.00010567557 0.15781116 0.05064835 0.21448988 0.18454592 -0.070729695 -0.009573254 0.040476486
0.09310871 -0.109628886 -0.06979995
00000000: 4d6f ec3d 05c0 18bd 4406 bd3d 3e04 0abc
00000010: 0233 6c3d ec1c b23d 4477 8bbd 11f6 bbbc
00000020: 4777 26be 8546 073e 0abc 9cbc c9fb 103e
00000030: a20c 773e edf8 dabc 5a7a 03bd ba4d e83d
00000040: 848e 48bd 6e02 873d 434c b53d 8afd 403d
00000050: 9476 b3bd 0b27 dd3b cc05 553c c7e8 d9bd
00000060: 249e dd38 4099 213e a574 4f3d 3ca3 5b3e
00000070: 9bf9 3c3e bbda 90bd 23d9 1cbc acca 253d
00000080: c8af be3d 1c85 e0bd 47f3 8ebd

model.param_proj.proj.2.weight f4 [1, 35]
-0.14354415 -0.25668406 -0.27133965 -0.2779589 0.27403578 -0.22986151 -0.27337524 0.2610103
-0.24725103 -0.2365657 0.2611477 0.111388214 0.06797689 -0.17881843 0.0466875 -0.1850731
-0.18833226 0.07863867 -0.16742323 0.17339636 -0.2649799 -0.20929249 -0.11017663 0.18021992
-0.28302553 0.24538481 0.27425328 0.13218455 0.28295875 -0.20002873 0.18924324 -0.19915795
-0.24013385 0.2614456 -0.18680961
00000000: 3dfd 12be 186c 83be 08ed 8abe a150 8ebe
00000010: 6b4e 8c3e d160 6bbe d7f7 8bbe 24a3 853e
00000020: 602f 7dbe 473e 72be 27b5 853e 811f e43d
00000030: 7837 8b3d 2e1c 37be 643b 3f3d cd83 3dbe
00000040: 2cda 40be 500d a13d ff70 2bbe d18e 313e
00000050: 72ab 87be c550 56be 49a4 e1bd 928b 383e
00000060: b9e8 90be 2846 7b3e ed6a 8c3e 635b 073e
00000070: f8df 903e 55d4 4cbe fbc8 413e 10f0 4bbe
00000080: a6e5 75be 33dc 853e 054b 3fbe

model.rnn.weight_ih_l0 f4 [140, 37]
-0.042104352 0.14788914 0.15065555 0.1745485 -0.015303779 -0.08969443 0.11125535 -0.027956849
0.046094276 -0.021672867 -0.07496629 0.072734416 -0.01917204 0.13542822 -0.025483236 -0.06305096
0.17563507 -0.12749873 0.14155583 0.1818845 -0.020306887 -0.13917473 0.14426424 0.102506295
-0.010960067 0.08463976 0.16217431 -0.09787139 -0.015775235 -0.01621884 0.07078529 0.08332156
-0.0593462 -0.131445 -0.16590595 0.118812256 -0.0536065 0.15496007 0.14777084 0.02033177
-0.108161405 -0.018426832 0.07482734 -0.102127045 -0.09033885 0.03448542 -0.010049277 0.044751856
-0.050960906 -0.12312565 -0.034489177 0.013085025 0.098779276 0.029622624 -0.08328679 -0.022374613
0.10499544 -0.03339702 0.10361803 -0.010465643 0.09746854 -0.084948234 -0.119464174 -0.018372482
0.0845248 0.13241906 -0.0725875 -0.116416246 0.07656473 -0.09908681 0.05299561 -0.07435775
-0.02278127 0.17051837 0.13623114 0.07865019 0.08251443 -0.037359532 -0.09298289 0.055628728
-0.06926824 -0.0049340483 0.07334457 -0.12368223 -0.09979345 -0.0763137 0.1034145 -0.05909588
-0.08136014 -0.0004239853 0.036199372 -0.12948461 -0.10972664 0.13439384 0.0057743527 -0.13886759
-0.017169785 -0.14829494 0.09547143 0.094810635 -0.05627887 0.13253956 0.12215107 0.07661187
-0.116776854 -0.06447138 -0.15238017 -0.14823385 0.15791497 -0.0020370209 0.091500446 0.09125465
-0.04192779 -0.066137336 0.037466187 -0.096038826 -0.03759998 0.09624936 -0.05000685 0.018102465
0.047177184 -0.07090994 0.13947548 0.034485344 -0.071822725 0.14302047 0.04699737 -0.1002777
-0.0055883285 -0.04432364 0.12821877 -0.028350659 -0.12807785 0.13973945 0.0714303 -0.09523936
0.09097186 -0.08983 0.115816735 0.1484131 0.18087155 -0.0033643092 -0.047465805 -0.00343372
-0.101800956 -0.070933424 0.084082626 -0.019481577 0.04010895 -0.068344146 0.0151389185 0.059409633
-0.052463114 -0.03655399 0.05779145 0.052361984 -0.15000038 0.014989562 -0.13133378 0.07165143
0.038714536 0.14754222 0.0509611 -0.126679 -0.13888694 0.16682878 0.08068748 -0.007938033
-0.059596512 -0.04040642 0.047166668 0.00516025 0.063734494 0.1139271 -0.12783356 0.053780057
-0.034538493 0.05207869 0.097783834 0.073629394 -0.0011762746 -0.054735854 0.034575067 0.0063816356
0.21807419 -0.15229475 -0.07257562 0.07541863 -0.10085133 0.15604492 -0.14187783 0.08175275
-0.027698986 -0.10132684 0.053193957 0.06964699 0.013365572 0.19614273 -0.13956827 0.032540403
-0.062417723 0.14757912 0.19940312 0.16692266 0.18576714 0.14350112 -0.10529577 -0.091407835
0.014988217 0.12573262 0.078657426 0.17037302 0.0005691493 0.11111366 -0.13673119 0.0927058
0.049114592 0.023122905 0.075322226 -0.07265874 -0.14267632 -0.11911805 -0.044885226 0.13339539
-0.15474682 -0.062435918 -0.087886274 -0.044935804 -0.021923846 -0.096262895 -0.004403317 0.11989972
0.0076755146 -0.18884738 -0.16375521 -0.14610782 0.07625197 -0.13810864 -0.062896326 0.013971105
0.11844331 0.112600476 0.08913786 0.123997636 -0.08524894 -0.1279021 -0.028530153 -0.14459668
-0.1422975 -0.17202085 -0.12648588 -0.1705219 -0.08820073 0.08110052 -0.046527106 -0.17755961
00000000: 9d75 2cbd 4070 173e 7345 1a3e d8bc 323e
00000010: b4bc 7abc b7b1 b7bd d8d9 e33d c305 e5bc
00000020: 5acd 3c3d 4c8b b1bc ed87 99bd c8f5 943d
00000030: af0e 9dbc b2ad 0a3e 38c2 d0bc dd20 81bd
00000040: aed9 333e 078f 02be 03f4 103e ee3f 3a3e
00000050: a15a a6bc d283 0ebe 01ba 133e d2ee d13d
00000060: da91 33bc 9c57 ad3d 0611 263e cc70 c8bd
00000070: 113b 81bc 5fdd 84bc e1f7 903d 7ea4 aa3d
00000080: 0015 73bd 8599 06be 40e3 29be d753 f33d
00000090: 7d92 5bbd daad 1e3e 3d51 173e d08e a63c
000000a0: ba83 ddbd def3 96bc 143f 993d fc27 d1bd
000000b0: 9303 b9bd 9540 0d3d b9a5 24bc b94d 373d
000000c0: 62bc 50bd 4d29 fcbd 8644 0dbd 9362 563c
000000d0: ca4c ca3d 25ab f23c 4492 aabd f74a b7bc
000000e0: d907 d73d 50cb 08bd b135 d43d 1778 2bbc
000000f0: 969d c73d 57f9 adbd a2a9 f4bd e381 96bc
00000100: 571b ad3d dd98 073e c1a8 94bd a46b eebd
00000110: f8cd 9c3d 07ee cabd ed11 593d e048 98bd
00000120: c99f babc 5e9c 2e3e 2d80 0b3e 5a13 a13d
00000130: 53fd a83d 4f06 19bd d06d bebd f3da 633d
00000140: 82dc 8dbd ccad a1bb ae35 963d 1c4d fdbd
00000150: 8260 ccbd 5b4a 9cbd fbca d33d 850e 72bd
00000160: 25a0 a6bd 584a deb9 cb45 143d 9d97 04be
00000170: 5cb8 e0bd 8a9e 093e c836 bd3b 4e33 0ebe
00000180: a6a7 8cbc a1da 17be 8686 c33d 142c c23d
00000190: ac84 66bd 73b8 073e 572a fa3d afe6 9c3d
000001a0: b428 efbd 9209 84bd 8c09 1cbe 9dca 17be
000001b0: 76b4 213e 8a7f 05bb 9664 bb3d b8e3 ba3d
000001c0: 79bc 2bbd 0373 87bd 2576 193d 01b0 c4bd
000001d0: 7002 1abd 621e c53d fcd3 4cbd 9f4b 943c
000001e0: dd3c 413d 3b39 91bd a9d2 0e3e 8140 0d3d
000001f0: cb17 93bd f573 123e 5080 403d 655e cdbd
00000200: 4c1e b7bb b58c 35bd c84b 033e a43f e8bc
00000210: d726 03be dc17 0f3e 0d4a 923d db0c c3bd
00000220: 744f ba3d cbf8 b7bd 5331 ed3d 9bf9 173e
00000230: 6436 393e be7b 5cbb 816b 42bd 4308 61bb
00000240: 057d d0bd 8b45 91bd 8333 ac3d d497 9fbc
00000250: 4849 243d 04f8 8bbd 3a09 783c 8457 733d
00000260: 90e3 56bd a3b9 15bd bab6 6c3d 8579 563d
00000270: b399 19be c896 753c 5d7c 06be fcbd 923d
00000280: 2293 1e3d 4f15 173e 96bc 503d 24b8 01be
00000290: 6138 0ebe 2ad5 2a3e 7a3f a53d 860e 02bc
000002a0: 791b 74bd 3481 25bd d631 413d 5017 a93b
000002b0: 3b87 823d 9d52 e93d cde6 02be 7a48 5c3d
000002c0: 3c78 0dbd 7750 553d e442 c83d 02cb 963d
000002d0: 3a2d 9aba b432 60bd 969e 0d3d 0a1d d13b
000002e0: d74e 5f3e 28f3 1bbe 87a2 94bd 1575 9a3d
000002f0: 248b cebd 3dca 1f3e 6c48 11be fc6d a73d
00000300: fce8 e2bc 7284 cfbd e8e1 593d 15a3 8e3d
00000310: 46fb 5a3c a4d9 483e fcea 0ebe 1649 053d
00000320: baa9 7fbd fb1e 173e 5530 4c3e c6ed 2a3e
00000330: be39 3e3e f5f1 123e 4fa5 d7bd 0834 bbbd
00000340: 2391 753c 0dc0 003e 2517 a13d 4476 2e3e
00000350: f732 153a 8f8f e33d 4303 0cbe 8adc bd3d
00000360: 622c 493d 3f6c bd3c 8a42 9a3d 1bce 94bd
00000370: be19 12be 2af4 f3bd 92d9 37bd cd98 083e
00000380: f375 1ebe cebc 7fbd b8fd b3bd 9b0e 38bd
00000390: a399 b3bc 7b25 c5bd b349 90bb fc8d f53d
000003a0: e282 fb3b 3561 41be 72af 27be 4a9d 15be
000003b0: fe29 9c3d 5a6c 0dbe cacf 80bd 10e7 643c
000003c0: 6892 f23d 149b e63d e98d b63d 79f2 fd3d
000003d0: ff96 aebd c5f8 02be 11b8 e9bc 2711 14be
000003e0: 70b6 11be 3c26 30be 8485 01be 4b9d 2ebe
000003f0: 96a2 b4bd 0818 a63d 3593 3ebd 30d2 35be

model.rnn.weight_hh_l0 f4 [140, 35]
0.1496945 0.16831896 0.033345237 -0.12173771 0.08005449 0.015141014 -0.020907888 0.11781013
-0.08152694 0.07368059 -0.18783498 0.17556943 -0.025480652 -0.21245171 -0.15517502 0.034080558
-0.056595605 0.013042202 -0.056183465 0.16106425 0.1351595 -0.093311414 0.09363292 0.050540853
0.04587188 0.07833673 -0.10852323 -0.0840488 -0.02498026 -0.15329541 0.19351342 0.12942377
-0.03924053 0.14050987 -0.14485303 -0.01860215 -0.035742484 0.07685227 -0.037244763 0.053275358
0.044722963 0.090909734 0.10696601 0.1413477 0.12455289 -0.05758971 0.102376044 -0.21095899
-0.04818389 -0.19194612 -0.0048611187 0.006032476 -0.12340943 0.07530496 -0.19292846 -0.20022681
-0.14588265 -0.036865275 -0.029994844 0.0016988531 0.077813916 0.031376887 -0.17014894 0.07445948
-0.1515232 0.12825221 0.13974413 -0.092134506 0.15699562 -0.035663575 0.15600353 0.0974859
0.12914397 -0.08958793 -0.17696507 -0.13215458 0.047301106 0.12646352 -0.012769629 0.11196307
0.14218241 0.06382408 -0.057048798 0.01614001 -0.12250628 0.10049459 0.120371565 0.014162957
0.01442742 0.09678254 0.12777585 -0.1428133 0.015473444 -0.013435598 0.16052118 -0.06901984
0.16162024 0.08648999 -0.070501156 -0.08289324 -0.017479196 -0.052995183 -0.04056402 -0.06474724
-0.036863144 0.018748827 0.027359558 -0.16095552 0.005127732 0.03036283 -0.113327466 0.09436711
0.080695234 -0.14854385 0.20301938 -0.017529294 0.11836879 -0.07534006 -0.08767736 -0.025955172
-0.007465075 0.14600474 -0.15698285 -0.12560561 -0.003329433 0.082139924 -0.1655778 -0.032667767
0.11855557 -0.07341249 0.0045012813 -0.008163116 0.1303945 0.18133287 0.056127254 -0.09419678
0.11746593 0.12661947 -0.020152664 0.06686709 0.13793278 -0.12007061 -0.13253166 -0.03237488
0.11597956 0.15025172 -0.18309937 -0.05174667 0.06934167 0.16372912 0.12327788 -0.042134557
0.004062921 -0.080036625 0.111389175 0.030832289 0.12229214 0.050698414 0.19125824 -0.11591244
0.02315854 0.14347015 -0.009069589 0.13091375 -0.07400851 0.1283558 -0.1019624 -0.1364014
0.11315971 0.13958731 0.0800724 -0.1406549 -0.045470875 0.08866366 -0.042417847 0.14497966
0.10435577 0.07023074 0.06883285 -0.09331126 0.043262325 -0.051405434 -0.18186429 -0.07284246
-0.13316248 0.14442286 -0.011783748 0.107770346 -0.109064505 0.08600618 -0.09548864 0.09761612
-0.0843588 -0.013165354 0.046907842 -0.17239717 -0.1646092 0.17130871 -0.16571918 0.02080391
-0.010618559 -0.19685471 -0.1870178 0.11885462 0.0644291 -0.1540318 -0.11837789 -0.04687982
-0.12576352 0.007901454 -0.13994539 0.0067827916 -0.101472646 0.17668816 0.09058952 0.13619423
-0.10419913 0.06601156 -0.014854262 0.008853922 0.14517966 0.088387564 -0.047714233 0.048993383
-0.13952509 -0.12952536 -0.021462226 0.112621024 0.09684765 -0.16213904 0.11249742 0.10733046
0.07558634 0.05843131 -0.030944558 0.12133365 -0.05001997 -0.13752009 -0.07118266 -0.08885447
0.016556188 -0.05368062 -0.14713609 0.06919775 0.017378755 -0.08920489 -0.1098651 0.0046425518
-0.14310543 -0.13444582 -0.11459861 -0.07048655 -0.07436026 0.13516562 0.04600437 0.10205749
00000000: 8449 193e ce5b 2c3e 0495 083d 9f51 f9bd
00000010: 9cf3 a33d 0412 783c 0547 abbc 7046 f13d
00000020: 99f7 a6bd d9e5 963d d057 40be 79c8 333e
00000030: cdbc d0bc f18c 59be 33e6 1ebe 0e98 0b3d
00000040: cbd0 67bd f6ae 553c a220 66bd 07ee 243e
00000050: 4167 0a3e 0e1a bfbd 9ec2 bf3d ed03 4f3d
00000060: 27e4 3b3d 026f a03d 6d41 debd c721 acbd
00000070: 67a3 ccbc 79f9 1cbe 6228 463e aa87 043e
00000080: aeba 20bd d2e1 0f3e 5a54 14be 8963 98bc
00000090: b666 12bd b964 9d3d f78d 18bd 4337 5a3d
000000a0: 6d2f 373d e22e ba3d ff10 db3d 74bd 103e
000000b0: 9615 ff3d 30e3 6bbd 88aa d13d a205 58be
000000c0: 785c 45bd 868d 44be 054a 9fbb 14ac c53b
000000d0: 15be fcbd 7d39 9a3d 0a8f 45be 4208 4dbe
000000e0: 4362 15be 0b00 17bd bfb7 f5bc 0dac de3a
000000f0: e75c 9f3d 0d85 003d 863b 2ebe 367e 983d
00000100: e628 1bbe 8c54 033e 1619 0f3e 04b1 bcbd
00000110: 76c3 203e f813 12bd 64bf 1f3e b0a6 c73d
00000120: 513e 043e e079 b7bd 5536 35be 8853 07be
00000130: cebe 413d a77f 013e b537 51bc e54c e53d
00000140: 4498 113e 33b6 823d 00ac 69bd 0e38 843c
00000150: 93e4 fabd 1cd0 cd3d 5e85 f63d bf0b 683c
00000160: fc60 6c3c ed35 c63d acd7 023e a63d 12be
00000170: 5484 7d3c fc20 5cbc aa5f 243e 465a 8dbd
00000180: c77f 253e aa21 b13d e962 90bd eec3 a9bd
00000190: 8830 8fbc 7a11 59bd 7526 26bd 339a 84bd
000001a0: cffd 16bd 2497 993c 2721 e03c 86d1 24be
000001b0: 8906 a83b 78bb f83c 3b18 e8bd 8b43 c13d
000001c0: 8b43 a53d e11b 18be 50e4 4f3e 9899 8fbc
000001d0: 566b f23d e44b 9abd 3090 b3bd f19f d4bc
000001e0: 969d f4bb 4482 153e 1dc0 20be c29e 00be
000001f0: 9e32 5abb fa38 a83d 3a8d 29be a3ce 05bd
00000200: 43cd f23d 4a59 96bd 7c7f 933b 97be 05bc
00000210: 2386 053e 53af 393e b1e5 653d 3eea c0bd
00000220: fa91 f03d 89a8 013e 3317 a5bc 9df1 883d
00000230: 403e 0d3e 94e7 f5bd 61b6 07be 869b 04bd
00000240: b186 ed3d 96db 193e 677e 3bbe 51f4 53bd
00000250: 0103 8e3d 9ba8 273e 1d79 fc3d 4995 2cbd
00000260: 4022 853b 3eea a3bd 0220 e43d ff93 fc3c
00000270: 4d74 fa3d 24a9 4f3d 33d9 433e 8063 edbd
00000280: fab6 bd3c d7e9 123e 9d98 14bc 410e 063e
00000290: c691 97bd b46f 033e aad1 d0bd cfac 0bbe
000002a0: 47c0 e73d faef 0e3e 00fd a33d d707 10be
000002b0: ab3f 3abd 4b95 b53d 56be 2dbd 8c75 143e
000002c0: 7ab8 d53d 22d5 8f3d 3df8 8c3d f919 bfbd
000002d0: d633 313d 818e 52bd a23a 3abe 6d2e 95bd
000002e0: bf5b 08be 96e3 133e 9f10 41bc b3b6 dc3d
000002f0: 365d dfbd 0224 b03d 8c8f c3bd f6ea c73d
00000300: 4ec4 acbd 7fb3 57bc 7022 403d e288 30be
00000310: 508f 28be 8d6b 2f3e 4ab2 29be f66c aa3c
00000320: 77f9 2dbc 4894 49be 9881 3fbe 0d6a f33d
00000330: 67f3 833d 83ba 1dbe 1b70 f2bd 0e05 40bd
00000340: 27c8 00be 1a75 013c d84d 0fbe 2e42 de3b
00000350: e4d0 cfbd beed 343e 0087 b93d 8076 0b3e
00000360: 5a66 d5bd 1231 873d 4a5f 73bc 0a10 113c
00000370: faa9 143e 8a04 b53d 0070 43bd 49ad 483d
00000380: aadf 0ebe 4ca2 04be 8dd1 afbc daa5 e63d
00000390: 1058 c63d c707 26be 0c65 e63d 12d0 db3d
000003a0: 03cd 9a3d ab55 6f3d 717f fdbc c77d f83d
000003b0: bde1 4cbd 11d2 0cbe 37c8 91bd 55f9 b5bd
000003c0: d8a0 873c 36e0 5bbd d8aa 16be 8db7 8d3d
000003d0: e45d 8e3c 0eb1 b6bd f400 e1bd 8c20 983b
000003e0: 3b8a 12be 2aac 09be adb2 eabd 415b 90bd
000003f0: 314a 98bd db68 0a3e 146f 3c3d 8403 d13d

model.rnn.bias_ih_l0 f4 [140]
0.07560125 -0.041637395 0.0018802683 0.037622556 0.011335973 -0.08345529 0.17487904 0.036604896
-0.03925108 0.007760786 -0.03637542 0.009945545 0.18505974 -0.050636746 0.055856355 0.09832723
0.09660579 -0.08305278 0.18873833 0.056994922 0.03678751 0.17071226 0.04456761 -0.01938609
0.1854645 -0.06156218 0.00023859741 0.169654 -0.10966671 -0.032627013 0.0352395 -0.0720736
-0.10140569 0.095617376 0.19404262 0.171446 -0.06605922 0.031147681 -0.015251118 -0.035360347
-0.08327622 0.027563749 0.020934032 -0.034249123 0.02218159 -0.07727982 0.1724346 0.08713341
0.18141907 -0.079764925 0.02198269 0.13976245 0.20076628 -0.073720075 0.16442192 0.16257875
0.13886291 0.172724 0.16787748 0.08523052 0.014200157 0.037693147 -0.069027685 -0.06640721
0.103554115 -0.028243726 0.07862849 -0.00033133174 -0.057642683 -0.072855 0.1170775 0.015994838
-0.0020263907 0.171948 -0.12362412 -0.021400398 0.14770909 0.026274448 0.20120536 0.23146926
0.013791435 0.027555529 -0.011387447 -0.010555779 -0.112241246 0.17582805 0.12365247 -0.2151087
0.15539087 0.068615116 -0.09938303 -0.107463226 -0.10276097 -0.14263374 0.18587531 -0.041612137
-0.005952632 -0.15921122 0.04264532 0.0042976234 0.027698059 0.15566814 -0.13710466 -0.10732619
0.0144383 0.037349097 0.12758823 -0.010860757 -0.033500776 0.047212016 0.047984704 0.13728245
0.034405787 0.097578995 0.0073135816 0.15016282 0.1571086 0.13141008 0.024624484 0.17907445
0.103847235 -0.08063746 -0.016612377 -0.10040939 0.0068013933 0.039836276 -0.13269107 0.21151692
0.098098464 -0.115145616 -0.081933804 -0.09737379 0.058524195 -0.10460093 0.006852822 -0.13712995
0.00038369096 -0.072804436 0.15710424 0.14239123
00000000: d4d4 9a3d f98b 2abd 5673 f63a 1c1a 1a3d
00000010: 84ba 393c 9bea aabd 7e13 333e 04ef 153d
00000020: bec5 20bd 314e fe3b 64fe 14bd a4f2 223c
00000030: 4d80 3d3e 7a68 4fbd a2c9 643d c95f c93d
00000040: 42d9 c53d 9317 aabd 9f44 413e 8273 693d
00000050: 80ae 163d 32cf 2e3e 878c 363d 94cf 9ebc
00000060: 68ea 3d3e a028 7cbd 0130 7a39 c7b9 2d3e
00000070: f198 e0bd e7a3 05bd 4b57 103d 539b 93bd
00000080: c9ad cfbd 0bd3 c33d 1cb3 463e 8a8f 2f3e
00000090: 0e4a 87bd 6c29 ff3c d3df 79bc 03d6 10bd
000000a0: b98c aabd 5fcd e13c d97d ab3c cf48 0cbd
000000b0: 2ab6 b53c e244 9ebd b292 303e 0073 b23d
000000c0: ecc5 393e cb5b a3bd 0b15 b43c e31d 0f3e
000000d0: ad95 4d3e 8dfa 96bd 385e 283e 0b7b 263e
000000e0: 1432 0e3e 8fde 303e 13e8 2b3e 578d ae3d
000000f0: c6a7 683c 2164 1a3d 635e 8dbd 8100 88bd
00000100: 2e14 d43d 635f e7bc f907 a13d 98b6 adb9
00000110: bc1a 6cbd 0135 95bd 54c6 ef3d 9b07 833c
00000120: 32cd 04bb 2313 303e a52e fdbd e34f afbc
00000130: 0d41 173e 833d d73c c708 4e3e 4706 6d3e
00000140: 79f5 613c 22bc e13c 6a92 3abc 25f2 2cbc
00000150: bdde e5bd 450c 343e 823d fd3d 7445 5cbe
00000160: c91e 1f3e 1586 8c3d 5489 cbbd ae15 dcbd
00000170: 5874 d2bd 940e 12be 1956 3e3e 7d71 2abd
00000180: 4c0e c3bb 4408 23be dcac 2e3d 14d3 8c3b
00000190: 0ae7 e23c 7867 1f3e 2a65 0cbe d5cd dbbd
000001a0: 9f8e 6c3c 5efb 183d 7da6 023e 51f1 31bc
000001b0: 1c38 09bd 6361 413d 9c8b 443d c593 0c3e
000001c0: 15ed 0c3d 7fd7 c73d c5a6 ef3b 48c4 193e
000001d0: 14e1 203e 5d90 063e 49b9 c93c 4b5f 373e
000001e0: dcad d43d 4125 a5bd ae16 88bc 70a3 cdbd
000001f0: 39de de3b 5d2b 233d 2be0 07be e497 583e
00000200: d9e7 c83d 77d1 ebbd e9cc a7bd e96b c7bd
00000210: 11b7 6f3d 0339 d6bd a38d e03b cb6b 0cbe
00000220: 212a c939 7e1a 95bd efdf 203e 02cf 113e

model.rnn.bias_hh_l0 f4 [140]
0.23476596 -0.106679566 0.007615879 -0.0032095343 0.21274394 0.03996687 -0.063662164 0.04002632
0.20219798 0.02446337 -0.022691619 0.10782527 -0.104934335 0.035896085 -0.09309311 0.060137205
-0.05680761 -0.062374562 -0.004409531 0.111698255 0.014331565 -0.023992699 -0.037635695 0.10829263
0.17154968 0.061105672 0.013516009 0.041583057 0.18487091 0.18056314 0.02582551 0.1043604
-0.08780964 0.09265507 0.22184761 0.04691649 -0.12077397 -0.0025252658 0.029415637 0.015411576
-0.040249422 -0.0651527 0.16759653 0.10506787 -0.062296055 -0.06969573 0.00013177573 0.08595441
0.15929596 0.05390672 0.18446146 0.08211374 -0.013082593 0.1446779 -0.1618492 0.084227175
-0.033097174 0.11447768 -0.02324034 0.18257824 -0.09046955 0.129398 0.12104156 -0.029348522
-0.08310572 0.092611656 0.047029275 0.024444517 -0.16142036 0.06816083 0.15384896 0.058669463
-0.16807483 -0.03179119 -0.11565384 0.20259805 0.065925315 -0.07313266 -0.10130729 0.2003503
-0.068501785 -0.09250056 0.00084826123 -0.1474251 0.002283653 -0.028802851 0.08676185 0.11235284
0.12797098 0.08462006 -0.018279508 -0.016336747 -0.07216384 0.117662586 -0.071061596 0.13698493
-0.017845917 -0.037827186 0.15714195 0.013725856 0.094816715 -0.072899096 -0.050185166 -0.10300242
-0.11898501 0.05264555 0.12912184 -0.00921049 0.181052 -0.016097616 0.124004304 -0.1208947
0.20931663 0.09886014 -0.045776557 0.12665671 0.06430125 0.14019726 0.09677982 0.16130416
-0.059827782 0.18963422 0.0072294837 0.1551199 0.14435066 0.09277037 -0.08532037 0.0930302
-0.014813177 0.1985554 -0.07941144 0.18262242 -0.1069198 0.18580629 -0.036705565 0.16082379
0.062162507 -0.03463524 0.17500545 0.15946068
00000000: 7d66 703e d17a dabd a08e f93b 0d57 52bb
00000010: 8cd9 593e 4db4 233d 4f61 82bd a3f2 233d
00000020: fd0c 4f3e 6867 c83c c6e3 b9bc 7fd3 dc3d
00000030: d0e7 d6bd c607 133d 9aa7 bebd 6e52 763d
00000040: 19af 68bd 787c 7fbd d47d 90bb 0ec2 e43d
00000050: f1ce 6a3c 568c c4bc e327 1abd 87c8 dd3d
00000060: b8aa 2f3e f149 7a3d 4072 5d3c ff52 2a3d
00000070: cd4e 3d3e 8be5 383e 0590 d33c e8ba d53d
00000080: 8ad5 b3bd f1c1 bd3d 052c 633e 812b 403d
00000090: 5858 f7bd ee7e 25bb 10f9 f03c d680 7c3c
000000a0: 94dc 24bd c76e 85bd 6d9e 2b3e d32d d73d
000000b0: 262a 7fbd a3bc 8ebd 472d 0a39 de08 b03d
000000c0: 7b1e 233e 4bcd 5c3d 77e3 3c3e 402b a83d
000000d0: 5f58 56bc 7226 143e ccbb 25be 4c7f ac3d
000000e0: e790 07bd 4673 ea3d 8762 bebc caf5 3a3e
000000f0: 1948 b9bd e980 043e a3e4 f73d 506c f0bc
00000100: 5533 aabd 2eab bd3d c5a1 403d de3f c83c
00000110: 614b 25be e897 8b3d 958a 1d3e 644f 703d
00000120: cf1b 2cbe 7b37 02bd ecdb ecbd dd75 4f3e
00000130: da03 873d 93c6 95bd 327a cfbd a128 4d3e
00000140: aa4a 8cbd ef70 bdbd d95d 5e3a 9bf6 16be
00000150: 57a9 153b f5f3 ebbc 32b0 b13d 3f19 e63d
00000160: d30a 033e 484d ad3d e8be 95bc a4d4 85bc
00000170: a3ca 93bd 15f9 f03d be88 91bd c745 0c3e
00000180: 9a31 92bc aef0 1abd d2e9 203e 6ae2 603c
00000190: 442f c23d 1f4c 95bd f68e 4dbd eff2 d2bd
000001a0: 6aae f3bd dca2 573d 8438 043e 98e7 16bc
000001b0: b265 393e 26df 83bc f8f5 fd3d a497 f7bd
000001c0: 1957 563e 2f77 ca3d 3380 3bbd 4cb2 013e
000001d0: 60b0 833d df8f 0f3e 8034 c63d eb2c 253e
000001e0: fa0d 75bd 792f 423e 4ee5 ec3b c0d7 1e3e
000001f0: a9d0 133e 64fe bd3d 72bc aebd 9e86 be3d
00000200: f8b2 72bc 1b52 4b3e 77a2 a2bd 5f01 3b3e
00000210: c5f8 dabd 0144 3e3e 9358 16bd feae 243e
00000220: 1d9e 7e3d aedd 0dbd a134 333e a949 233e

model.rnn.weight_ih_l1 f4 [140, 35]
0.16705465 -0.21553716 -0.17652528 0.108012035 0.16048123 0.10220029 0.010135745 -0.077713646
0.068068735 -0.04647841 -0.065632 -0.09729945 -0.0036064063 0.1504967 -0.04066321 -0.041721605
0.1271113 0.030879678 -0.054398544 0.03619311 0.085485406 -0.044662446 0.04434343 0.13482797
-0.08208719 -0.12038938 0.09915076 -0.14461598 -0.109520465 0.13765606 -0.044659678 0.18775032
-0.07889811 0.07958847 0.09737153 0.019413264 -0.05233148 0.062173177 -0.19721042 0.16816755
0.050107032 -0.10104808 0.12685294 -0.047962405 -0.07925647 0.123731285 -0.04643195 -0.0880652
-0.094575234 0.077115715 0.13671583 -0.18764302 0.019177122 0.11202523 -0.10183101 -0.033757802
0.10782773 -0.13433403 -0.098325014 0.0021809146 0.057103913 -0.06274594 -0.03823065 0.14594528
-0.12329552 0.011163418 -0.054687116 -0.15615349 0.078776516 -0.10999223 0.04263012 -0.09257606
-0.1984491 -0.0638974 -0.043942895 0.08948384 0.16951504 0.11935942 0.1206338 0.18311875
0.12964767 0.10607887 0.0053707627 0.03357285 0.13405287 0.006021381 0.0065614823 0.016224908
0.1864736 -0.1429523 0.14955612 -0.10160378 -0.11910785 -0.16537161 0.06973927 0.06684076
0.0962979 0.06523748 -0.12772164 -0.18383381 -0.051037233 -0.049281336 0.032755174 0.16015515
0.0998562 0.06320213 0.021443205 -0.12434853 -0.11845705 -0.20845671 0.12640132 0.10483096
-0.039240614 0.118377626 0.060839955 -0.20617884 0.039797567 -0.071581095 0.14137532 -0.007496556
0.0016139492 0.05234631 0.009239946 0.13327321 0.17223802 0.13685824 -0.03817526 -0.07025187
-0.15587085 0.09075273 -0.14419161 -0.08704718 -0.045259822 0.02768663 0.01962676 0.10716176
-0.04663564 -0.08056081 0.12730168 -0.08266105 -0.028448213 -0.0007554547 -0.22182767 0.05986511
-0.02633785 0.07009974 0.13620724 -0.019102957 0.0831419 -0.09321278 0.037740164 -0.14376447
0.04017403 0.09026864 0.09793565 0.068366304 -0.030967642 -0.13940892 -0.117719434 -0.0139927985
-0.07447031 -0.07069845 0.13883346 -0.15116628 -0.08004452 0.14523834 -0.12843136 0.06822525
0.03610625 0.0028504068 0.085877955 -0.014173887 -0.10242552 -0.09515249 0.1594914 0.09292707
-0.11620282 -0.18898167 0.015037008 -0.033665854 -0.106584534 -0.008561195 -0.118210524 -0.06789968
0.038626462 0.15837249 0.029231906 -0.12385031 -0.023271518 -0.0874909 -0.1265214 0.21231326
-0.00472521 -0.085080266 -0.03079471 -0.06292512 -0.12866409 -0.093902156 -0.0016413548 -0.061706435
-0.1767432 -0.0014676653 -0.21469694 0.102922894 -0.03868356 0.0029186371 0.063350044 -0.14359048
0.055996776 -0.030234344 0.038312428 0.06842077 -0.114183865 -0.041903097 0.11906957 0.11778959
-0.028816815 -0.19430102 0.04973201 0.10881283 0.022019297 -0.11025117 0.08672686 -0.14144728
-0.21146469 0.19227012 0.11733047 0.0342727 -0.084091425 0.0052608126 0.05846134 0.011497436
0.17723806 -0.090936385 0.029605675 -0.109719954 -0.11520145 0.06944605 -0.03883236 0.11423758
0.074532986 -0.0021048512 0.10690078 -0.095461965 -0.07626053 -0.090512775 0.13323137 -0.04102301
-0.13477212 0.09616928 0.17778416 -0.001132891 0.14616454 0.021066638 0.15230009 0.02216966
00000000: 6010 2b3e c6b5 5cbe 0bc3 34be 6a35 dd3d
00000010: 3155 243e 634e d13d 6510 263c 5528 9fbd
00000020: 9f67 8b3d 2560 3ebd 126a 86bd ef44 c7bd
00000030: 7559 6cbb cf1b 1a3e 778e 26bd 46e4 2abd
00000040: 7729 023e 61f7 fc3c 02d1 5ebd 3a3f 143d
00000050: f912 af3d f8ef 36bd 75a1 353d 5810 0a3e
00000060: 541d a8bd b58e f6bd 8e0f cb3d 3616 14be
00000070: 444c e0bd b6f5 0c3e 11ed 36bd 9f41 403e
00000080: 5595 a1bd 48ff a23d ba6a c73d 9108 9f3c
00000090: 8959 56bd 4da9 7e3d 87f1 49be 1d34 2c3e
000000a0: 083d 4d3d 4cf2 cebd bde5 013e 3a74 44bd
000000b0: 3751 a2bd d466 fd3d 6e2f 3ebd 875b b4bd
000000c0: a9b0 c1bd d8ee 9d3d 3cff 0b3e 7e25 40be
000000d0: 5719 9d3c 7c6d e53d c78c d0bd 9f45 0abd
000000e0: c9d4 dc3d dc8e 09be a05e c9bd aded 0e3b
000000f0: cbe5 693d f280 80bd be97 1cbd ae72 153e
00000100: 5d82 fcbd c5e6 363c 99ff 5fbd b3e6 1fbe
00000110: 9555 a13d 9b43 e1bd ec9c 2e3d 8498 bdbd
00000120: 3e36 4bbe a4dc 82bd 77fd 33bd 4e43 b73d
00000130: 5a95 2d3e b672 f43d db0e f73d 7b83 3b3e
00000140: 5cc2 043e e13f d93d 39fd af3b af83 093d
00000150: 2845 093e 014f c53b b401 d73b 19ea 843c
00000160: eff2 3e3e 1662 12be 3d25 193e a515 d0bd
00000170: d1ee f3bd 2d57 29be 76d3 8e3d cfe3 883d
00000180: d537 c53d 3a9b 853d 76c9 02be ee3e 3cbe
00000190: 6b0c 51bd 3adb 49bd 4a2a 063d b6ff 233e
000001a0: 6881 cc3d 1e70 813d a9a9 af3c 71aa febd
000001b0: 9c99 f2bd ad75 55be 596f 013e 9db1 d63d
000001c0: c4ba 20bd f86f f23d 5133 793d 8c20 53be
000001d0: c602 233d 1c99 92bd b1c4 103e aba5 f5bb
000001e0: 268b d33a 1669 563d 2463 173c c678 083e
000001f0: 2a5f 303e 9124 0c3e a95d 1cbd 36e0 8fbd
00000200: 9c9c 1fbe 91dc b93d f7a6 13be cb45 b2bd
00000210: 5d62 39bd 12cf e23c 4dc8 a03c a077 db3d
00000220: 0305 3fbd 11fd a4bd 5f5b 023e 324a a9bd
00000230: 3a0c e9bc b509 46ba cb26 63be 1e35 753d
00000240: 7ac2 d7bc 7490 8f3d e979 0b3e ce7d 9cbc
00000250: 4d46 aa3d 58e6 bebd 6e95 1a3d fe36 13be
00000260: 868d 243d c4de b83d 7c92 c83d a203 8c3d
00000270: daaf fdbc 36c1 0ebe e316 f1bd 0d42 65bc
00000280: e483 98bd 59ca 90bd 5c2a 0e3e 55cb 1abe
00000290: 62ee a3bd 5cb9 143e 8383 03be aeb9 8b3d
000002a0: 26e4 133d e4cd 3a3b c8e0 af3d 9739 68bc
000002b0: 79c4 d1bd 4fdf c2bd b751 233e 8c50 be3d
000002c0: befb edbd 6984 41be c85d 763c 35e5 09bd
000002d0: fe48 dabd 4144 0cbc 5c18 f2bd fd0e 8bbd
000002e0: c836 1e3d 662c 223e c077 ef3c 3ba5 fdbd
000002f0: e9a3 bebc 6e2e b3bd d38e 01be a668 593e
00000300: efd5 9abb 903e aebd 3045 fcbc e3de 80bd
00000310: 85c0 03be c64f c0bd ba22 d7ba e3bf 7cbd
00000320: 2bfc 34be ad5e c0ba 84d9 5bbe 3dc9 d23d
00000330: a772 1ebd 9b46 3f3b abbd 813d 6209 13be
00000340: e05c 653d 04ae f7bc 7eed 1c3d 3020 8c3d
00000350: 3bd9 e9bd 95a2 2bbd bfda f33d ab3b f13d
00000360: 3e11 ecbc d9f6 46be cbb3 4b3d 43d9 de3d
00000370: d061 b43c 5ecb e1bd da9d b13d 8ed7 10be
00000380: 338a 58be 75e2 443e f54a f03d 8861 0c3d
00000390: 2038 acbd e562 ac3b 2875 6f3d be5f 3c3c
000003a0: e57d 353e db3c babd 9a87 f23c dbb4 e0bd
000003b0: bdee ebbd bb39 8e3d ae0e 1fbd 64f5 e93d
000003c0: c0a4 983d 8bf1 09bb ccee da3d 9081 c3bd
000003d0: 7b2e 9cbd c35e b9bd ce6d 083e be07 28bd
000003e0: b401 0abe 66f4 c43d 0d0d 363e 847d 94ba
000003f0: 28ac 153e f193 ac3c 8ef4 1b3e 269d b53c

model.rnn.weight_hh_l1 f4 [140, 35]
-0.030903181 -0.014785372 -0.16167268 0.01829564 -0.08306528 -0.16101542 -0.08168961 -0.12097607
0.006521818 -0.034846097 -0.07638308 0.07398816 -0.17325571 -0.09774751 -0.02763348 0.04630894
-0.19739458 0.14366364 -0.20308904 -0.1089748 0.11551865 0.075694874 0.12046604 0.009321032
-0.07855143 0.1004677 0.030548481 -0.053893007 -0.00051780575 0.052978143 -0.062011268 0.09777142
-0.034311768 0.1056976 0.09936316 0.124817066 -0.014332474 -0.031773403 0.17350522 0.1954114
0.10382855 -0.1551116 -0.029920535 -0.019585602 0.033537827 0.19864288 -0.0650578 0.12573409
0.064836055 0.0954676 0.07850297 0.03314244 -0.00074650306 0.081853144 -0.19662262 0.021074591
0.023379145 0.09630844 -0.019525617 -0.11187358 0.03954797 0.15277544 0.0016731865 -0.094995305
-0.02495645 -0.17593662 0.109943636 0.13218999 0.14846593 -0.042888373 0.04065936 -0.049159523
0.02235611 -0.008137078 -0.090032056 -0.09715964 0.10016126 0.15994786 0.10809328 -0.033342388
0.025903476 0.11448942 -0.17004415 -0.15701035 0.008230138 0.16010915 0.0633309 0.13747415
-0.0371814 0.003019848 0.16472231 -0.054062825 -0.009680827 0.12286847 0.18104263 0.18876092
-0.20898308 0.077438176 0.017275432 -0.17135692 0.0034722574 -0.21323803 -0.088394806 -0.12676002
0.11413971 0.17872813 0.06374495 -0.1712461 -0.17194743 0.056178864 -0.041923825 0.14020316
-0.063142866 -0.022087289 -0.10058523 0.0185956 -0.031420715 -0.18305387 0.032098893 -0.0035849696
0.16293474 -0.029448168 -0.10483193 -0.13676773 0.056648385 0.099718 -0.10135687 0.026477085
0.09795252 -0.019830974 0.049511634 0.065211765 0.0940792 -0.042558227 0.06306396 0.05116034
-0.15780866 -0.03305666 -0.15727606 -0.12305273 0.0550629 0.0060859495 0.022765165 0.08336053
0.02363919 -0.09790637 0.021246452 -0.07023896 0.105695255 -0.019896375 0.07711322 -0.1715424
0.0839574 -0.10007622 -0.016308345 0.052134845 -0.07601678 0.06626145 -0.04778535 -0.008618836
-0.06809717 0.15168753 0.18618445 0.07898606 -0.005237337 0.13180937 0.054430656 -0.1330902
0.06258156 0.045788478 -0.040270116 -0.03301362 -0.030910483 -0.009528157 0.10977571 0.030076444
-0.0018531146 -0.012238474 -0.08517016 0.096341215 -0.090961315 0.08483381 -0.0030715899 -0.15028018
0.18207008 -0.19379377 0.17088528 -0.08311256 -0.06768869 0.12542655 0.05040602 0.086902834
-0.047104333 -0.10141864 -0.0017662862 0.15898666 0.011471755 0.011131037 0.17519863 -0.03147904
0.15824136 0.2119946 0.110273 0.017304517 0.16024087 0.15099731 -0.013720074 -0.049296275
0.10611866 -0.030752836 -0.011998324 -0.06239322 0.00085029606 0.010173754 -0.14555873 -0.023442507
0.1525964 0.16656722 0.053381335 -0.08375998 -0.04002282 0.033940554 -0.20114744 -0.09901317
-0.15336192 -0.04436573 -0.055739224 0.06932539 0.047746222 -0.12687877 0.05079984 -0.078004636
0.19755138 -0.052390553 0.007515588 -0.032646015 -0.18384019 0.08382015 0.09592327 -0.16077754
0.09014792 0.025367469 -0.14452828 0.034027163 -0.058667347 0.112279184 0.035728276 0.08317404
0.09298475 0.0884385 -0.08848458 0.013083753 0.0093429675 0.005004725 0.06582764 0.14762287
00000000: ab28 fdbc 583e 72bc 868d 25be bde0 953c
00000010: 211e aabd 3ae1 24be e24c a7bd 4dc2 f7bd
00000020: fab4 d53b c8ba 0ebd bb6e 9cbd 1b87 973d
00000030: f269 31be d92f c8bd 9c5f e2bc 71ae 3d3d
00000040: ce21 4abe 901c 133e 93f6 4fbe 2e2e dfbd
00000050: 0b95 ec3d ea05 9b3d e6b6 f63d 3eb7 183c
00000060: 92df a0bd 02c2 cd3d cf40 fa3c eabe 5cbd
00000070: 5bbd 07ba 9cff 583d 87ff 7dbd 623c c83d
00000080: 7f8a 0cbd fc77 d83d ea7e cb3d 17a0 ff3d
00000090: c1d2 6abc d424 02bd 5aab 313e ed19 483e
000000a0: 10a4 d43d 93d5 1ebe e91b f5bc fc71 a0bc
000000b0: f65e 093d 0a69 4b3e 063d 85bd 70c0 003e
000000c0: c4c8 843d 8484 c33d 2ac6 a03d 5ec0 073d
000000d0: f9b0 43ba 9fa2 a73d 7157 49be 9fa4 ac3c
000000e0: 9f85 bf3c 5c3d c53d 30f4 9fbc fa1d e5bd
000000f0: 0dfd 213d 2a71 1c3e d34e db3a e68c c2bd
00000100: 7871 ccbc bb28 34be 212a e13d d05c 073e
00000110: 7407 183e b8ab 2fbd 6e8a 263d 7f5b 49bd
00000120: 2924 b73c 6151 05bc ba62 b8bd a2fb c6bd
00000130: 5921 cd3d 5fc9 233e 0260 dd3d 0792 08bd
00000140: 8733 d43c 6e79 ea3d 0e20 2ebe 52c7 20be
00000150: b3d7 063c a7f3 233e a2b3 813d 06c6 0c3e
00000160: 864b 18bd a4e8 453b f7ac 283e fb70 5dbd
00000170: 559c 1ebc 77a2 fb3d 3d63 393e 8b4a 413e
00000180: a9ff 55be e897 9e3d 3585 8d3c 3078 2fbe
00000190: d08e 633b 125b 5abe 5608 b5bd 61cd 01be
000001a0: 15c2 e93d 8204 373e b68c 823d 235b 2fbe
000001b0: fd12 30be cf1b 663d 51b8 2bbd 6b91 0f3e
000001c0: 0c51 81bd 67f0 b4bc a1ff cdbd cd55 983c
000001d0: 02b3 00bd 7972 3bbe 217a 033d cff1 6abb
000001e0: 5dd8 263e 493d f1bc 1fb2 d6bd d70c 0cbe
000001f0: 2308 683d f338 cc3d 3194 cfbd 79e6 d83c
00000200: 559b c83d 9174 a2bc b6cc 4a3d bf8d 853d
00000210: 98ac c03d 8951 2ebd ad27 813d 818d 513d
00000220: 9898 21be 6c66 07bd fa0c 21be 1203 fcbd
00000230: a389 613d a56c c73b 037e ba3c edb8 aa3d
00000240: f9a6 c13c 2383 c8bd 0a0d ae3c 72d9 8fbd
00000250: c176 d83d b9fd a2bc 89ed 9d3d d0a8 2fbe
00000260: dbf1 ab3d c3f4 ccbd 1499 85bc 598b 553d
00000270: b0ae 9bbd 15b4 873d 92ba 43bd 0536 0dbc
00000280: 8776 8bbd fa53 1b3e 23a7 3e3e 72c3 a13d
00000290: f89d abbb 09f9 063e aef2 5e3d cc48 08be
000002a0: c32a 803d b38c 3b3d 47f2 24bd 4a39 07bd
000002b0: fb37 fdbc fd1b 1cbc 16d2 e03d e062 f63c
000002c0: 35e4 f2ba e183 48bc b16d aebd 8b4e c53d
000002d0: ed49 babd 59bd ad3d ba4c 49bb 0ce3 19be
000002e0: 9470 3a3e e071 46be 8dfc 2e3e eb36 aabd
000002f0: 5ea0 8abd d16f 003e 8b76 4e3d 1dfa b13d
00000300: 79f0 40bd 93b4 cfbd bb82 e7ba 66cd 223e
00000310: 07f4 3b3c f45e 363c 4567 333e 2af0 00bd
00000320: 060a 223e 1d15 593e d0d6 e13d 34c2 8d3c
00000330: 2f16 243e 0a9f 1a3e 29ca 60bc e4ea 49bd
00000340: bd54 d93d 5fed fbbc 9e94 44bc 0890 7fbd
00000350: 67e6 5e3a d1af 263c 590d 15be 800a c0bc
00000360: 3b42 1c3e 9990 2a3e 63a6 5a3d 5a8a abbd
00000370: f8ee 23bd 4005 0b3d 98f9 4dbe 6bc7 cabd
00000380: e80a 1dbe d7b8 35bd d04e 64bd 78fa 8d3d
00000390: 8b91 433d 82ec 01be 7e13 503d e5c0 9fbd
000003a0: e94a 4a3e 7a97 56bd 5245 f63b d4b7 05bd
000003b0: 9a40 3cbe e6a9 ab3d 6b73 c43d dea2 24be
000003c0: 799f b83d 70cf cf3c 39ff 13be 1160 0b3d
000003d0: 2c4d 70bd a1f2 e53d d057 123d 2757 aa3d
000003e0: ca6e be3d 3f1f b53d 6737 b5bd 3d5d 563c
000003f0: 3f13 193c adfe a33b a4d0 863d 732a 173e

model.rnn.bias_ih_l1 f4 [140]
0.012766003 -0.07064683 0.19450176 0.12742479 0.06775954 -0.022728149 0.1501711 0.134883
-0.100613266 -0.086927414 0.16960797 0.18235116 -0.043018997 0.07874199 0.18161537 0.06489585
0.19690631 0.076595925 0.17574666 0.12601352 -0.076958165 0.038554132 0.12423495 0.06724202
0.20326178 -0.035107564 0.06619832 -0.08390007 -0.05875362 -0.10722643 0.01946422 -0.12079794
0.08681268 -0.072688974 0.010292797 0.015904859 -0.0017211044 0.046553403 0.028173644 0.095943525
-0.056020517 -0.04760988 0.10458284 0.18195473 0.1358102 -0.041810893 -0.08796469 -0.0807993
-0.04322153 -0.00876877 0.13304877 0.020500597 0.20491941 0.10948356 0.004819074 0.039411955
0.09558252 0.10277829 -0.07367016 -0.049122527 0.03875821 0.091030374 -0.046003938 0.16553581
-0.099339254 -0.004978705 0.10863423 0.0144308135 -0.07090218 0.021486856 0.20788038 0.036808167
-0.13639571 -0.20745666 -0.0015742237 -0.17280604 0.02021417 -0.012273957 -0.08878201 0.1346664
0.100374885 0.047967132 -0.1337758 -0.049444623 -0.09263176 -0.10505222 -0.122455694 -0.06437967
-0.09211493 0.060459558 0.09712619 0.08095601 0.0020125282 0.01336599 -0.10663244 0.07301014
-0.18217473 0.11673031 0.15022627 0.093996175 0.119945385 0.02954834 -0.15223804 -0.11344455
-0.05354475 0.029446986 0.1028117 0.18561724 0.07007409 -0.10143521 0.20241837 0.20767424
0.11139889 0.17286368 0.104070395 0.19863474 0.1383895 0.12460961 0.11201329 -0.05224209
-0.07732325 -0.022672283 0.066008635 0.1728329 0.1754982 0.1068415 -0.022327399 0.085241154
-0.002836532 0.15964027 -0.07341415 -0.11503847 -0.04816835 0.14068441 -0.061323486 -0.072398424
0.059076265 0.09305338 -0.028299233 0.08695926
00000000: 7f28 513c 49af 90bd 782b 473e a57b 023e
00000010: 84c5 8a3d 6230 babc 74c6 193e c51e 0a3e
00000020: 540e cebd 0007 b2bd b6ad 2d3e 43ba 3a3e
00000030: b034 30bd 7b43 a13d 61f9 393e 1ee8 843d
00000040: cfa1 493e 53de 9c3d eff6 333e b009 013e
00000050: 3e9c 9dbd f0ea 1d3d e56e fe3d 2fb6 893d
00000060: db23 503e f3cc 0fbd fc92 873d cdd3 abbd
00000070: a3a7 70bd 8899 dbbd 6e73 9f3c e964 f7bd
00000080: d9ca b13d f5dd 94bd 1fa3 283c e84a 823c
00000090: ae96 e1ba c8ae 3e3d 6acc e63c 0a7e c43d
000000a0: c575 65bd 9402 43bd 872f d63d 5752 3a3e
000000b0: d411 0b3e e641 2bbd d526 b4bd 1a7a a5bd
000000c0: 0f09 31bd e3aa 0fbc f03d 083e def0 a73c
000000d0: 65d6 513e eb38 e03d 53e9 9d3b 6e6e 213d
000000e0: c5c0 c33d 6d7d d23d 61e0 96bd b434 49bd
000000f0: eec0 1e3d 226e ba3d a06e 3cbd 3882 293e
00000100: 6172 cbbd 6824 a3bb a07b de3d 386f 6c3c
00000110: 2a35 91bd 3405 b03c 98de 543e 29c4 163d
00000120: 51ab 0bbe 856f 54be 2f56 ceba 11f4 30be
00000130: 3098 a53c b518 49bc 58d3 b5bd fde5 093e
00000140: 5991 cd3d 2f79 443d 86fc 08be 7286 4abd
00000150: b8b5 bdbd 9e25 d7bd 0dca fabd 7dd9 83bd
00000160: c1a6 bcbd 71a4 773d 19ea c63d 44cc a53d
00000170: 9fe4 033b 06fd 5a3c 1c62 dabd 5786 953d
00000180: 038c 3abe 4d10 ef3d ead4 193e 1181 c03d
00000190: eda5 f53d 5c0f f23c 4ae4 1bbe 9e55 e8bd
000001a0: bd51 5bbd ce3a f13c f18e d23d 7212 3e3e
000001b0: 0183 8f3d 43bd cfbd c346 4f3e 8ea8 543e
000001c0: 1a25 e43d 2d03 313e dc22 d53d e866 4b3e
000001d0: fab5 0d3e 5333 ff3d 3967 e53d cdfb 55bd
000001e0: a75b 9ebd 39bb b9bc 892f 873d 1cfb 303e
000001f0: cdb5 333e b7cf da3d f3e7 b6bc ea92 ae3d
00000200: 1ce5 39bb bd78 233e 285a 96bd 4a99 ebbd
00000210: 2d4c 45bd 930f 103e 562e 7bbd a045 94bd
00000220: f4f9 713d c592 be3d cbd3 e7bc b217 b23d

model.rnn.bias_hh_l1 f4 [140]
-0.020105831 0.055913493 0.12858205 0.13905647 -0.07078945 0.041821804 -0.10785225 0.0050037517
0.04089782 -0.022991069 -0.014792022 0.14681126 0.028482001 0.009828695 0.019264888 0.17854802
-0.11281274 0.14314194 -0.0062084836 0.036118742 -0.12995188 0.06805737 -0.099321604 0.17999418
-0.09346067 0.120568626 0.093568064 0.10751547 -0.05691861 -0.022465449 0.08489798 0.09578053
-0.044719122 0.049766116 0.022061363 0.052846152 -0.072647855 -0.0057339272 0.08568543 -0.088661715
0.17432207 0.12420819 -0.033158015 -0.0111479135 0.121849865 0.027169788 -0.08588907 -0.014392496
0.16089684 0.05030277 0.067392424 -0.10478337 0.069960974 -0.013998043 0.1492972 -0.12279288
-0.102263026 0.014921936 0.09351213 0.119433366 0.18120274 0.09775172 0.12943576 0.03630782
0.09707957 -0.010349624 0.047460724 -0.055635408 -0.028764127 0.010077606 0.0027348034 -0.18337093
-0.0074971803 0.05199653 0.12755942 -0.11297173 0.10897242 0.022861153 0.0090467045 0.004969973
-0.10474733 0.12641312 0.005964981 -0.004425868 0.13703173 -0.051095363 0.15329497 -0.07662076
0.19901979 -0.16611394 0.081536934 -0.13880074 -0.085963026 0.020528018 0.040216256 -0.15744618
0.1278282 0.1680513 0.015110224 0.04935075 -0.103773035 0.113304876 -0.07219323 -0.13695908
-0.11513334 0.11577122 -0.07313247 0.06175804 0.08029592 0.09058551 -0.047129877 -0.109940074
0.021832673 0.06437038 0.19143763 0.0817061 -0.11126047 0.14736736 0.098420575 -0.056624938
-0.030039273 0.1462958 0.17770566 0.013280306 0.02356351 0.046209097 -0.07269006 -0.0033356599
-0.11471264 0.22054902 -0.019616233 0.18548928 0.10568305 0.17183115 0.19190009 0.07800521
-0.026334226 0.19902255 -0.084865436 -0.077053614
00000000: fcb4 a4bc 8c05 653d 03ab 033e d264 0e3e
00000010: 0ffa 90bd 574d 2b3d a4e1 dcbd 83f6 a33b
00000020: 7984 273d c457 bcbc 3d5a 72bc b155 163e
00000030: 1653 e93c 8908 213c 66d1 9d3c 4bd5 363e
00000040: 5e0a e7bd cd93 123e 8970 cbbb 3ff1 133d
00000050: 1b12 05be aa61 8b3d 2069 cbbd 6550 383e
00000060: 4f68 bfbd afec f63d 9da0 bf3d 1231 dc3d
00000070: 7d23 69bd 7609 b8bc fede ad3d 9528 c43d
00000080: 662b 37bd 8ed7 4b3d 08ba b43c 3575 583d
00000090: 66c8 94bd abe3 bbbb d87b af3d 4694 b5bd
000000a0: 7c81 323e dd60 fe3d b3d0 07bd bda5 36bc
000000b0: 6c8c f93d 2d93 de3c 9ce6 afbd 81ce 6bbc
000000c0: 24c2 243e 470a 4e3d 0a05 8a3d aa98 d6bd
000000d0: b347 8f3d 0c58 65bc 5de1 183e d57a fbbd
000000e0: 476f d1bd 237b 743c 4a83 bf3d 7b99 f43d
000000f0: 368d 393e 0e32 c83d cf8a 043e 82b7 143d
00000100: a7d1 c63d 7891 29bc 2d66 423d f4e1 63bd
00000110: bfa2 ebbc 8b1c 253c 633a 333b 97c5 3bbe
00000120: e8aa f5bb 50fa 543d f09e 023e b95d e7bd
00000130: ef2c df3d 5047 bb3c a138 143c 28db a23b
00000140: c585 d6bd 7172 013e e375 c33b df06 91bb
00000150: 0c52 0c3e 5f49 51bd 5bf9 1c3e 58eb 9cbd
00000160: d8cb 4b3e c619 2abe d6fc a63d c821 0ebe
00000170: 620d b0bd 602a a83c cdb9 243d 9239 21be
00000180: 65e5 023e a415 2c3e df90 773c 0324 4a3d
00000190: f586 d4bd 630c e83d 0bda 93bd 003f 0cbe
000001a0: 07cb ebbd 7619 ed3d 7ac6 95bd 00f6 7c3d
000001b0: 3072 a43d e584 b93d 420b 41bd 4328 e1bd
000001c0: 6fda b23c 9ed4 833d 3a08 443e 8755 a73d
000001d0: 87dc e3bd 78e7 163e ba90 c93d 8def 67bd
000001e0: ec14 f6bc 91ce 153e 79f8 353e a495 593c
000001f0: 4308 c13c c045 3d3d 87de 94bd 169b 5abb
00000200: 76ee eabd 9ad7 613e 39b2 a0bc e7f0 3d3e
00000210: 5b70 d83d 81f4 2f3e 7581 443e 32c1 9f3d
00000220: e0ba d7bc 91cc 4b3e eecd adbd 49ce 9dbd

model.rnn.weight_ih_l2 f4 [140, 35]
-0.050030723 0.097427435 -0.110600784 -0.025753638 -0.08828578 0.024137575 0.0072832955 0.04771757
-0.059237126 -0.1855517 0.1329769 0.056670513 0.12030447 -0.09011935 0.021879258 0.026951656
0.15662375 -0.073502325 -0.07235066 -0.13272777 0.029923132 -0.17938411 0.009276549 -0.15932813
-0.06723085 -0.028516065 0.19587354 0.030897727 0.118244044 0.04049992 -0.10248389 -0.016657807
0.14926669 -0.1252684 -0.09547286 -0.020082548 -0.03967933 -0.20286055 -0.027079169 -0.1169076
-0.14254446 0.041564357 -0.050767362 0.068862006 -0.03878606 -0.2006482 0.19009462 -0.008151799
-0.11855385 -0.108314864 -0.08930269 -0.041570794 -0.20578082 0.08047425 -0.02564072 0.11483399
0.061457213 0.11290518 0.029485445 -0.14690384 -0.082513355 0.025950646 0.05941284 0.0049921866
0.13868013 -0.12431481 0.067416765 -0.026804954 0.093287796 -0.106779635 0.19128993 -0.14135323
-0.094267696 0.036616318 -0.02185941 0.032465428 0.078329645 -0.009488917 -0.22112732 0.14078453
-0.044813167 0.20419177 -0.1359082 -0.049156625 -0.062748104 0.14683115 0.011847119 0.091079816
-0.12698106 -0.013256761 0.10090985 0.08579002 0.029001478 0.08509483 0.02104746 0.05186886
-0.042407967 0.123974435 -0.11724088 0.18155177 0.028454723 0.16036235 -0.16653676 -0.18835938
-0.097736314 0.12038767 -0.04627553 -0.124602206 0.05748111 -0.05679779 -0.047328502 0.002224845
0.13000765 -0.014704019 -0.072060905 -0.022145422 -0.009562826 -0.029813536 -0.10322657 0.023989286
0.010782168 0.07934078 0.010658724 0.02341802 -0.0049644206 -0.08668246 -0.122211926 -0.0524589
-0.053201616 0.043900367 -0.0886868 0.040129125 0.024240846 0.07407732 -0.022465985 -0.0071963216
-0.014730868 -0.03573019 -0.070843786 0.05138848 0.12769903 -0.15961541 0.050093994 0.08947291
-0.08457479 -0.19910751 0.14372854 0.09179639 0.055082332 -0.036755316 -0.14486346 -0.08772402
0.06510152 -0.03074721 0.024586849 -0.005249648 -0.046810094 -0.19402067 -0.10528128 -0.039819356
-0.017228514 -0.14820726 -0.053022813 0.1114935 0.10699435 0.020089487 0.00727914 0.04403941
0.09299634 -0.10175054 -0.18959554 -0.11909796 0.119725965 0.107153736 -0.11306626 0.12969653
0.06874389 -0.04445813 -0.1309252 0.118159324 -0.14768821 0.026647998 -0.16988966 -0.15554723
0.16448553 -0.18606377 -0.20846227 0.13085377 -0.1342289 0.057113037 0.19764113 0.038950823
0.07148475 0.078244396 0.14716429 0.15078889 0.11382234 0.15415153 -0.0056851464 0.013728548
0.046562217 0.073188186 -0.06896778 0.107019044 -0.0010564151 0.0062688575 -0.029583162 0.096499115
-0.13501418 -0.10478784 -0.07345824 0.07021491 0.062339272 0.088161714 0.07642242 0.010721374
-0.113020316 0.14000145 -0.176093 -0.11181642 -0.035404827 -0.08358137 -0.11440979 0.10233737
0.1507238 0.15088318 -0.03693816 0.10568681 0.101226404 -0.17399822 -0.055087984 0.10858087
0.15521398 0.09745211 -0.14460005 -0.17681198 -0.08683268 -0.08033658 0.12425543 -0.11844555
0.03535835 0.047183756 -0.09917817 0.10597337 0.06382301 0.055118214 0.016723966 -0.010723769
-0.16581905 0.08137255 -0.11162116 -0.1204874 0.0143874 -0.046159223 -0.049861677 0.12780842
00000000: 04ed 4cbd 0988 c73d aa82 e2bd 4bf9 d2bc
00000010: 2dcf b4bd 2abc c53c b6a8 ee3b 8073 433d
00000020: a1a2 72bd 4401 3ebe 192b 083e 571f 683d
00000030: 3162 f63d 7e90 b8bd 213c b33c b8c9 dc3c
00000040: fa61 203e 6388 96bd 952c 94bd cae9 07be
00000050: 5b21 f53c 78b0 37be abfc 173c ea26 23be
00000060: 54b0 89bd 869a e9bc 1393 483e 3b1d fd3c
00000070: ef29 f23d 3ee3 253d 13e3 d1bd f475 88bc
00000080: 5ed9 183e 5c46 00be 4687 c3bd 2884 a4bc
00000090: cb86 22bd adba 4fbe 22d5 ddbc 406d efbd
000000a0: 2df7 11be 633f 2a3d 70f1 4fbd 8607 8d3d
000000b0: 22de 1ebd b976 4dbe 2aa8 423e 208f 05bc
000000c0: 5ccc f2bd 2fd4 ddbd 54e4 b6bd 2346 2abd
000000d0: 35b8 52be afcf a43d 7d0c d2bc 152e eb3d
000000e0: 8fba 7b3d d53a e73d 768b f13c f66d 16be
000000f0: c3fc a8bd 7396 d43c e15a 733d 7f95 a33b
00000100: 2a02 0e3e c398 febd cd11 8a3d 1096 dbbc
00000110: ac0d bf3d 48af dabd 82e1 433e e7be 10be
00000120: 6c0f c1bd fefa 153d 8112 b3bc 78fa 043d
00000130: 4b6b a03d 6777 1bbc 336f 62be d229 103e
00000140: 038e 37bd a617 513e 852b 0bbe 7558 49bd
00000150: 1482 80bd e85a 163e 6b1a 423c 0e88 ba3d
00000160: 5307 02be e332 59bc d3a9 ce3d aeb2 af3d
00000170: 8294 ed3c 3346 ae3d b96b ac3c 7174 543d
00000180: fab3 2dbd 4fe6 fd3d fd1b f0bd b5e8 393e
00000190: e119 e93c 0736 243e 9d88 2abe 48e1 40be
000001a0: fa29 c8bd d08d f63d 698b 3dbd 712f ffbd
000001b0: 5071 6b3d cda4 68bd 88db 41bd b5ce 113b
000001c0: ba20 053e 20e9 70bc ab94 93bd 516a b5bc
000001d0: 66ad 1cbc 843b f4bc 7468 d3bd 2e85 c43c
000001e0: b1a7 303c 6b7d a23d eea1 2e3c 26d7 bf3c
000001f0: 94ac a2bb 9386 b1bd 3f4a fabd 25df 56bd
00000200: f0e9 59bd dfd0 333d 6da1 b5bd 705e 243d
00000210: bd94 c63c dab5 973d 960a b8bc 1fcf ebbb
00000220: bd59 71bc d259 12bd 8c16 91bd ba7c 523d
00000230: 89c3 023e 3972 23be 5c2f 4d3d 933d b73d
00000240: 8c35 adbd d7e2 4bbe 932d 133e bfff bb3d
00000250: 039e 613d be8c 16bd 1657 14be a7a8 b3bd
00000260: f253 853d 93e1 fbbc 5c6a c93c 3d05 acbb
00000270: f1bb 3fbd 5bad 46be b69d d7bd 9f19 23bd
00000280: d022 8dbc a5c3 17be 732e 59bd b456 e43d
00000290: db1f db3d b592 a43c da85 ee3b ab62 343d
000002a0: dd74 be3d 9662 d0bd 5525 42be a2e9 f3bd
000002b0: e332 f53d 6b73 db3d 498f e7bd 2bcf 043e
000002c0: 99c9 8c3d ba19 36bd 4111 06be 84fd f13d
000002d0: 943b 17be e74c da3c 8ef7 2dbe c647 1fbe
000002e0: e56e 283e 8087 3ebe 2277 55be 88fe 053e
000002f0: 4d73 09be 5cef 693d 7062 4a3e e68a 1f3d
00000300: 9966 923d 993e a03d 3cb2 163e 6768 1a3e
00000310: b01b e93d e6d9 1d3e 774a babb b4ed 603c
00000320: 06b8 3e3d b0e3 953d fb3e 8dbd cd2c db3d
00000330: 6977 8aba fd6a cd3b 6358 f2bc 54a1 c53d
00000340: 2841 0abe 029b d6bd 4671 96bd d6cc 8f3d
00000350: 7757 7f3d 218e b43d 5c83 9c3d b4a8 2f3c
00000360: 3277 e7bd 8a5c 0f3e b951 34be 0200 e5bd
00000370: a704 11bd b62c abbd ae4f eabd 4196 d13d
00000380: 5757 1a3e 1f81 1a3e 784c 17bd 5472 d83d
00000390: ca4f cf3d 972c 32be f0a3 61bd a65f de3d
000003a0: 6af0 1e3e f994 c73d 0912 14be 330e 35be
000003b0: 55d5 b1bd 8187 a4bd a279 fe3d 9593 f2bd
000003c0: ebd3 103d c143 413d ed1d cbbd 9108 d93d
000003d0: a3b5 823d a3c3 613d b300 893c bfb2 2fbc
000003e0: 78cc 29be a7a6 a63d a299 e4bd 19c2 f6bd
000003f0: 21b9 6b3c 7411 3dbd c23b 4cbd 36e0 023e
