lightning_logs/version_6/checkpoints/epoch=6-step=350.ckpt (torch, 704382 bytes, 45 tensors)

model.param_proj.proj.0.weight f4 [1, 49]
00000000: fe10 33be 6afd 4b3e b2a4 e03d 143e 19be
00000010: 4ebb 2dbd 4b7f e73d 5fd2 30be a913 913c
00000020: f51a fabd c925 9e3d 8117 473c bb85 1e3e
00000030: d4ba 45be db7b f33c 3f25 853d da2d cb3d
00000040: 8e98 10be f92a c93d 8b04 313e f820 67bd
00000050: 60b1 2abe 0707 ec3d a6b8 44be 931e c6bd
00000060: 89f5 ac3d ccc4 97bb e8d6 20be f96c 7cbd
00000070: 65c3 973d e8f5 3cbe bba7 303d 8f13 fe3d
00000080: 54d6 163e d632 0fbe c6dd 48be d8cb 3a3e
00000090: 686c d7bd c08c 963d bee5 27be bbb8 d63d
000000a0: cd6e 06be ebb0 b5bd 96d2 9abc 4af9 143e
000000b0: 3596 8b3d 2bf8 e53d f03e 10be 6d62 283e
000000c0: 3af3 d23c
-0.17486951 0.19920889 0.10968913 -0.14965087 -0.042414956 0.11303576 -0.1726775 0.01770957
-0.12212173 0.07722051 0.0121516 0.15480702 -0.1930955 0.029722145 0.06501245 0.09920855
-0.14120695 0.098226495 0.1728689 -0.056427926 -0.16669226 0.11524778 -0.19211063 -0.096738
0.084452696 -0.0046316143 -0.1570698 -0.061627362 0.074103154 -0.18453181 0.04312871 0.12406074
0.14730197 -0.13984236 -0.1961585 0.18241823 -0.10518724 0.07351065 -0.16396233 0.10484453
-0.13128205 -0.08871635 -0.018899243 0.14548221 0.06815759 0.11228975 -0.14086509 0.16443796
0.025750745

model.param_proj.proj.1.weight f4 [1, 49]
00000000: fb62 39bd 5a94 0fbe 9e74 11be 6421 d8bd
00000010: a76c 06be 25e5 093e 6501 093c 8688 053e
00000020: 8f63 d2bc 1e6f 74bd 53b2 cf3d c75c 873d
00000030: 5d8e 103e b7e6 c43d caa4 dfbd ae4e 903c
00000040: 248f ccbd 9f52 f73c 9056 a03c cc37 6cbd
00000050: fa07 96bb 8b6d 1abd be02 1a3e 3d65 7bbd
00000060: 70f1 d3bc d939 f43d 5d72 053e a593 e0bc
00000070: 0cb4 dabd c699 103e 7831 5f3d b30a b8bd
00000080: 1cae 173e ab02 40bd 312f 413d c148 993c
00000090: b167 41bd 0bbe 783d a313 52bc 6c00 17be
000000a0: 8149 093e 5868 433e 72a9 0b3e e92e ef3d
000000b0: 3667 b03c 96c8 dfbd 5fc0 69bd 7859 b2bd
000000c0: ab2b 39bc
-0.04526041 -0.14021435 -0.14204642 -0.10553244 -0.13127385 0.13466318 0.008362149 0.13040361
-0.025682239 -0.059676282 0.101414345 0.06609493 0.14116807 0.09614318 -0.10920103 0.017615642
-0.099882394 0.030190764 0.019572526 -0.0576704 -0.0045785876 -0.037702125 0.15040109 -0.061375845
-0.025871962 0.11925096 0.13031907 -0.027414152 -0.106788725 0.1412116 0.054490536 -0.08986416
0.14812511 -0.046877544 0.047164146 0.01871145 -0.04721803 0.060728114 -0.012822065 -0.14746255
0.13406946 0.19082773 0.13638857 0.11678869 0.02153359 -0.109269306 -0.057068225 -0.08708471
-0.011301915

model.param_proj.proj.2.weight f4 [1, 49]
00000000: 1d94 843d d08d 1abe 726c 123e c538 0d3e
00000010: a790 3f3e 1599 153e db52 a9bd a5fc 423e
00000020: 0cc2 233e 52a1 efbd 9876 28be bac8 d8bd
00000030: 30e1 083e 9122 39be c4fd 30be 3ec8 293e
00000040: fec8 813d f33b 623e 7c2a 443e 2341 513e
00000050: 02cd 59be c2fc 65be 6e06 48be be9e b8bd
00000060: fc1a 9c3d d39c 713d 7c12 813d 3565 53be
00000070: 0110 00be 63d4 533e f17b ee3d 0eef 303e
00000080: e096 56be fa5f c4bb a83f fb3d 9d5c 45be
00000090: ece9 3cbe 6a58 4fbe 9ab4 00be 4840 30be
000000a0: c93b ff3d cf98 6b3d 8696 40be 63bf 1e3c
000000b0: 594b f7bd f0c9 cbbd 8908 aa3d 8a71 0abe
000000c0: ba24 6cbe
0.06473563 -0.1509316 0.14299181 0.13791187 0.18707524 0.14609177 -0.082677566 0.19041689
0.15991992 -0.11700691 -0.1645149 -0.105851606 0.13367152 -0.18079592 -0.17284304 0.16580293
0.06337164 0.22093181 0.19156832 0.20435004 -0.2126961 -0.224597 -0.19533703 -0.09014653
0.07622334 0.05898745 0.06302354 -0.20644076 -0.12506105 0.20686488 0.11644734 0.17278692
-0.20955992 -0.0059928866 0.12268001 -0.1927361 -0.18448609 -0.20248571 -0.12568894 -0.17212021
0.12462575 0.057518777 -0.1880742 0.009689185 -0.12074918 -0.09950626 0.08302409 -0.13519874
-0.23060885

model.rnn.weight_ih_l0 f4 [196, 37]
00000000: 702b a6bd 479d b53d 5e03 e73d 29f3 d9bd
00000010: 29b4 c9bd ee7d f7bd c17b 0e3d 4e36 dbbd
00000020: c9db 913c 248e 713d f271 cf3d 8787 d53d
00000030: f273 c0bd ae53 62b9 5ac1 663d 821b efbd
00000040: 846e f9bd 21bb 5a3d 1386 103c 5c53 85bd
00000050: 736b db3d e8d8 e63d 9fa3 253d 74ce afbc
00000060: 6364 23bd 04c8 d53d 2475 36bd 181c cabd
00000070: 6ae4 923d 239b 333d b905 87bd a6b6 8cbd
00000080: 5e60 c73c 7cd4 a7bd 514b 433d a1fe 0b3e
00000090: 8a56 98bd f46e 8bbd 919b ba3d 9bf4 adbc
000000a0: 63ae b63d 95c7 0d3e 27b3 473c e9b7 2bbd
000000b0: abd8 8c3c fd6d cabc e22c bdbd afa1 46bc
000000c0: c5a7 88bd d5d8 dfbc d32f c63d 163d 733d
000000d0: 0a11 2bbc a97d 96bd 14aa 923a 93f3 b4bd
000000e0: eeed 58bd 347e 953d e112 b83d 8eaf 923d
000000f0: 61cf 753a a0e5 323e 848f 63bd 3126 2abd
00000100: e61b 093e 7727 babd 80d5 3e3e cbf9 023d
00000110: 11e9 123d 276a 933c 937d d13c 5ed9 44bd
00000120: d634 553e 0d3f 92bd d81f cf3d c75f b1bd
00000130: 3ae4 693d a99c 5d3d 94a5 d53d d446 403d
00000140: 6e1d 073e c56a 173e 3f94 dfbd dc15 013e
00000150: a11b 14bd f61b c33d 5a75 363d ff3e ad3d
00000160: 75e3 813d 537d cc3c 536e cfbd a79f 9dbd
00000170: 8915 06bc c710 c13d c606 0a3e 8ea2 9a3d
00000180: 0077 ee3d 6743 d2bc 323a c5bd 4651 ac3d
00000190: 6d1a 98bd 51f1 0eba 2922 603d 74a4 083e
000001a0: 02dc e03b 3405 85bd 9b66 dd3d 3c6b 133e
000001b0: af9b 963d 11a0 603d 02c8 ec3c daa5 15be
000001c0: c31e efbd 2dcc 19be c740 05bd 1f02 e0bd
000001d0: b5f3 b2bd 9570 23be 815a d0bc 4a05 4b3b
000001e0: 6d4b f03d 0e60 08be 0456 063d b844 b03d
000001f0: b834 e2bc c682 29bc 0e2a db3d 46bd bfbd
00000200: 58f8 7fbd dea0 7e3d b7a1 853d 5e58 8ebd
00000210: e697 143d 2e4a 07be 0a1c 89bd 2409 523c
00000220: 58c5 e13d 8bd8 b33c 79ee a3bd a40c 243c
00000230: a108 86bc 9295 0bbc cc9d b8bd b6a2 0cbd
00000240: c165 27be 7b84 4b3d a753 6f3c 9068 e0bd
00000250: 7931 573d 4497 a03d 3601 a63d 0b8b c1bd
00000260: 2e32 293d 6237 16be 1482 b43c 105e 24bd
00000270: a774 86bd 6af8 bd3d 702c 9abd e326 f0bd
00000280: 6e89 973d 7f2c 803d 4227 523d fdfc fabd
00000290: 237e 05be b587 1cbe c230 c2bd 9de8 983d
000002a0: 7958 5cbd 355c 7dbc 9615 e3bc 528b b23d
000002b0: 68c0 403d 8bfc 27bc 9bbe dc3d 87d6 35bd
000002c0: ba72 06be 06b7 d73d e94a 103e 7443 433d
000002d0: bde2 a4bd bd0b 053e 62b1 6ebd 7ba1 cf3d
000002e0: 2abc 123d a65d 013e 9af8 ca3d 9de2 7abc
000002f0: c125 56bd 4358 b53d f2c7 743b 2e94 39ba
00000300: c184 e53c b79b eb3d 1502 e8bc e7b9 6d3d
00000310: d6a2 1a3e 8d0d b53d 6b39 043d ad98 d0bd
00000320: 2982 813d a00f 6a3d b750 1a3e 228a a33c
00000330: a4d2 c03c 8776 a6bc 711a 90bc db68 2cbd
00000340: 8952 10bd 5f4c 153e 9592 ef3c 4459 233d
00000350: a572 8abd b4a5 793d aa1a dd3d c8ec 6cbc
00000360: b55f 133d c331 933d 4a91 6c3c e2b9 98bd
00000370: 9698 81bd 86e5 403e 1eaa ec3d 8cd6 ef3d
00000380: 7e37 9e3c 1df0 d73d c903 e23d a32b 143d
00000390: e994 ae3c 9a7e 043d 43d5 edbb 0217 eb3d
000003a0: a8e1 dbbc 5724 04bd 10cb a5bb fa52 0a3e
000003b0: f362 ea3d 0296 b9bd 5bd2 b33d f057 af3d
000003c0: 225e dc3c 51df a03c ebb4 ff3c 9d79 873b
000003d0: 1547 80bc 5180 b6bb 0a2a 283e b208 9bbd
000003e0: 66b3 283e 9adc 86bd 44f5 a23d 7b7d d3bd
000003f0: 731e 89bd 8dee 853d 7422 4e3d 925f 983c
-0.08113754 0.08867889 0.11279939 -0.10642082 -0.09848816 -0.12084566 0.03478599 -0.10703717
0.017804997 0.058973446 0.10129155 0.104262404 -0.09397115 -0.00021584213 0.05633674 -0.116751686
-0.12179282 0.053401116 0.008821028 -0.0651004 0.10713854 0.1127184 0.040439244 -0.02146075
-0.039890658 0.104385406 -0.044545308 -0.0986864 0.07172473 0.04384912 -0.065928884 -0.06870775
0.024337944 -0.08194825 0.04767925 0.13671352 -0.07438381 -0.06808272 0.09111703 -0.021234801
0.089199804 0.13845666 0.012188709 -0.041923437 0.01719316 -0.02471065 -0.09237076 -0.012123509
-0.066726245 -0.027325073 0.096770905 0.059384428 -0.010441074 -0.073481865 0.0011189603 -0.088355206
-0.052961282 0.07299462 0.08987976 0.07162391 0.000937691 0.17470407 -0.05555679 -0.04154033
0.13389549 -0.090895586 0.18636131 0.031976502 0.0358668 0.017994953 0.025572574 -0.04805886
0.20820937 -0.07140932 0.101134956 -0.08660846 0.05710242 0.05410448 0.10431972 0.046942547
0.1319482 0.14786823 -0.109169476 0.12605995 -0.03615916 0.095268175 0.04454551 0.08459281
0.06342212 0.024962103 -0.101284645 -0.07696467 -0.008183845 0.09427028 0.13479146 0.07550536
0.11643791 -0.025666906 -0.096302405 0.08413939 -0.07426915 -0.0005452829 0.054720078 0.13343984
0.0068621645 -0.06495133 0.10810586 0.14396375 0.07353913 0.05484015 0.028903965 -0.14614049
-0.11675789 -0.15019293 -0.03253248 -0.109379046 -0.0873789 -0.15960915 -0.02543378 0.0030978494
0.11733136 -0.13317892 0.032796875 0.08606857 -0.027613029 -0.01034612 0.10701381 -0.09362273
-0.0624927 0.062165134 0.06524985 -0.069504485 0.036277674 -0.13211891 -0.06694801 0.012819562
0.110239685 0.021953842 -0.080044694 0.010012779 -0.016361536 -0.008519547 -0.09014472 -0.03433486
-0.1634741 0.04968689 0.014607347 -0.10957444 0.052537415 0.07841352 0.081057 -0.094503485
0.04130762 -0.14669564 0.022034682 -0.040128767 -0.065652184 0.09275897 -0.07528007 -0.11726167
0.073992595 0.06258487 0.05130697 -0.12255285 -0.13036399 -0.15286143 -0.09481956 0.074662425
-0.05379531 -0.015463878 -0.027720254 0.087179795 0.047058493 -0.010253082 0.107785426 -0.044394042
-0.13129702 0.10532956 0.14091076 0.04767175 -0.080510594 0.12992759 -0.058274634 0.10138222
0.03582398 0.1263338 0.09910698 -0.015312818 -0.0522821 0.08854725 0.0037350622 -0.00070792704
0.028017404 0.115043096 -0.028321305 0.05803862 0.1510118 0.08840475 0.03228132 -0.101853706
0.06323654 0.057143807 0.15069853 0.019963328 0.023537941 -0.02032019 -0.017590733 -0.042092185
-0.03523496 0.14579915 0.0292447 0.039880052 -0.06760148 0.060949042 0.107961014 -0.01446075
0.035979945 0.07187226 0.0144389365 -0.07457329 -0.063279316 0.18837556 0.11555885 0.117108434
0.01931357 0.10543845 0.11035878 0.036174428 0.02131124 0.0323473 -0.007258089 0.11478998
-0.026841 -0.03226122 -0.0050596073 0.13508216 0.11444654 -0.09061815 0.087803565 0.085616946
0.026900355 0.019637736 0.031214198 0.0041343705 -0.015658895 -0.0055694957 0.16422287 -0.07570018
0.16474685 -0.06585045 0.07956937 -0.10326668 -0.06695261 0.065396406 0.050325826 0.018600259

model.rnn.weight_hh_l0 f4 [196, 49]
00000000: b69d 8bbd 8887 19be f955 6dbd ab2b c5ba
00000010: ef36 d53d 17f2 50bc 6af6 d9bd 2324 2bbd
00000020: f7f0 debb 6d38 51bd d015 a2bd d4a9 e1bb
00000030: e8fc 923d 4d67 21be 1dd7 f13d 2f3f f2bb
00000040: 3558 823d a6e9 bd3d 20f2 f73d d19b 78bd
00000050: f1f7 44bb a5c0 cd3d 37da 1dbc 09ac 763d
00000060: 5d4f ae3c d34c 493c 62d2 873d f368 ddbc
00000070: 8421 253d b133 1d3d e50d 813d 1db4 f03d
00000080: 0455 7bbd 292d ba3d bce6 2ebe a81f f8bd
00000090: 6c6f 95bd 40c4 a33d a42d ca3d 70eb d13c
000000a0: 274e eb3d c641 513c 984d db3b a9ef 893d
000000b0: 91a4 8fbd b3ac b5bd bcd0 113c dbc4 243d
000000c0: 1d9a e6bd 8a82 193d 6b8b 86bb 9b27 133c
000000d0: 5776 3abe 7c8d 0a3d 4ebf a6bb 6887 9abd
000000e0: 7baf 0a3e 0290 f63c 978f aebd 1e09 033e
000000f0: 3748 873d b70c 373d 2e97 89bd 65a0 08bd
00000100: 724a 99bd 07fc d13b d30c 73bd e22c 19be
00000110: 9ed7 2abd 1520 80bc 7059 08bc c86d 8cbd
00000120: afaa b2bd aa9b 203d 8665 b7bc e175 9b3d
00000130: c5d5 75bd 85a1 9f38 6e7f 83bd cbba 0c3e
00000140: 7fbf 693d 07d6 f13c bac8 ad3b 15bb ae3c
00000150: f43d bf3d b40a c5bd 0af4 223e 6e55 9ebc
00000160: 6fd2 edbc 36e0 00bd cc01 f5bd 69dc fabd
00000170: 6bc5 d2bd 2f2f 8dbd f159 323e dd0a c0bd
00000180: 4c47 ddba 0012 a8bc 8d57 bebb b931 763d
00000190: 4dbe e6bd 0a7f c3bd 5367 df3d 2982 b83d
000001a0: cf55 c13c 1f56 9f3b 3d0c 46bc 8fad c03d
000001b0: fcac 603c 77c6 05bc 3fca 44bd 4e1b 163d
000001c0: ee93 be3d b6c1 2c3e 1211 a43c a3af 8ebd
000001d0: 4674 4ebc 87a3 98bd c0f7 b1bc 6149 f83d
000001e0: 36ad 183d 4dd2 163d 7bb9 d2bd 8e07 6fbd
000001f0: 653e 0f3d d7a0 263d b74f e03d 1ca1 e2bb
00000200: e1e2 943c e013 1c3e 2708 cd3d 3220 bfbd
00000210: c395 53bc 0ceb c73d 80ea c6bd 25fb 21bc
00000220: 4c40 a2bd 4e20 903d e9a5 e43d 7885 cf3d
00000230: 86da 143e b949 b33c 0227 973d 3e36 cfbd
00000240: d96b 00be b78d a43d 14f9 51bd 639d f63d
00000250: 09f3 c0bd e1bf 0f3e 6a41 1a3d 1cf7 49bd
00000260: 6fce a5bd 25e3 2fbd 8362 cbbd 9209 0fbe
00000270: f671 2d3e 09e4 26bb 2f76 803d a6b3 9e3d
00000280: 4b46 e33b 6fbb 363d da5e 6cbc 0e33 7a3d
00000290: acd5 223d 57a4 2cbc 28e2 ddbc ab35 7fbd
000002a0: 0924 1abd 8f12 8f3d 14c6 edbc f1e9 aebd
000002b0: 9c48 f5bd 47eb 00be f62e 303c 9504 bbbd
000002c0: 5d72 d03c 5060 193e 504b 6b3d 7138 b5bc
000002d0: 7044 fcbd 13a4 d1bb 10f6 1f3d 0938 b2bd
000002e0: d57c 8fbd d19a f33d 0341 aa3c 8d87 d4bd
000002f0: 4f43 6cbd a9bd 88bd b6ea 09bd f4d1 acbc
00000300: ffaf a33d 8686 edbd d1e6 e23c 909a c7bd
00000310: 26c9 973c 72d3 78bc 9e89 fd3d 600e bdbc
00000320: 52b1 133c a288 7cbc c2d1 1cbd 18f9 3abd
00000330: 3f2f e6bd aa49 62bd a688 94bd f4fc 9bbd
00000340: 5697 ef3d b3ea 1a3e ef50 3f3d c4f2 103e
00000350: ab12 3f3d 0102 09bd 0642 82bc 1fa4 f03d
00000360: 7c49 403b c32c dfbd 78a5 18be 2eb4 373d
00000370: 568d abbd 6fd2 993c 736a 063d 4317 e5bc
00000380: 53fd f13d 4370 e13d e22f 483e afc5 e93d
00000390: 5bec ba3d 1c5f e6bd 3d5d 86ba 20cb 1bbe
000003a0: 83f0 0c3e 957f b83d 91d4 7dbd 287b 84bd
000003b0: 18e2 0fbe 4674 c23c 3c5e aebd a00c cabc
000003c0: a098 5b3d 0dab 313c 11dd 923d 532a cd3d
000003d0: e116 aabc 99e9 8c3d 9f45 c9bd b511 04be
000003e0: 2445 df3c 0665 ec3d fbd5 93bd d8a5 c8bd
000003f0: 8bc7 1f3e 18ef a33d cfd9 b03d 4723 c63d
-0.0681719 -0.14993107 -0.057943318 -0.0015042921 0.104108684 -0.012753031 -0.10642703 -0.04178251
-0.0068036276 -0.051079202 -0.07914317 -0.0068867 0.07177144 -0.15762062 0.11808608 -0.007392786
0.063644804 0.092730805 0.121067286 -0.060695473 -0.003005501 0.1004651 -0.009634546 0.06022266
0.021278078 0.012286383 0.06631924 -0.027027583 0.040315166 0.038379375 0.06301478 0.11753104
-0.061360374 0.09090645 -0.17080206 -0.12115413 -0.07296643 0.07996416 0.098719865 0.02562496
0.11489516 0.012772029 0.0066925995 0.06735165 -0.070138104 -0.088708304 0.008899864 0.0402268
-0.112598635 0.037478007 -0.0041059754 0.008981611 -0.18209206 0.033826336 -0.0050887233 -0.07545358
0.13543503 0.030097965 -0.08523481 0.12796447 0.06605571 0.04468986 -0.06718288 -0.03335609
-0.074849024 0.006408218 -0.059338402 -0.14958528 -0.041709535 -0.015640298 -0.008322105 -0.068568766
-0.087239616 0.039210953 -0.022387277 0.07590843 -0.06001832 7.611796e-05 -0.0642079 0.13743131
0.05706739 0.029521002 0.0053034695 0.021329442 0.093379885 -0.09621182 0.15913406 -0.019327845
-0.029031007 -0.031463824 -0.11963233 -0.12249071 -0.10291561 -0.06893765 0.17417122 -0.09377072
-0.001688221 -0.020516396 -0.0058087767 0.060106013 -0.11266766 -0.09545715 0.109083794 0.09009201
0.023600487 0.0048625614 -0.012087879 0.09408104 0.013713118 -0.0081649935 -0.04804444 0.036647134
0.09305559 0.1687077 0.020027671 -0.06967094 -0.012600964 -0.07453065 -0.021724582 0.12123371
0.03727456 0.036821652 -0.10289284 -0.058356814 0.034971613 0.040680733 0.109527044 -0.0069161784
0.01817459 0.15241957 0.100113206 -0.09332313 -0.012914124 0.097616285 -0.09712696 -0.009886538
-0.0792242 0.07037412 0.11164457 0.10132879 0.14536485 0.02188574 0.07380487 -0.10117768
-0.1254114 0.080348425 -0.05126293 0.12041738 -0.09421355 0.1403804 0.03766004 -0.049307927
-0.08096015 -0.04294123 -0.09930899 -0.13968495 0.16938004 -0.002546551 0.06272542 0.07749109
0.00693587 0.044612344 -0.014426911 0.061083846 0.039754555 -0.010537229 -0.027085379 -0.06230704
-0.037632022 0.06985962 -0.029025115 -0.085407145 -0.1197674 -0.12589751 0.010753384 -0.09131733
0.025445158 0.14978147 0.05744487 -0.02212164 -0.12317741 -0.006397733 0.039053023 -0.08702094
-0.07006232 0.11894763 0.020782953 -0.10377417 -0.057681378 -0.066768 -0.033671103 -0.021096207
0.07992553 -0.11597924 0.027697952 -0.09746277 0.018528532 -0.015187131 0.12379764 -0.023078144
0.009014444 -0.015413435 -0.03828598 -0.04564771 -0.1123948 -0.055246033 -0.07252626 -0.07616606
0.11698787 0.15128593 0.046708044 0.14155108 0.046648663 -0.033449177 -0.015900623 0.117500536
0.0029340675 -0.108972095 -0.14906871 0.044849567 -0.08376567 0.0187771 0.03281636 -0.027965194
0.11815896 0.1100774 0.19549516 0.11414658 0.091271125 -0.112486094 -0.0010251176 -0.15214205
0.13763623 0.09008709 -0.061970297 -0.06468803 -0.14051092 0.023737084 -0.085140675 -0.024664223
0.05361235 0.010844004 0.07171071 0.10017838 -0.020762863 0.06880493 -0.09827732 -0.1289738
0.027254649 0.11542706 -0.07218548 -0.09797257 0.15603463 0.08004588 0.08635294 0.09674697

model.rnn.bias_ih_l0 f4 [196]
00000000: 4807 10be bf63 363e 00aa 67bd ace8 8e3b
00000010: a02a 7c3d 2317 4d3d f6e3 55bd 6ef3 3e3e
00000020: 9135 0bbd 9dd0 a8bc 5a6e 14be 31e7 01be
00000030: fa19 b7bd 1cbc 9d3c 651f 2bbd 92d8 ce3d
00000040: cfea 0e3e ffde f2bd f1f6 0a3d f93d 5cbd
00000050: caf4 00be eab6 5bbb 02de 36bd 5277 ce3d
00000060: 087a e03d 4d17 54bc 7d34 d13c ced1 02be
00000070: 626a a0bd 8b16 103e 280f ab3d 713e 2d3d
00000080: 7682 df3d a9dd 15bd b9e7 d03d 1b0c ab3d
00000090: 6002 1f3d b1db 0c3e 30a1 c5bd 36f9 083e
000000a0: d9b3 993d 9549 8fbd 0208 893d 21c9 4fbd
000000b0: 99d8 783d b3b4 803c 0885 3cbd 1e6d d8bd
000000c0: 4d2f 7e3d 95cc a83c c5c0 28bd 017a fa3d
000000d0: 3d60 dabd 0fd5 bdbd 6b16 043e fe4e d9bd
000000e0: 3138 bc3d ab3b 94bd 55b9 21bd 3887 6d3d
000000f0: 22f5 1a3e dc63 b93d 0fb5 623d 2737 a7bd
00000100: 222f 163e b6ca 533c c7e4 9f3d 7110 84bc
00000110: c881 b0bd 9884 1f3e 4157 4ebd ebc9 b53d
00000120: 4abc ce3d 84aa 5b3d bf7a de3d c607 423e
00000130: df0f 83bd d446 8dbd 0815 213d 005b 5abd
00000140: 2208 703d 17a7 eb3d 9e6c ccbc bb9b d23d
00000150: 896f 15bd 8baf 383e a188 66bd d3fa 213e
00000160: 4214 3b3e 7959 fc3d bd81 9e3c e2d0 9ab7
00000170: 1b25 aa3d d978 73bd da07 fc3d b9be de3d
00000180: 7a0a 95bd 49a4 25bd 8e66 1ebb e387 bfbd
00000190: 4318 c23d e8df fcba 5521 d43d 47c2 fbbd
000001a0: 4812 393e c82a 993d e2cf 15bc 70e0 6ebd
000001b0: 8899 acbd 1ae7 f2bd 30ae 9abd 0fa4 083e
000001c0: 0b67 32bc f649 97bd a0aa a8bd 09d2 6cbd
000001d0: db2a 24be 49d9 03bd 0e74 6dbc 029a a3bd
000001e0: 807f e43c 890a 4fbc 444a 4dbd c01e 1f3e
000001f0: 9205 f9bd a89b 4dbd 0a31 ca3d a2c9 033e
00000200: 59e0 d9bc e8fe f5bd 3e0f a53c 68b7 17be
00000210: 5285 d1bc a21a f2bc c26f c93d 65e1 cc3d
00000220: 47a9 273d 02a2 97bd 19a4 3ebb dd74 87bd
00000230: ae40 203d 359e d3bd a2b5 9dbd fb6d 48bc
00000240: 8ad6 8dbd 0131 0abe e2d3 203d ae83 803d
00000250: 4d3e cc3c 6fd8 95bd eb95 a43d 0f84 933d
00000260: 7619 cfbb cad0 7b3d 847e 0e3e 6874 ed3d
00000270: f78d 613d bcf1 aebd 8200 1a3e 7465 0e3e
00000280: f30d c03d 8db3 793c c684 183e f6d9 91bd
00000290: 95a2 62bc 0d85 713c 7dd0 883d a268 d0bd
000002a0: 9307 a5bd 7665 f03d 92ec cf3d 2a00 c03d
000002b0: e9a5 8e3d e657 7a3d 4def 08bd ab03 5abc
000002c0: c36b 0d3e 4ab5 2f3e 3a1c 243e 66c3 c93d
000002d0: 8422 1c3e be82 d0bc ab48 0f3e 82bd 6ebc
000002e0: f1ec cfbb c93f ed3b 71bb 493d 2345 dbba
000002f0: cfab 8dbd feb9 90bd ffad d0bc 7aa4 57bd
00000300: 09b7 8b3d 801e 443d 1852 aabd 75da c8bc
-0.14065278 0.17811488 -0.05655861 0.0043612327 0.061564088 0.050070893 -0.052219354 0.18647549
-0.03398663 -0.020607287 -0.14495221 -0.12685849 -0.089405015 0.019254737 -0.041777987 0.10099901
0.1395676 -0.118589394 0.033926908 -0.05377004 -0.1259338 -0.0033525773 -0.044645317 0.10081352
0.109607756 -0.012945008 0.025537724 -0.12775347 -0.07832791 0.140711 0.083525 0.042295877
0.10913555 -0.036588345 0.102004476 0.08351918 0.038820624 0.1375568 -0.09649885 0.13376316
0.07505006 -0.069964565 0.066909805 -0.05072892 0.06075344 0.015711164 -0.046025306 -0.105676875
0.06205683 0.020605365 -0.041199464 0.12230302 -0.10662887 -0.09269153 0.12899177 -0.1061077
0.09190405 -0.07237943 -0.039483387 0.057990283 0.15132573 0.0905225 0.055348452 -0.08164816
0.14666417 0.012926748 0.07807308 -0.016121121 -0.08618504 0.15577924 -0.05037618 0.088764034
0.10094507 0.053629413 0.10863256 0.18948278 -0.063995115 -0.06898275 0.039326698 -0.05330944
0.058601506 0.11506479 -0.024954136 0.102836095 -0.03648332 0.18035714 -0.056282643 0.15818338
0.18269446 0.12321753 0.019348973 -1.84555e-05 0.083078586 -0.05944142 0.12306185 0.10876221
-0.07277389 -0.040439878 -0.0024170014 -0.0935209 0.09477284 -0.0019292803 0.1035792 -0.12292915
0.1807338 0.07478863 -0.009143801 -0.05831951 -0.08427721 -0.118604854 -0.07552755 0.13343833
-0.010888825 -0.07387154 -0.08235669 -0.057817493 -0.16031973 -0.03218964 -0.014493002 -0.07988359
0.027892828 -0.012636789 -0.050119653 0.15539074 -0.121592656 -0.050197273 0.09872635 0.12869886
-0.026596235 -0.1201151 0.02014887 -0.14816058 -0.025576267 -0.029553715 0.09835769 0.10003928
0.04093292 -0.074039474 -0.002908951 -0.06614087 0.039124183 -0.1033291 -0.07700659 -0.012233253
-0.06925686 -0.13495256 0.039264567 0.06275116 0.024932051 -0.07316672 0.08036407 0.072029226
-0.006320174 0.061478414 0.1391545 0.11594468 0.05506703 -0.08542201 0.15039256 0.13905889
0.093776606 0.015240562 0.14894399 -0.07121651 -0.013832708 0.014741194 0.06680391 -0.10176207
-0.08058085 0.11738102 0.10152544 0.09375031 0.069652386 0.061118983 -0.03343134 -0.013306539
0.13810639 0.17159 0.16026393 0.098517224 0.15247542 -0.025452968 0.13992564 -0.014571549
-0.0063453843 0.00724027 0.049251024 -0.0016728978 -0.069175355 -0.07066725 -0.025473593 -0.05264709
0.068220206 0.04788065 -0.083164394 -0.02451823

model.rnn.bias_hh_l0 f4 [196]
00000000: 1061 24be c0ac 123e 4991 e73c 4397 e43d
00000010: a44d febc 85ba 443e eb94 b33d 5c87 173e
00000020: b3f6 ef3d 277d e83d 6df2 6b3d 747d 623c
00000030: 8d5b c5bd f945 77bd d118 573c 15f6 a13d
00000040: 670b 1abd 7ec1 11bd 29e8 44bd 7009 e13d
00000050: a44d 8fbd 894f b93d 404c a7bd bf36 293e
00000060: 1b55 7b3d 8e1c c63d 544d 38bd 8c18 b5bd
00000070: a668 2bbd 46c8 9ebd e7a4 5c3d f4e6 063d
00000080: 667f fa3d 95c0 6dbd 83d9 eebc ee0d f93d
00000090: 7aa4 873d 3e14 e7bd 92c9 b6bd 23cb 0f3e
000000a0: 5658 34bd 992a ae3d e6a9 433d 1267 8f3d
000000b0: 4017 87bd 1186 d7bd b206 f83d 1eab a63d
000000c0: 6585 45bd 2a5a 2cbe b0d2 3a3e 6912 d6bd
000000d0: 1df3 b93b cc41 b63d f91a b33d 0eb7 7b3a
000000e0: db7a b03c 599d fd3d 5048 c4bd ce8e 8f3d
000000f0: 0a6f 19bc 37a3 043e b159 41bd 3c5b 883d
00000100: 8d13 e3bd e8c5 0e3e fea0 2d3a d609 203d
00000110: 4373 d6bd 836e f43d eb57 113e d5bf 21bc
00000120: b995 f93d fa4a bc3d b8ad f8bd 6106 99bd
00000130: 2ec6 f23d a31f d43c 054a 2c3d 9046 8e3d
00000140: 47a1 a73d 26ec 173d 7442 a2bd 5b64 efbc
00000150: 889e 0ebe 362a 6fbd d156 d6bd f024 333c
00000160: 57e1 6d3d fc6b 9e3d 053b a53d d861 723d
00000170: 218f 8ebd 59ad 073e 75cd eabd d680 04be
00000180: 23b5 bd3d 21d8 3e3d 37dd 93bc 9446 6c3d
00000190: 96f6 35bd b1a2 09be 2320 8a3c 138c a0bd
000001a0: b6aa 843b 0b77 003e 182c 0d3c ba27 20bd
000001b0: 6a9b b13d 8d87 cfbc 58d7 89bd c7f0 19bd
000001c0: bc25 983d 43c8 b23d e8ba 97bd 9cc4 80bd
000001d0: 6e73 cc3d 8344 1e3e 95db 303e 5d84 1d3d
000001e0: 0423 403a cb6c c1bd 000f cf3d d669 94bd
000001f0: 3045 a4bd e7a0 aebd da1c e73d 75f0 2a3e
00000200: 1585 2bbc 42a3 c1bd c95b 20bd 9d9f 2cbe
00000210: 4f5c 833c efc2 6a3c 806f a3bb 770b 05be
00000220: e295 3f3c 36f9 12bc c973 ad3d a788 80bc
00000230: 6026 cebc eb9c 27be c7bd 5f3d dab5 e43c
00000240: 9186 13be cb6a 76bd 8c5b 2d3d 7722 11be
00000250: 62c1 223e 3b39 33bd 89ff 8ebc 29a6 913c
00000260: b885 f83d 4f57 dabd 8ec1 9a3d 1f7e f1bb
00000270: 5280 db3d 77ec dfbd dfe2 053e aa55 eebd
00000280: 8181 de3b 25f6 253e 7c90 9b3d 06a7 633d
00000290: 2a90 d73b 30ae de3d 674f 153e 06d6 ccbd
000002a0: 47e8 bfbd a0a0 5ebd 26b1 c23d 275b 8b3d
000002b0: 68c8 65bd 5361 cf3c df8c 943c ad6d ef3d
000002c0: a117 22bd aec3 aa3d 302b d1bd 7bc0 d3bd
000002d0: a28f 5a3c f761 a3bb a7de 4ebc 881a bebd
000002e0: 3a4d 683d b665 68bc e7be 913d 4874 313e
000002f0: f3d3 213e 607f 283d 3b3e dd38 1b30 fc3d
00000300: 55ea 353e 096b f83d 15d0 343d b2fd 473d
-0.16052651 0.14323711 0.02826752 0.111616634 -0.031042881 0.19211777 0.08768638 0.14797729
0.11716976 0.11351996 0.057604242 0.013823856 -0.096366026 -0.060369466 0.013128475 0.079082645
-0.03760853 -0.03558492 -0.048072968 0.10988128 -0.06997231 0.09048373 -0.081688404 0.1652479
0.06136046 0.09673415 -0.04499562 -0.088425726 -0.041847847 -0.07753043 0.0538682 0.032935098
0.122313306 -0.05804499 -0.029156452 0.1216086 0.06623168 -0.11283158 -0.08925165 0.14042334
-0.044029556 0.085042186 0.04776945 0.07002081 -0.065962315 -0.10523618 0.12110652 0.08138107
-0.048222918 -0.1683127 0.18244433 -0.1045273 0.0056747333 0.088992685 0.08745379 0.00096021674
0.021542957 0.12383527 -0.09584105 0.0700966 -0.009364853 0.12952887 -0.047204677 0.066580266
-0.110877134 0.13942683 0.0006623416 0.03907188 -0.10471203 0.11935141 0.14193694 -0.0098723965
0.121867605 0.09193988 -0.12142509 -0.0747192 0.11854206 0.025893992 0.042062778 0.069470525
0.08185058 0.037090443 -0.07922831 -0.029222658 -0.13927662 -0.058389865 -0.10465778 0.0109341
0.05807623 0.0773544 0.08067898 0.059175342 -0.069608934 0.1324972 -0.11464969 -0.12939772
0.09263065 0.046592835 -0.01804982 0.057684496 -0.044424616 -0.13440968 0.016861027 -0.07839217
0.0040486706 0.12545411 0.00861647 -0.039100386 0.08672221 -0.02533319 -0.06730527 -0.03758314
0.07429072 0.08729603 -0.074086964 -0.062875 0.09982954 0.15455823 0.17271264 0.03845631
0.00073294365 -0.09444579 0.10110283 -0.07246749 -0.08021009 -0.085267834 0.112848 0.1669329
-0.010468741 -0.09454967 -0.039150033 -0.16857763 0.016035227 0.014328702 -0.004987657 -0.12992655
0.01169345 -0.008970549 0.0846935 -0.01569016 -0.025164783 -0.16368453 0.054624345 0.027918745
-0.14406802 -0.06016044 0.042323634 -0.14173304 0.15894082 -0.04375575 -0.017455833 0.017779427
0.1213488 -0.10661184 0.07556449 -0.007369771 0.107178345 -0.10933774 0.13074826 -0.11637433
0.0067903404 0.16207178 0.075959176 0.055579208 0.006578465 0.108730674 0.14581071 -0.10001759
-0.09370475 -0.054352403 0.09506445 0.06804495 -0.056099325 0.025314962 0.018133579 0.11690841
-0.039573316 0.08338104 -0.102133155 -0.10339447 0.013339909 -0.0049860436 -0.012626327 -0.09282404
0.056714274 -0.014184406 0.0711649 0.17329514 0.15803508 0.0411371 0.000105496925 0.12313863
0.17765172 0.1212979 0.044143755 0.048825927

model.rnn.weight_ih_l1 f4 [196, 49]
00000000: ce71 9dbd 3410 bd3d 3c05 133e 8dc1 963d
00000010: 26b0 303b 3892 4ebd fadb 8a3c b9d8 0fbb
00000020: 2b9b 513d 54ac 95bd 10e2 bd3d 1f5b a43d
00000030: e68a 113d e65f 263e 1ba4 fc3d 5bbf d3bd
00000040: 6ec2 9cbd 7100 59bd 49f2 5ebd d0e0 7b3d
00000050: 67ae e13d ad47 b9bc e209 0cbe 16dc 023e
00000060: c800 d53c c7fa 9c3d c509 74bd 0fec a6bc
00000070: f806 dd3d 0ad6 f7bd 5877 d43d f68c 5cbd
00000080: 34e5 e8bd 5d5b af3c 1c59 9cbd 30a3 b8bd
00000090: 6dfc a63c d3b6 8fbd 6a42 043d 94a7 a6bd
000000a0: d677 793d f153 7cbd 5c89 673d 7524 15be
000000b0: eeb0 e9bc 008c c53d 71ca 383d 8b29 2ebe
000000c0: 2b56 203c 9cd3 69bd ffd0 db3c 2ced a43d
000000d0: 399d d6bd 4019 c0bd 7ad6 f9bd 65bf 8a3c
000000e0: 2baf b63d 993b 4abd 7677 91bd e7b6 de3c
000000f0: 2047 0dbe bfad 643d c0b6 823d 6d93 babc
00000100: 1c7d d03d 400c 34bc 226e f6bc 44f5 49bd
00000110: 32a5 2cbd 7e6e 543d 6625 85bb 042c f1bc
00000120: 71ec 0cbd de38 89bd 40bf e5bd 8530 283e
00000130: 51b8 0b3c cd93 19be 5e23 4cbd a525 bcbd
00000140: 81ba 0a3d 4ada 9f3d 4c4b 45bd a1bc 6f3d
00000150: 205d fe3c 8ca7 8f3d bbf3 7e3d 5c1e 20be
00000160: 823d f9bd d67d 2a3e 08e7 b6bd 1eba 973d
00000170: 4683 44bd 722a d83d 0e20 bcbd fbab 8abd
00000180: db9f 773d 1927 8ebd 9639 ea3c 7fff 9abd
00000190: 6ce7 d53d aeed b73c 2e8a 243e 8562 9f3d
000001a0: 55a1 3c3c cb72 123e 7a7d c0bd 8676 433d
000001b0: bc75 023e 4703 bcbc bcd1 ed3d db95 2c3e
000001c0: d81f 143e cc66 9a3d 31d1 343d cd67 aebd
000001d0: f250 7d3d 8c0c db3d 7715 c33d b9e4 dbbd
000001e0: 131c 973c 3770 a9bd 73ea 5cbc 46e2 103d
000001f0: 1b48 0dbe bbaf 0fbe ba53 323e 2a29 003e
00000200: facb ce3c b1b3 2d3e 927d 22be 1dd5 d63d
00000210: 9bf7 9f3d d712 c4bc 181a 373e be6f a6bd
00000220: 9468 ddbc 2ad3 12bb 2084 b0bd 9b32 d9bd
00000230: 3ae3 503d 59db a73d 685c 153e 2093 4e3d
00000240: 80b4 94bd 7ad8 e6bd 6b9d 72bb 15a9 ff3c
00000250: 3cd5 d03c 49f6 823d e702 863d 2220 a9bd
00000260: b8a1 0dbe 1aa0 e63c 29d0 0f3c c1ad 29bb
00000270: 7753 323d 024c 293e 62ef 6a3d 6c0e 5ebb
00000280: bfe4 cfbd 6abf 843c 3d71 47be 5223 7d3d
00000290: bfba 6fbc 776b b03d 1b5f 2cbd d7f2 23bd
000002a0: a5f3 7f3c f577 d7bd 0aa0 a53b 5347 c3bc
000002b0: 6cfa c8bc 3dc1 d83c 0c37 ac3c 1667 a6bd
000002c0: 574d 09be a33c a2b9 2130 133e c933 12be
000002d0: cd4e 24be 374d ca3c 0ba5 4f3d e8f9 1e3e
000002e0: e54c b53d e5d0 193d 95b9 eabd 1a8e 06be
000002f0: ea08 b9bd e40e 7abd 3746 1bbe 3bff c8bd
00000300: 5e1a 41bc 73ae 063e 5f7e 2bbe 268f e93c
00000310: e956 32bd 2594 a8bd c52f 02be 702f 7c3d
00000320: 9aff fd3d ad02 0fbe 3565 4ebd 04a2 9c3d
00000330: 6141 143d b800 2abd ec38 a53c 062d 193e
00000340: 512f f03d 8f27 ce3d 2dc4 85bd f158 ea3d
00000350: d2bd 8f3d c714 903d dece 8cbd e76d babd
00000360: 095c 2bbe 2d94 23be 2b93 0f3d 9d4e 063d
00000370: a00b 3f3c 765c 12be 6957 153b eb40 0f3e
00000380: 9bbc 36bd 78d6 cf3d b6e9 cf3d 283f 7abd
00000390: 98ea c1bd 152b 913c e1ef 9e3d 20df b3bc
000003a0: d7dd c2bd 9002 783d b3a5 41bc 2d35 03be
000003b0: c1ac 7cbd 371f 853c fd8c d3bd 2395 c83d
000003c0: dbe6 dabc 9d83 883d 50b5 973c fb06 86bd
000003d0: 28d6 45bd 42f5 cabc f32a fb3d 5cf8 b43d
000003e0: c194 8fbd 49e7 893c 7779 c63c 36dd 07be
000003f0: 08b8 cdbd 4ed5 8d3d 6d40 14bd 7c0d 75bd
-0.07687722 0.09231606 0.14357466 0.07361136 0.0026960461 -0.050432414 0.016950596 -0.0021949245
0.05117337 -0.073082596 0.092716336 0.080251925 0.035532854 0.1624752 0.12335988 -0.103392325
-0.07654272 -0.052978937 -0.05443028 0.061493695 0.11019593 -0.022617185 -0.13675645 0.12779269
0.02600135 0.076650195 -0.05957963 -0.020376233 0.10792345 -0.121013716 0.103743255 -0.05384537
-0.11371842 0.02140587 -0.07634184 -0.090155005 0.020384038 -0.07017293 0.0322899 -0.08137432
0.0609053 -0.06160349 0.05652748 -0.14564689 -0.02852675 0.096458435 0.04511494 -0.17008035
0.009786169 -0.057086572 0.026833056 0.080530494 -0.104792066 -0.09379816 -0.12199111 0.016936967
0.089201294 -0.049373243 -0.071028635 0.027186824 -0.13796663 0.05582976 0.06382513 -0.022775376
0.10180113 -0.010989249 -0.030081812 -0.04930617 -0.04214973 0.051863186 -0.004063296 -0.029439934
-0.034405176 -0.067003 -0.11218119 0.16424759 0.008527831 -0.14997788 -0.049838416 -0.091868676
0.03386927 0.07805307 -0.04816751 0.0585295 0.031050265 0.07014379 0.06224416 -0.15636581
-0.12169935 0.16649565 -0.089307845 0.07408546 -0.047976755 0.10554971 -0.091858014 -0.06771084
0.060455184 -0.06941051 0.028591912 -0.07568263 0.10444531 0.022452202 0.16068336 0.07782463
0.011513074 0.14301603 -0.09398933 0.047720455 0.12740225 -0.022950782 0.11612269 0.1685404
0.14465272 0.07539138 0.044144813 -0.08515892 0.061844774 0.106957525 0.095255785 -0.10736985
0.018446004 -0.082733564 -0.013483631 0.03537204 -0.13797037 -0.1403188 0.17414752 0.12515703
0.025243748 0.16963078 -0.15868214 0.10489867 0.07810899 -0.023934765 0.17881048 -0.08126782
-0.027027406 -0.0022403696 -0.08618951 -0.10605355 0.05099795 0.08196134 0.14586031 0.050433278
-0.0726099 -0.112717584 -0.0037020098 0.031208554 0.025492303 0.063946314 0.06543522 -0.08258082
-0.13831222 0.028152514 0.008777657 -0.002589092 0.04353663 0.16532901 0.0573572 -0.0033883108
-0.10151052 0.016204555 -0.1947679 0.061801262 -0.014631926 0.08614247 -0.042082887 -0.040026512
0.015622054 -0.10520927 0.0050544785 -0.023837721 -0.024533473 0.02645933 0.021022342 -0.08125131
-0.13408409 -0.00030944226 0.14373828 -0.14277567 -0.16045685 0.024695022 0.050694507 0.15525019
0.08852557 0.037552733 -0.11461178 -0.13140145 -0.09034903 -0.061049357 -0.15163504 -0.09814306
-0.011786072 0.13152485 -0.16747425 0.028510641 -0.043539915 -0.08231381 -0.12713535 0.061568677
0.12402268 -0.13965864 -0.050389487 0.076480895 0.036195163 -0.04150459 0.020168744 0.14958581
0.11727775 0.10066139 -0.06531558 0.114427455 0.07018627 0.07035213 -0.06875394 -0.091029935
-0.16734327 -0.15974493 0.03505246 0.032789815 0.011660486 -0.14293084 0.0022787696 0.13989608
-0.044613462 0.101483285 0.10151999 -0.061095387 -0.09468573 0.017720738 0.07760597 -0.02195698
-0.09514969 0.06054932 -0.011819291 -0.12813254 -0.06168819 0.016250236 -0.10329626 0.097940706
-0.026721409 0.06665728 0.018519074 -0.065443 -0.04829994 -0.024775151 0.12264051 0.08836433
-0.070107944 0.016833918 0.02422784 -0.13267979 -0.10044867 0.0692545 -0.036194254 -0.059827313

model.rnn.weight_hh_l1 f4 [196, 49]
00000000: 00a8 353e a1f2 11be d12e 1a3d fa21 e6bd
00000010: dbe0 f1bc 9ebb 0abe 5ecf d43c 62eb 1b3e
00000020: 695a bd3d 3abf b63d 977e 713c 4e51 a23b
00000030: aa70 db3c 7aad 16bd 05c5 133e e51e a73a
00000040: cba2 f43d 12f4 b9bd c39c c03c 971b a5bd
00000050: e80c 9f3c 0c73 ddbd 1511 ad3c 8762 493c
00000060: cf30 093e ca21 8c3c 4cd8 0abe 4b41 a9bb
00000070: 8c76 fabc 6d1f d6ba 8952 e73d 5414 b33d
00000080: 227f da3d 0702 d83d e982 563d cb42 5a3d
00000090: 52dc 9c3c e68f c4bd bc1f 323b 9a34 873d
000000a0: 300f a7bc 9da4 2bbe 795e 923d e24d bc3d
000000b0: 64f0 073c 2362 f0bd db07 3e3c 88c7 253d
000000c0: cb83 5e3d 0448 a9bd 865e a03d a448 1d3e
000000d0: 6d16 84bd 6de3 de3c 3d1a 27bd 8267 153e
000000e0: 0a37 12be c2d8 963d d9a1 c13c 8a1c af3d
000000f0: 39a3 d4bd ac15 fa3d a672 983c e5b7 a9bd
00000100: fcc5 e43c 8d78 0fbd 4bad a53d 224b 103c
00000110: 0baa 66bd 3158 9bbd 79f3 b93c 92b4 20bd
00000120: 3722 063e 4202 b5bd 41a8 183e bd4d c53d
00000130: a8e7 09be 3448 fbbb 988f 4e3a bcbe 123e
00000140: 1af6 11be 782c 20be 203e c63d 81a1 2cbd
00000150: 443e d73d 12ef ec3c bfe4 f83a 040f f83d
00000160: 3440 19bb 5736 9dbc 05bb 01be f85a 5c3d
00000170: 7178 d53d 552e 113e f792 1e3d fd00 503d
00000180: 5054 b83b c9d8 193d f5a7 b2ba 33ad 42bd
00000190: 60ea 44bd 11db 1fbe 21ff f03d bbba 8e3d
000001a0: 7e16 57bd 5524 7dbc 0d78 8ebc 9770 febb
000001b0: cd86 cebb d892 d23d c0fe 1bbe f384 c63d
000001c0: 97ef 03bd 6cba f63d 70a7 a83c 6608 033d
000001d0: b837 51bd 0cb5 a0bd 832a 28bd 6d7b c9bd
000001e0: cb5a 37be a41e 053d 5bf7 5bbd bad1 ca3c
000001f0: dc21 bf3d d3fe b4bd dfa0 acbd b252 163d
00000200: 4ae9 04bd 09e2 eabc d545 903d f195 16be
00000210: 4034 0d3e 6f3d 0fbe 0a6a b4bd 2f0f 89bc
00000220: e818 ffbd 0848 1fbd 9f18 a13d b79d a33d
00000230: ed63 a5bd 5770 25be ab5a 8bbd f2ec c9bd
00000240: 1d84 70bd 95e8 08bd 6cbd 143e 0032 b73d
00000250: 7332 cbbd 9141 993d 5932 fcbd 9d11 b53d
00000260: 4ac3 c7bd aae1 483d 9b9c 54bd 7afa f8bb
00000270: 33f8 103e cae0 a73d 873c dfbd 3887 79bc
00000280: dab2 053e 71cb a8bd fa2d 223c 73ec 8cbd
00000290: 9aa9 f8bd f4d4 2f3d 89b3 933d a39d 253d
000002a0: 16f8 273e f19c 64bd 9f22 f8bc ddbe 43bd
000002b0: 351c 4e3d 6668 b43d 6776 cabd 301a bfbd
000002c0: 76a1 c3bb e659 cabd 32dc 273d 2e49 cb3d
000002d0: 95d6 7b3d ae64 94bb 28e8 35bc 873b 09be
000002e0: 1447 ff3c 882e 463d d81b e8bc b97c 81bd
000002f0: 09e2 9cbd bc10 cabd d914 68bd a77b 90bc
00000300: 0f6d 4b3d 04b7 853d 4773 7c3d 7df7 9c3d
00000310: 4d6e 0ebd 2c04 5e3d c4d9 0c3e 3727 083d
00000320: cb42 673d bfd9 fbbd 043f 03bd b8c1 96bc
00000330: c6a4 3e3d bfa7 dcbd 16bb 1abe 2831 b53d
00000340: 93d6 903d 74e2 27bd 826a 4d3d cd41 ad3c
00000350: da68 1ebe ec57 2abd eac2 a83c 6e8f da3d
00000360: 500e 2a3c 49d4 003e 65e2 43bd 6a91 d23d
00000370: 5664 b1bb 9e74 163e 031f 233e 7365 fabc
00000380: 2061 273d 628a 86bd c893 a9ba 3639 b93d
00000390: bea9 0e3e 73f7 10bd 0615 24bb 9cf1 3bbb
000003a0: 2ae5 813d c863 f2bb 0745 343c 3ea5 97bc
000003b0: 4601 28be ae44 f0bd bb08 15be d4ae 933d
000003c0: 147e bf3d 14cb a6bd 21b3 01bd 4963 213e
000003d0: a5f1 d73d 20c2 ae3d a1eb 0cbe 9c16 0bbd
000003e0: 98ed b13d 6c84 f33d 6a20 93bd ab73 013e
000003f0: 55e1 85bd e842 f43d 7a12 ec3d 492d 7bbd
0.17739868 -0.14252712 0.037642304 -0.11236949 -0.029526165 -0.13548133 0.025977787 0.1522651
0.0924576 0.08923192 0.014739654 0.00495354 0.02678712 -0.036786534 0.14430626 0.0012750296
0.11945113 -0.09079756 0.02351225 -0.08061903 0.019415334 -0.10812959 0.02112631 0.012291557
0.13397525 0.017105956 -0.13559073 -0.005165254 -0.030574106 -0.001633627 0.11295039 0.08744112
0.1066878 0.10547262 0.05237094 0.053286355 0.019148026 -0.09597759 0.002717956 0.0660183
-0.020392984 -0.16762014 0.071469255 0.091945425 0.00829706 -0.11737468 0.011598553 0.04047349
0.054324906 -0.08265689 0.07830529 0.15359741 -0.0644959 0.027208054 -0.040796507 0.14590266
-0.14278808 0.07365562 0.023636745 0.08550365 -0.10382695 0.12211165 0.018609356 -0.08287028
0.027926438 -0.035027076 0.08089694 0.008806976 -0.05631451 -0.075851806 0.022699105 -0.039234705
0.1309899 -0.08838321 0.14907934 0.09633968 -0.13467276 -0.0076685194 0.00078796735 0.14330572
-0.14254037 -0.15641963 0.09679818 -0.04214621 0.10509923 0.028922591 0.001898907 0.12112239
-0.0023384215 -0.01919095 -0.12668999 0.053797692 0.10423363 0.1417783 0.038714375 0.050782192
0.005625285 0.037560258 -0.0013630377 -0.047528457 -0.04807508 -0.15610911 0.11767412 0.0696921
-0.052511685 -0.015450557 -0.017391229 -0.0077648866 -0.0063026906 0.102819145 -0.15233898 0.09693327
-0.032210913 0.12047276 0.020587653 0.03199043 -0.05107853 -0.07847032 -0.041056167 -0.09837995
-0.17905729 0.032499924 -0.053702693 0.024758209 0.0933263 -0.08837666 -0.08429121 0.03669996
-0.032449044 -0.028672235 0.070445694 -0.14705636 0.13789463 -0.13988279 -0.08809288 -0.016730873
-0.12455922 -0.038887054 0.07866024 0.07989066 -0.080757 -0.16156135 -0.06804403 -0.09859647
-0.058719743 -0.033424933 0.14525384 0.089450836 -0.09921732 0.07483209 -0.123142906 0.0884125
-0.09754045 0.049043335 -0.051907163 -0.0075982185 0.1415718 0.08197172 -0.109002165 -0.015229993
0.13056508 -0.08241928 0.009898657 -0.068810366 -0.12141724 0.042927697 0.07211978 0.040433537
0.16403231 -0.055813733 -0.030289946 -0.047789443 0.05031987 0.08808975 -0.09885865 -0.09331167
-0.0059701754 -0.09880428 0.04098148 0.09926067 0.06148394 -0.0045286035 -0.011102714 -0.13401614
0.031161822 0.04838422 -0.02833359 -0.06322617 -0.076603 -0.09866473 -0.056660507 -0.017637087
0.049664553 0.06529048 0.061633375 0.07664392 -0.03477316 0.054203197 0.13754946 0.033240523
0.056460183 -0.12297391 -0.03204252 -0.01840292 0.04654386 -0.107741825 -0.1511043 0.088472664
0.07072177 -0.040987447 0.050150402 0.02114954 -0.15469685 -0.041587755 0.020600755 0.10671888
0.010379389 0.1258098 -0.04782333 0.10281642 -0.0054135723 0.14692923 0.15929799 -0.030565953
0.04086411 -0.06569363 -0.0012937719 0.09044115 0.13931939 -0.035392236 -0.0025036945 -0.0028677946
0.06342538 -0.0073971488 0.0110027855 -0.01851141 -0.16406736 -0.117318496 -0.14554112 0.0721108
0.09350219 -0.08144203 -0.03166497 0.1576053 0.10544137 0.0853312 -0.1376176 -0.03395711
0.086878955 0.11890492 -0.07183917 0.1264178 -0.06537119 0.11926824 0.115269616 -0.061322484

model.rnn.bias_ih_l1 f4 [196]
00000000: 920e 593b 2c94 84bd 1cdd b4bd b105 2c3e
00000010: 6180 a7bd 5286 5c3d ad0b 603d c5d3 0cbd
00000020: ba5c 863d a75b 8bbb 6768 b2bd d2ac 993d
00000030: 2b9c 283e 292f 8c3d e446 9d3d 36c7 d53d
00000040: 9837 1fbd b8a2 bbbd 6ffa f63d 9981 553a
00000050: b1ea aebd 9ed2 833d 09ad 983b 3877 123e
00000060: 24ad e7bd 26ee 9dbd aa00 1c3e 7bcd 313e
00000070: e5ae f83c a2d2 063e 72f3 27bd b84b 9f3d
00000080: 3e0a 183d a7d5 203e 7046 dc3d c14f 0d3d
00000090: 9243 91bb 6afe 113d d9f0 083e 0173 d23d
000000a0: a983 623a f318 88bc 7809 c2bd 1e82 85bd
000000b0: 8284 afbd 01ca 2e3e 73c9 1c3e de15 053e
000000c0: 9384 3bbc 28a1 c2bb 1698 82bd 814d 2b3c
000000d0: 914c 2f3d bb80 ea3d d13e 173e c438 e23c
000000e0: 2680 1b3e c02c ae3d a4aa 91bd c8cf 713d
000000f0: fc93 96bc e65f d5bd aee6 af3d f558 f03d
00000100: e57b 173c 4efc 25bd 2487 e43d b310 e13d
00000110: ecdb 833d 0420 cf3c 2144 2d3d 5210 933d
00000120: 5470 e2bc acdc ebbc 8ebe e3bd bc3f 48bd
00000130: c0a4 dd3c fff6 c0bc ee84 f43d 86d9 063e
00000140: 9bf3 9fbd c583 843d b29c 053b b0ce c53c
00000150: 2f46 b43c f9aa 673d 303a bfbd e1ad b53c
00000160: 791b 1e3e 1c87 9bbd 27f2 a53d 4a83 2e3e
00000170: 7bac 893d d891 f53c 3edc a3bd bbc1 f5bc
00000180: e74e 05be 6372 30bd 18b7 043e 2ad2 063e
00000190: 3fec 29bd 6180 8fbd f946 e5bd d2a9 213d
000001a0: a648 2f3e e970 84bd 32e0 203d 9b24 d53d
000001b0: 30a9 183d 69cf c1bd 4dc9 663d 546d 26bd
000001c0: 7156 093d 4b74 01bd 39ff 9c3d 113a 733d
000001d0: 8c09 26bd 4849 dd3c 00b8 753b c395 c63d
000001e0: 4390 10be 23d0 ed3d 001e b3bd 8e91 6fbd
000001f0: 9293 1a3e 364d da3d 6dd9 0ebe ff8d fcbd
00000200: 31bc 703d b629 bd3c ba9b 1e3e 96b0 ebbd
00000210: 3101 013e da0b 9a3c c47d eabd dc08 86bd
00000220: 6347 153e db95 c9bd bc34 10bd 3734 f8bd
00000230: b528 83bc 92bd 323d 8d1d 173e 0b17 e2bd
00000240: 8c42 54bd b8c8 613d da81 853d 14f5 173e
00000250: 664a 273d 39d6 8c3d 4092 0d3e e0f2 593c
00000260: cd6f 283e b5ba 283e 994b 833d e0b7 d6bc
00000270: 4b47 ef3d bc13 a2bc 4fda ae3d c3cc 24bd
00000280: 43e8 b4bd 4c26 983d fdee 37bc d54c 213e
00000290: 1aaa 9ebd ebdb 183d 686e 8b3d 0b3c 1a3e
000002a0: 8e46 dbbd 0546 e63c ee9c b23d 90c2 9f3d
000002b0: 2efd 1e3e 5d1d ce3d 2d65 87bd 00cc f13d
000002c0: c6ad 83bc 7f06 383d 2489 9d3d ea63 093e
000002d0: 96cd 2c3e 528f cd3c 65ff da3d 2c4d 1d3e
000002e0: 2400 e43d c265 123d c9a4 173d 5037 bc3c
000002f0: d768 8fbd 6ed9 0c3e a861 183e 793b 41bd
00000300: 38be 30bc 6edd 033e 476f b5bc 3fd7 143e
0.0033120257 -0.06473574 -0.08831236 0.16799046 -0.08178783 0.053839035 0.054698635 -0.034381647
0.06560655 -0.004252869 -0.087113194 0.07503666 0.16465823 0.068449326 0.07679537 0.10438387
-0.038871378 -0.091618955 0.12059485 0.0008144617 -0.085408576 0.064366564 0.0046592993 0.14303291
-0.11312321 -0.07711439 0.15234628 0.17363541 0.030356834 0.13166288 -0.041003652 0.07778114
0.037119143 0.15706502 0.107556224 0.034499887 -0.004433104 0.03564302 0.13373126 0.102758415
0.0008640835 -0.01661346 -0.09474462 -0.065189585 -0.08570196 0.17069246 0.15311222 0.12996623
-0.011445182 -0.0059396215 -0.06376664 0.01045549 0.04279763 0.11450335 0.14770056 0.027614959
0.15185603 0.08504629 -0.07112625 0.059036046 -0.018381111 -0.10418682 0.085889205 0.11735717
0.009245847 -0.04052382 0.111585885 0.10989513 0.06438431 0.02528382 0.0423013 0.07180847
-0.027641453 -0.028791748 -0.1112033 -0.048888907 0.027056098 -0.023555277 0.11939417 0.13168916
-0.07810136 0.064704455 0.0020387587 0.024146408 0.022006122 0.056559537 -0.0933727 0.022177638
0.15440167 -0.075941294 0.081028275 0.1704227 0.06722351 0.02997677 -0.08000992 -0.029999604
-0.1301838 -0.043077838 0.1296047 0.13166109 -0.041485067 -0.07006908 -0.111951776 0.039468594
0.17117557 -0.064668484 0.03927631 0.104073726 0.037270725 -0.094633885 0.05634432 -0.040631607
0.033529703 -0.031605046 0.07665867 0.05938155 -0.04053645 0.027012482 0.0037493706 0.096965335
-0.14117531 0.116119646 -0.087459564 -0.05848842 0.15095356 0.10659258 -0.13950129 -0.12331771
0.058773223 0.023091178 0.15489092 -0.115082905 0.1259811 0.01880448 -0.11449769 -0.065446585
0.14578013 -0.09843036 -0.03520654 -0.12119334 -0.016010622 0.04363782 0.14757366 -0.11039551
-0.051821277 0.05512306 0.06518908 0.14839584 0.040842436 0.06876797 0.13825321 0.013302535
0.16448899 0.16477473 0.064109035 -0.026210725 0.1168352 -0.0197848 0.08537733 -0.04023434
-0.08833363 0.074291795 -0.011226413 0.15751965 -0.07747288 0.037319105 0.06808168 0.15061967
-0.107068166 0.02810956 0.08721338 0.07800782 0.15526268 0.10064194 -0.066110946 0.11806488
-0.016074073 0.04492807 0.07692173 0.1341702 0.168753 0.025092755 0.10693244 0.1536147
0.11132839 0.035741575 0.037022386 0.022975594 -0.070024185 0.13754818 0.14881003 -0.04717586
-0.010787539 0.12877437 -0.022147788 0.14535235

model.rnn.bias_hh_l1 f4 [196]
00000000: 5366 203d b9f5 14bd d59c b1bd b3b8 1d3e
00000010: 6c4e adbd 76c0 cabd 81a1 3a3e a45b aabc
00000020: 6c2e 383d fae8 46ba 81ba e23d 136f 6bbd
00000030: 97d1 eb3c 9fd7 5ebc 16a1 043e bfda 93bc
00000040: 09ea 5f3d d32c c6bd 8b59 1dbd f57b a83c
00000050: 7fc8 afbd c0ba 193e 057e 153c 5f28 0b3e
00000060: 2fd8 e73d 315b adbd b5c8 8cbd bd03 4cbd
00000070: c1c8 c4bd 520e 573b 5986 2e3e fd2a af3d
00000080: 0b20 99bd 8aed 763d 79a8 9a3d a2e2 073e
00000090: 5ed8 4e3d 4783 53bd c7bd 72bd d896 afbd
000000a0: 04a0 c13d d750 b83d 1a1c 223e b8c7 dabd
000000b0: 29ed a83d 2b5e 8ebc dcfe 093e d525 0bbd
000000c0: 1fdd 80bd 3500 fc3d 3176 0b3e 89e7 a33b
000000d0: 914c 0c3e 707b 9bbd 6845 6ebd 7a2d f93b
000000e0: 2876 a33d c088 56bd e12b 73bd dd23 9d3d
000000f0: 82d1 afbd c178 fe3d cc4c f8bb 2c8c 803d
00000100: 530a 863d 8d25 753d b7f9 7a3d 115d 663d
00000110: fe9f da3c 5af8 343c c5d5 e83d 2e5a 0d3e
00000120: 0308 053e 7d34 9fbd 2714 8e3d e704 0d3e
00000130: 0d0d 273e 9a42 e7bc af89 2a3e ead0 5f3c
00000140: 15c7 7e3d 037c 013e 19af 843d 69be 6ebd
00000150: fbec 433e 2164 2abd 03e6 723d ef08 1cbd
00000160: de5f c33d 466d b63c 931b 023e 61f3 ccbd
00000170: 7cc2 023e 8ac2 103e 3cdc c33d 6051 d4bd
00000180: fc87 41bc 7238 84bd f690 d73d 13c5 a0bd
00000190: 43ff 58bd 23b8 16be 0083 debd 4fce 1cbe
000001a0: d219 a93d 064a ca3d fef1 25be d356 7a3d
000001b0: f507 85bd 9287 703d 6851 68bd 5eb1 293e
000001c0: f977 cebd 3ae3 d23d e58e a3bb 588a f63d
000001d0: 8489 ac3d 1d93 aabd c769 223e 52e8 a03d
000001e0: 78b2 413d eaf7 003e 8881 d73d 98be fb3d
000001f0: 3ff2 8f3d e098 86bd 99d0 d9bc 2438 6bbc
00000200: a015 e83c a92c af3d 9d69 cc3c 5032 18be
00000210: 24a0 94bd 2630 6dbd 93cf 74bd d029 2d3e
00000220: 0d91 153e d68d 483d ae0c d4bd 7830 9fbd
00000230: 04bd 70bd 6cd4 de3d 6b6e 5cbd 5f21 f03d
00000240: 173c da3d f8f2 bd3d 71f4 183e 44dc 323e
00000250: f5b5 023e 3a16 5cbc 9670 debb 9a90 c9bd
00000260: 8909 e03b 34d8 193d 4b9f b3bd 6a31 733d
00000270: 92e7 9aba 78d3 ee3d e918 343e d5e3 5fbd
00000280: df5c d4bc ae7c 563d e595 d83c 4234 253e
00000290: e64e eabc b8b3 d13d 9d1f c1bd 12a9 6ebd
000002a0: b23b a6bc 4c1f 323d e8b9 bcbd 8437 e43d
000002b0: 3a1a ed3b 8473 e439 b86b 3a3e 02fe 483d
000002c0: 9ef6 283e caf3 db3c 1bf0 11bd ce07 2fbd
000002d0: 13b5 103d 4711 fa3d a3b7 8fbc 779d 8fbd
000002e0: 0861 9aba cfdd d7bc 53a7 c9bc 0dc9 253d
000002f0: 11d7 0e3e 3142 6fbb 91da 10bd 85d7 093e
00000300: f171 733a 4784 5e3c 5af4 483c 0d28 913d
0.039160084 -0.036367152 -0.086724915 0.15402488 -0.084622234 -0.0989999 0.18225671 -0.02079565
0.044966146 -0.0007587817 0.11070729 -0.057478976 0.028786464 -0.013601213 0.12952074 -0.018048642
0.054666553 -0.09676518 -0.038415473 0.02056692 -0.085831635 0.15012646 0.009124284 0.13589619
0.113205306 -0.08464659 -0.06874219 -0.049808253 -0.09608603 0.0032814932 0.17043437 0.08553121
-0.07476815 0.06028513 0.07551665 0.13270047 0.050499313 -0.051638868 -0.059263017 -0.08573693
0.09454349 0.08999794 0.15831032 -0.106826246 0.0824836 -0.017378887 0.13476127 -0.033971626
-0.062921755 0.12304727 0.13619305 0.0050019664 0.13701083 -0.07591903 -0.05817166 0.007604298
0.07981521 -0.05237651 -0.059368018 0.07672856 -0.08584882 0.12425376 -0.0075775143 0.06276736
0.06544938 0.059850264 0.061273303 0.0562411 0.026687618 0.01104554 0.11368898 0.13803932
0.12991337 -0.07773683 0.069374375 0.13771401 0.16313572 -0.02823 0.16654085 0.013660649
0.06220158 0.12644963 0.0647871 -0.058287058 0.1913337 -0.041599397 0.059301388 -0.038094457
0.095397696 0.022268903 0.12705831 -0.10007358 0.12769502 0.14136711 0.09563491 -0.103670835
-0.011812206 -0.064560786 0.10525696 -0.07850089 -0.05297781 -0.1471868 -0.1086483 -0.15313075
0.08256878 0.098774 -0.16205594 0.06111796 -0.06495658 0.05872304 -0.05671826 0.16571566
-0.10081477 0.10297246 -0.0049913996 0.12038106 0.084246665 -0.08328841 0.15860663 0.078568116
0.04728934 0.12594572 0.10522753 0.12292212 0.07028627 -0.06572127 -0.026588725 -0.014356647
0.028330624 0.0855344 0.024952704 -0.14862943 -0.07257107 -0.057907246 -0.05976827 0.16910481
0.14606114 0.04896339 -0.10353981 -0.077729166 -0.05877401 0.1088036 -0.05381624 0.11725115
0.106559925 0.09274858 0.14936997 0.17466837 0.12764724 -0.013433034 -0.0067883236 -0.09842034
0.006837074 0.037559703 -0.08770617 0.059373297 -0.0011818281 0.11661428 0.17587627 -0.054660637
-0.02592319 0.052364998 0.026438663 0.16133216 -0.028602075 0.10239357 -0.09429858 -0.058266707
-0.020292137 0.04348688 -0.09215146 0.11143401 0.0072357925 0.00043573615 0.18205154 0.049070366
0.16500327 0.026849646 -0.035629373 -0.042732053 0.035328936 0.12210327 -0.01754362 -0.07012456
-0.0011778185 -0.026350884 -0.02461592 0.04047494 0.13949229 -0.003650796 -0.03536469 0.1346112
0.0009286693 0.013581342 0.012265289 0.07087717
