lightning_logs/version_9/checkpoints/epoch=7-step=400.ckpt (torch, 493310 bytes, 45 tensors)

model.param_proj.proj.0.weight f4 [1, 40]
0	0x3c58562c	0.013204139
1	0x3e0d2d63	0.13786845
2	0xbd97d070	-0.07412803
3	0x3e4bd253	0.19904451
4	0x3e0c38da	0.13693562
5	0x3e2e5246	0.17023572
6	0x3e18d952	0.14926651
7	0x3e5360bd	0.20642371
8	0x3d087d76	0.033322774
9	0x3d4cab7d	0.04996823
10	0xbe57cb5a	-0.21073666
11	0x3e129c45	0.14317425
12	0xbd6dd578	-0.058064908
13	0xbd287524	-0.04112734
14	0x3cd523cc	0.026018046
15	0xbb89de28	-0.0042073913
16	0xbe4cf71d	-0.20016141
17	0x3e27a80e	0.16372702
18	0xbdc6bc1b	-0.09703847
19	0x3de07c72	0.10961236
20	0x3e45e296	0.19324717
21	0xbcbb24d3	-0.022844708
22	0xbdf5c46d	-0.12000356
23	0xbe4da01b	-0.20080607
24	0x3e11d9ba	0.14243212
25	0xbe3369c2	-0.17520812
26	0x3dd14672	0.102185145
27	0xbd4b479b	-0.049628835
28	0x3dd247b8	0.102675855
29	0xbe3ccc0a	-0.1843721
30	0xbda5521b	-0.08072301
31	0xbe2f2228	-0.17102873
32	0x3dd5e745	0.10444502
33	0x3df1ba73	0.118031405
34	0xbe19784b	-0.14987294
35	0xbe5d997b	-0.2164058
36	0xbda66825	-0.08125333
37	0x3e5664a0	0.20936823
38	0xbe63ff51	-0.22265364
39	0x3d9c71b6	0.07638876

model.param_proj.proj.1.weight f4 [1, 40]
0	0x3d2f0b19	0.042735193
1	0xbd925fef	-0.07147204
2	0x3d590f5c	0.052993163
3	0x3dc05116	0.09390466
4	0x3d29ba3b	0.04143737
5	0xbde95cad	-0.113946296
6	0xbdcaaab3	-0.098958395
7	0x3dd4cac6	0.103902385
8	0xbd930863	-0.07179334
9	0x3d090696	0.033453546
10	0x3d0b666d	0.034033228
11	0x3d830540	0.06397486
12	0xbc05bab7	-0.008162192
13	0x3ddf371f	0.108991854
14	0xbe1740a6	-0.14770755
15	0x3d892d37	0.06698077
16	0xbd1ffffa	-0.039062478
17	0xba86fa9b	-0.0010298075
18	0x3dd9b1e3	0.10629632
19	0xbd92b485	-0.071633376
20	0x3dbc4269	0.09192354
21	0xbc64aa80	-0.013956666
22	0x3d6326e7	0.055457022
23	0xbe22c907	-0.15896998
24	0xbdfeca9d	-0.12440989
25	0x3e152388	0.14564335
26	0x3dd1cab7	0.10243743
27	0xbdad83ea	-0.08472426
28	0xbd754b1b	-0.05988608
29	0xbdbf50b3	-0.09341564
30	0xbde4025e	-0.11133264
31	0x3dcce0db	0.10003825
32	0xbda44074	-0.08020106
33	0x3d746300	0.059664726
34	0x3db7eb91	0.089804776
35	0xbb706bef	-0.0036685427
36	0x3df59deb	0.11993011
37	0x3d43ee70	0.047834814
38	0xbd41973b	-0.047263365
39	0xbc26dd08	-0.010184534

model.param_proj.proj.2.weight f4 [1, 40]
0	0xbe4387ec	-0.19094819
1	0x3e45f4ec	0.19331712
2	0xbe10aa8d	-0.1412756
3	0x3e539afb	0.20664589
4	0xbe03cc0d	-0.12870808
5	0x3e38bc54	0.18040591
6	0x3e012c0e	0.12614462
7	0x3e585d8b	0.21129434
8	0x3e72f6dc	0.23726982
9	0xbd25840f	-0.040409144
10	0xbe087723	-0.13326697
11	0xbdf06a68	-0.117390454
12	0xbe4a8e15	-0.19780762
13	0x3e45a505	0.19301231
14	0xbe748ae7	-0.23881112
15	0x3e479221	0.19489338
16	0x3da13e5b	0.078732215
17	0xbe82261e	-0.25419706
18	0xbe3f1a14	-0.18662292
19	0xbd8edd7b	-0.06975838
20	0xbc994822	-0.018711153
21	0x3da59055	0.0808417
22	0x3e5bdba6	0.21470508
23	0x3e117156	0.1420339
24	0x3e7bf0ae	0.24603531
25	0x3e56c695	0.2097419
26	0xbe426263	-0.18982844
27	0xbe51fc8a	-0.20506492
28	0xbe681a68	-0.22666323
29	0xbd50e629	-0.051000748
30	0xbe649b48	-0.2232486
31	0xbe194b4b	-0.14970128
32	0xbe5a21c7	-0.21301948
33	0xbe2f8442	-0.17140296
34	0x3e330ce1	0.17485382
35	0xbe4015ae	-0.1875827
36	0x3e481c25	0.19541986
37	0xbe30daac	-0.17270917
38	0x3e813c3a	0.25241262
39	0xbe749464	-0.23884732

model.rnn.weight_ih_l0 f4 [160, 37]
0	0x3de1ebd0	0.11031306
1	0x3def0a87	0.1167193
2	0x3e04453f	0.1291704
3	0xbd82b827	-0.063827805
4	0x3d40acf7	0.047039952
5	0x3e38fd5f	0.18065403
6	0x3df95873	0.121750735
7	0x3debb6dc	0.11509487
8	0xbd484e1a	-0.04890261
9	0x3e2491a8	0.16071188
10	0x3d8c0b04	0.068380386
11	0x3e0485d7	0.12941681
12	0xbdc29b60	-0.09502292
13	0x3c56aa28	0.013102092
14	0xbcedd5ad	-0.029032553
15	0x3deb4726	0.1148818
16	0xbd65b5bf	-0.05608153
17	0x3e2b49bb	0.16727345
18	0x3da66528	0.08124763
19	0xbd62f341	-0.055407766
20	0x3e3da352	0.18519333
21	0x3c21da0f	0.009878649
22	0xbd148ac1	-0.03626514
23	0x3df6eb14	0.12056556
24	0x3dce652d	0.100778915
25	0x3cea290d	0.028584028
26	0x3e42cdf6	0.1902388
27	0x3d6d1c4d	0.057888318
28	0x3d8ec658	0.06971425
29	0xbc1d390d	-0.0095961215
30	0x3d17b78d	0.037040282
31	0x3d86437a	0.06555839
32	0x3ba39d21	0.0049930965
33	0x3de5f6a0	0.112286806
34	0x3c8c0acb	0.01709499
35	0xbe40f15f	-0.18842076
36	0x3d3f4bc0	0.0467031
37	0x3df43c9f	0.11925625
38	0x3d9e2720	0.07722306
39	0x3d2a08fe	0.041512482
40	0xbba25930	-0.0049544796
41	0x3e11f59a	0.14253846
42	0xbdd05513	-0.101724766
43	0x3e2dc9cc	0.1697151
44	0x3df5c8a3	0.12001159
45	0x3dbeb352	0.093115464
46	0x3dc9a7f1	0.098464854
47	0x3dacbd95	0.084345974
48	0x3c7eb29e	0.015545515
49	0x3bd4015c	0.0064698886
50	0xbdc6e2d4	-0.09711233
51	0xbb9e0c23	-0.004823224
52	0xbdcc4bc5	-0.099753894
53	0xbdfc8e65	-0.12331847
54	0xbda7cb56	-0.0819308
55	0x3e200e5d	0.15630479
56	0x3d3681b7	0.0445573
57	0xbdace5c3	-0.08442261
58	0x3e16c908	0.14725125
59	0xbdb1c48f	-0.08680069
60	0x3d7f0799	0.062263105
61	0x3d0f02c6	0.034914754
62	0xbdc4701b	-0.09591695
63	0xbe01f715	-0.1269191
64	0x3d157671	0.036489908
65	0x3e16c8da	0.14725056
66	0x3c5e9e2f	0.013587519
67	0x3ab388fd	0.0013697442
68	0x3dc9910f	0.09842121
69	0x3dcef06f	0.10104453
70	0x3e198c53	0.14994936
71	0x3dc8332f	0.097753875
72	0x3c886c5f	0.016653238
73	0xbdf10a69	-0.11769564
74	0x3d1a8a9e	0.037729852
75	0x3de91db2	0.11382617
76	0xbd5eb565	-0.05437221
77	0xbe0bcdfe	-0.13652799
78	0xbe0d61a6	-0.13806781
79	0xbd2c286b	-0.042030733
80	0x3dacdc68	0.08440477
81	0x3d88f904	0.06688121
82	0x3bd4502a	0.006479283
83	0x3dd438af	0.10362374
84	0xbe14db7c	-0.14536852
85	0x3e005cb3	0.12535362
86	0xbd9cb09c	-0.07650873
87	0x3c097c48	0.008391447
88	0xbe2abd62	-0.16673806
89	0x3c85b7cb	0.01632299
90	0xbe11d449	-0.14241137
91	0xbde9be72	-0.11413278
92	0xbb52c16b	-0.0032158743
93	0xbe174328	-0.14771712
94	0x3d348a00	0.04407692
95	0x3dfe3559	0.12412519
96	0x3da6e20e	0.08148585
97	0xbbe9ed11	-0.007138856
98	0x3db1cd07	0.08681684
99	0xbe22d31b	-0.15900843
100	0x3df9d7f1	0.12199391
101	0x3df0b1d6	0.117526695
102	0x3d4bc0eb	0.049744528
103	0xbd27dff6	-0.04098507
104	0xbd0b412f	-0.03399771
105	0x3da0d066	0.07852249
106	0x3da067c3	0.07832291
107	0x3de376da	0.111066535
108	0xbe2dcfbd	-0.16973777
109	0x3e005bb8	0.12534988
110	0x3b9be04a	0.004756962
111	0xbe21c2c4	-0.15796953
112	0x3ddd1166	0.10794334
113	0x3cdc6333	0.02690277
114	0x3dbf1300	0.09329796
115	0x3d79c34f	0.060977276
116	0x3dfaa01a	0.12237568
117	0xbd993c6e	-0.07482229
118	0x3cd9643d	0.026537055
119	0x3c3899f6	0.011267176
120	0xbd123ad7	-0.035700645
121	0x3d6811e6	0.056657694
122	0xbd4a1d15	-0.04934414
123	0xbc59dbf2	-0.013297068
124	0x3d3f4503	0.046696674
125	0x3d28cdf7	0.04121205
126	0x3d9a403b	0.07531782
127	0x3d8ac876	0.06776516
128	0xbc8d45b4	-0.017245151
129	0x3d0326bb	0.032019358
130	0x3e300afe	0.17191693
131	0x3e21ce41	0.15801336
132	0xbc266cda	-0.010157788
133	0xbda20f5b	-0.07913085
134	0xbd26a2c9	-0.040682588
135	0x3d0f88df	0.03504264
136	0x3e2952ab	0.16535442
137	0x3e02fcf1	0.12791802
138	0xbccf7d4e	-0.025328305
139	0x3ccf458c	0.025301717
140	0x3cf450f5	0.02982376
141	0x3da82dd0	0.08211863
142	0xbc6817b7	-0.01416581
143	0xbdbd5c27	-0.09246092
144	0xbc866d18	-0.016409442
145	0xbd92abe5	-0.071616925
146	0x3b44e2e3	0.0030042462
147	0x3e153e05	0.1457444
148	0x3e23d8df	0.16000699
149	0x3c3c0742	0.01147634
150	0x3dc501fb	0.09619518
151	0x3e124f72	0.14288118
152	0xbdbfe7b7	-0.09370368
153	0x3da3141f	0.07962822
154	0xbd75e826	-0.060035847
155	0x3dbe4ecb	0.09292372
156	0x3d992ec2	0.074796215
157	0xbd30fb61	-0.043208484
158	0x3c8d8640	0.01727593
159	0xbcbcdcf4	-0.023054577
160	0xbe0db658	-0.1383909
161	0x3d433108	0.04765418
162	0x3d6ea158	0.05825934
163	0xbde8e04e	-0.11370908
164	0x3b09cccb	0.0021026607
165	0xbdc38b9e	-0.09548114
166	0x3d532484	0.051548496
167	0xbe1b10b8	-0.15143096
168	0x3dd5c489	0.10437877
169	0xbd953801	-0.072860725
170	0x3aa28a41	0.0012400822
171	0xbc974378	-0.018464789
172	0xbde11cf4	-0.109918505
173	0xbd22fb23	-0.039790284
174	0xbc51d67e	-0.012807487
175	0x3e08f673	0.13375263
176	0x3d9d26e2	0.07673432
177	0x3e0c6a72	0.1371248
178	0x3e087310	0.13325143
179	0xbdccb0fd	-0.09994695
180	0xbe0e3dd8	-0.13890779
181	0xbe1fea81	-0.156168
182	0x3dc9c9b1	0.09852923
183	0xbd0a45f5	-0.033758122
184	0x3d746892	0.05967004
185	0xbd69efd3	-0.05711348
186	0x3b56ba5a	0.0032764883
187	0x3dad46ce	0.084607705
188	0xbbbdd895	-0.005793641
189	0x3cd13cf9	0.02554177
190	0x3e0a2282	0.13489726
191	0x3d984230	0.07434499
192	0xbe2142ee	-0.15748188
193	0xbe1f9bc6	-0.15586767
194	0xbddd3a3f	-0.10802125
195	0xbddb53df	-0.107093565
196	0xbe325307	-0.17414485
197	0xbc0c0d45	-0.008548086
198	0x3a98c02c	0.0011653951
199	0xbc0d3a08	-0.008619793
200	0x3a3da0bc	0.0007233729
201	0xbe3508ed	-0.17679186
202	0xbdfe9b9a	-0.124320224
203	0x3d0be936	0.034157954
204	0xbd3d3b99	-0.046199415
205	0x3df2c004	0.1185303
206	0xbd9f95b4	-0.077922255
207	0xbe04686e	-0.12930462
208	0xbe17f3c7	-0.14839087
209	0xbdf02860	-0.11726451
210	0xba10fcb8	-0.0005530822
211	0xbd8c0eda	-0.0683877
212	0x3df06f49	0.11739976
213	0x3d689482	0.056782253
214	0x3d901715	0.070356525
215	0xbda49971	-0.08037079
216	0x3dad8618	0.08472842
217	0xbe0a6b52	-0.13517502
218	0xbdf19487	-0.117959075
219	0xbbb3bf26	-0.005485433
220	0xbc584598	-0.013200186
221	0x3c7fca2e	0.015612168
222	0x3d7c45bc	0.06158994
223	0x3e10b683	0.14132123
224	0xbdf2e0fd	-0.11859319
225	0xbdba0df8	-0.090846956
226	0x3ba7ccf4	0.005120868
227	0x3dc4cc56	0.096092865
228	0x3dc94562	0.09827687
229	0x3e492561	0.19643165
230	0xbbdf0162	-0.0068055848
231	0x3e3758a2	0.17904904
232	0x3e05fe87	0.13085376
233	0xbd610aee	-0.054942064
234	0xbd993064	-0.07479933
235	0x3e4a5a22	0.19760945
236	0x3e32eb9d	0.17472692
237	0x3d9b1604	0.075725585
238	0x3e00b3c2	0.12568572
239	0x3e46e1ae	0.19422027
240	0xba217cb9	-0.0006160248
241	0xbce1cdef	-0.027564017
242	0x3e050436	0.12989888
243	0x3e054b05	0.13016899
244	0x3dbf9f07	0.09356504
245	0x3d8cbd18	0.06872004
246	0xbda0f26d	-0.07858739
247	0xbd661139	-0.05616877
248	0x3de16b1d	0.11006758
249	0x3d122d84	0.03568794
250	0xbc541096	-0.0129434075
251	0x3ced1f9a	0.028945733
252	0x3e06f56a	0.13179556
253	0xbc1af6fc	-0.0094583
254	0xbe0376b5	-0.12838252
255	0xbd0a7854	-0.03380616

model.rnn.weight_hh_l0 f4 [160, 40]
0	0x3d382e31	0.044965927
1	0xbd1b002e	-0.03784197
2	0xbe13a855	-0.14419682
3	0xbdcb32e4	-0.09921816
4	0x3e13d46e	0.14436504
5	0xbd8f0c66	-0.06984787
6	0xbdda9d25	-0.10674504
7	0x3ddcf86f	0.107895724
8	0x3c9a4708	0.018832698
9	0xbd590678	-0.052984685
10	0x3ddc8605	0.1076775
11	0xbd9a1702	-0.0752392
12	0xbdca0e25	-0.09865979
13	0xbda47ac9	-0.08031232
14	0xbe09b644	-0.13448435
15	0xbd380220	-0.0449239
16	0xbd19dedd	-0.037566055
17	0xbc44f385	-0.01202095
18	0xbcd92144	-0.02650512
19	0xbdbd0aa9	-0.09230549
20	0x3dbfceb0	0.093655944
21	0xbe045625	-0.12923487
22	0xbe2d8a0d	-0.16947193
23	0xbc793576	-0.0152105
24	0xb9985a63	-0.00029059043
25	0xbe0716c4	-0.13192278
26	0xbe3efaa1	-0.18650295
27	0x3dea3c20	0.11437249
28	0xbb4a82e2	-0.0030900766
29	0xbc15e25f	-0.009148209
30	0x3de0a401	0.10968781
31	0xbe15da8a	-0.14634147
32	0xbe0847c4	-0.13308626
33	0xbd8723a6	-0.06598596
34	0x3dfa8cac	0.12233862
35	0x3e29262a	0.16518465
36	0xbde4f6bb	-0.111798726
37	0xbe3c5f86	-0.18395814
38	0xbbbabf20	-0.0056990534
39	0x3d3b1364	0.04567279
40	0x3d8e8288	0.069584906
41	0x3e22d345	0.15900905
42	0xbcfe5b9c	-0.031049542
43	0xbde1393a	-0.10997243
44	0x3d9a6d6a	0.075404
45	0x3e07d32b	0.13264148
46	0xbc77413a	-0.015091235
47	0x3df83457	0.12119358
48	0x3d184e28	0.03718391
49	0x3d38eaa8	0.04514566
50	0xbe34c1be	-0.17652032
51	0xbd17d001	-0.037063602
52	0x3e0780d7	0.13232742
53	0xbd5c1793	-0.05373342
54	0xbccdab8e	-0.025106218
55	0x3ca7afec	0.020469628
56	0x3d0c5017	0.034256067
57	0x3df9b6af	0.12193047
58	0x3e195152	0.14972427
59	0xbda953d9	-0.08267946
60	0x3e0944c4	0.13405138
61	0xbddfc415	-0.109260716
62	0x3e11e75f	0.14248417
63	0xbdbd4fdf	-0.0924375
64	0x3de179f3	0.11009588
65	0x3da80f8a	0.08206089
66	0x3ddb9ef5	0.10723678
67	0x3e1f0327	0.15528546
68	0x3e2abd54	0.16673785
69	0xbd8bc83d	-0.06825302
70	0x3daeabf3	0.085288905
71	0x3bae66a7	0.0053222957
72	0xbd1570c7	-0.036484506
73	0x3dceeed8	0.101041496
74	0x3e241136	0.1602219
75	0x3c80824e	0.015687134
76	0x3de9731c	0.113989085
77	0x3d088343	0.033328306
78	0x3d97b1b7	0.07406943
79	0x3e2e4032	0.17016676
80	0x3db1bf80	0.08679104
81	0x3e4e6def	0.20159124
82	0x3d5a48c3	0.053292047
83	0x3dd5acfc	0.10433385
84	0xbd2f8c36	-0.042858325
85	0x3e150eec	0.14556473
86	0xbcee8369	-0.029115396
87	0xbd8cffe7	-0.06884747
88	0x3dec6ea8	0.115445435
89	0xbcfe610a	-0.031052131
90	0xbd687470	-0.05675167
91	0x3daef264	0.08542326
92	0xbd9bfab1	-0.07616175
93	0x3d57fd9e	0.052732103
94	0x3dc5aaa4	0.09651688
95	0xbc74fb16	-0.014952442
96	0x3c2fc9b8	0.010729246
97	0xbdb3a410	-0.08771527
98	0x3dc2e2b7	0.09515899
99	0xbdb3be3b	-0.08776518
100	0xbdaef35a	-0.085425094
101	0xbdb393ac	-0.087684005
102	0xbd16e8c2	-0.03684307
103	0xbd8bc72f	-0.06825101
104	0xbd61f26b	-0.05516283
105	0x3c882926	0.016621184
106	0x3d828702	0.06373407
107	0x3d2c2d03	0.042035114
108	0x3d0b6dfb	0.034040432
109	0xbe0fd0cb	-0.14044492
110	0xbe22c7f7	-0.15896593
111	0x3db298a5	0.08720521
112	0xbd2855a2	-0.04109729
113	0xbd07e3cf	-0.03317624
114	0xbe1bc237	-0.15210806
115	0x3d1cf26e	0.038317136
116	0x3bef2157	0.0072976756
117	0x3dbb4280	0.09143543
118	0xbd63b368	-0.055591017
119	0x3dc07d7b	0.093989335
120	0xbd8d9907	-0.06913953
121	0xbd7649cf	-0.060128983
122	0x3d446af0	0.047953546
123	0xbd2d0606	-0.042242073
124	0x3d9fcd03	0.07802775
125	0xbe232857	-0.15933357
126	0xbda7a0d2	-0.08184971
127	0xbd948a9b	-0.072529994
128	0x3e22cce3	0.1589847
129	0x3df2798f	0.11839592
130	0xbd78be7b	-0.06072853
131	0x3d7ada56	0.061243378
132	0xbddc6e95	-0.10763279
133	0x3daef2ff	0.085424416
134	0x3e379cfa	0.17930976
135	0xbcb83263	-0.022484964
136	0xbd5d0a8f	-0.053965148
137	0x3d883634	0.066509634
138	0x3cf16420	0.029466689
139	0x3df7fa9d	0.121083476
140	0xbdee9fad	-0.116515495
141	0xbbc014bc	-0.0058618467
142	0x3d844639	0.064587064
143	0xbd6d8b50	-0.057994187
144	0x3de03e7f	0.1094942
145	0xbdc94493	-0.098275326
146	0x3dcfe3f8	0.101509035
147	0x3e0bc17b	0.13648026
148	0x3d1e845d	0.03870045
149	0x3e00c2ca	0.12574306
150	0x3dca9ff6	0.098937914
151	0xbd72d93b	-0.0592892
152	0x3e263373	0.16230564
153	0xbde80b3d	-0.113302685
154	0xbe0fbf35	-0.14037783
155	0xbc9b6162	-0.018967334
156	0x3d904b9c	0.07045671
157	0xbe062663	-0.13100581
158	0xbde3adfd	-0.1111717
159	0xbdf61c86	-0.12017159
160	0x3e093105	0.13397606
161	0x3d945b15	0.07243935
162	0xbcd30e77	-0.025763733
163	0xbe0bfcb3	-0.13670616
164	0xbd0b3588	-0.0339866
165	0xbdda3257	-0.10654133
166	0x3e0b9fe6	0.13635215
167	0xbdaf5728	-0.085615456
168	0xbe193cad	-0.14964552
169	0xbd43ad99	-0.047772978
170	0xbcc1c9a0	-0.023655713
171	0x3dca7114	0.09884849
172	0xbd8cc6e3	-0.06873872
173	0xbdf74a33	-0.12074699
174	0x3d92c959	0.0716731
175	0xbdabab86	-0.08382325
176	0xbdd9e8c6	-0.10640101
177	0xbdbfcda4	-0.09365395
178	0x3e0554ec	0.13020676
179	0x3cd91c70	0.026502818
180	0xbc035fa3	-0.008018407
181	0xbe1f5532	-0.15559843
182	0xbd2526f2	-0.040320344
183	0xbd816ea8	-0.06319934
184	0xbdd3afe3	-0.10336282
185	0x3d3f50af	0.046707805
186	0xbd9cf495	-0.07663838
187	0xbd80cf58	-0.06289548
188	0xbb99ca21	-0.004693285
189	0xbc8ddaa3	-0.017316168
190	0xbe526a82	-0.20548442
191	0x3de30e0a	0.11086662
192	0x3db90547	0.0903421
193	0x3df2f59a	0.11863251
194	0xbdac7c70	-0.08422172
195	0x3dd4e297	0.10394781
196	0x3d6ae931	0.057351295
197	0xbdbcdcdb	-0.09221812
198	0xbcf5bdda	-0.029997755
199	0xbdacf05c	-0.084442824
200	0xbd042034	-0.032257274
201	0xbd90c5d5	-0.070689835
202	0xbe0f8e34	-0.1401909
203	0xbb886740	-0.004162699
204	0xbd06cf0c	-0.0329123
205	0x3d937065	0.07199172
206	0xbd16db2e	-0.03683012
207	0xbe45f3f6	-0.19331345
208	0xbe006a93	-0.12540655
209	0xbc58b9ef	-0.013227924
210	0x3ab9fb6b	0.0014189308
211	0xbdd91eaa	-0.10601552
212	0xbca53948	-0.020168915
213	0x3c2b9e5e	0.010474769
214	0xbd68c089	-0.05682424
215	0xbce80d59	-0.028326677
216	0x3da5599f	0.080737345
217	0x3c95c0e4	0.018280454
218	0x3d5bf7dd	0.053703178
219	0xbc618817	-0.0137653565
220	0xbda8a1dd	-0.08233998
221	0x3ab40299	0.0013733684
222	0x3d8c274a	0.06843431
223	0xbdd03614	-0.101665646
224	0x3d85c80b	0.06532296
225	0xbca1abf1	-0.019735308
226	0x3d83f3c8	0.06442982
227	0xbe3d7f0b	-0.18505494
228	0xbcd3402c	-0.025787435
229	0x3ba8fefc	0.0051573496
230	0x3cdea033	0.027175998
231	0x3d676268	0.056490332
232	0x3d442461	0.047886256
233	0x3d2fa1be	0.04287886
234	0xbd044ea5	-0.032301564
235	0xbe45f327	-0.19331037
236	0x3d923aac	0.07140097
237	0xbcaf0099	-0.02136259
238	0x3e368a14	0.1782611
239	0x3dc467b9	0.09590096
240	0x3da83ed0	0.082151055
241	0x3de65ecb	0.11248549
242	0xbd2817f8	-0.041038483
243	0x3daba063	0.08380201
244	0x3e172066	0.14758453
245	0x3d72279a	0.0591198
246	0xbd2d2d52	-0.04227955
247	0xbcef711e	-0.029228743
248	0xbdbadc07	-0.09123998
249	0x3d357792	0.044303484
250	0xbdcd5304	-0.100255996
251	0x3d4aa14e	0.04947024
252	0xbddb02b7	-0.10693877
253	0x3daa58ea	0.0831774
254	0x3d79b89e	0.06096708
255	0xbdb8dd16	-0.09026544

model.rnn.bias_ih_l0 f4 [160]
0	0x3d5f450d	0.05450921
1	0x3c5495ec	0.012975197
2	0x3d8afdb4	0.06786671
3	0xbd73981a	-0.059471227
4	0x3d7d7698	0.061880678
5	0xbcc676cd	-0.02422657
6	0x3d40f59c	0.04710923
7	0x3c36610f	0.011131539
8	0xbdab06ed	-0.0835093
9	0xbdcd07f2	-0.10011281
10	0xbcf59760	-0.029979408
11	0xbdde5281	-0.1085558
12	0x3e12f0dc	0.14349693
13	0x3d20f18b	0.039292853
14	0x3df8cc0d	0.121482946
15	0xbd983f80	-0.07433987
16	0x3e15434f	0.14576457
17	0x3e2e77b3	0.17037849
18	0x3c030189	0.0079959715
19	0x3d9a44ab	0.075326286
20	0x3e53f7bc	0.20699972
21	0xbd089a44	-0.033350244
22	0x3e3a121d	0.18170972
23	0xbd953d6f	-0.07287108
24	0xbdcbca17	-0.09950655
25	0xbda0ec2e	-0.07857548
26	0x3d223113	0.039597582
27	0xbda3aa59	-0.079914756
28	0xbdb52740	-0.08845377
29	0x3e49aa22	0.19693807
30	0x3b34f7b6	0.0027613468
31	0xbce89a11	-0.028393777
32	0x3dcfb227	0.10141402
33	0xbe0a90a0	-0.13531733
34	0x3d870f9e	0.065947756
35	0x3cae379f	0.021266757
36	0x3d81e74d	0.06342945
37	0x3d19404c	0.037414834
38	0xbd8cdce2	-0.068780676
39	0xbde3e1d6	-0.11127059
40	0xbd0512dd	-0.032488693
41	0xbdb332cb	-0.08749922
42	0x3c386e88	0.011256821
43	0xbc318adc	-0.010836329
44	0xbdb532e3	-0.088475965
45	0x3df2791a	0.118395045
46	0x3b4086dc	0.0029377257
47	0x3dd30d3b	0.10305258
48	0x3d962381	0.073309906
49	0xbdcf8a67	-0.1013382
50	0x3d3c8279	0.046022866
51	0xbda5a276	-0.080876276
52	0x3cae720e	0.02129462
53	0x3db4eb48	0.08833939
54	0xbc8cfa13	-0.017209088
55	0xbc0513a2	-0.008122357
56	0xbc5b6763	-0.0133913485
57	0xbd8b797a	-0.06810279
58	0xbc5a1372	-0.0133103
59	0xbd13b9bc	-0.036065802
60	0x3e4a6a30	0.1976707
61	0x3e08a5af	0.13344453
62	0x3d011436	0.031513415
63	0x3c82876a	0.015933711
64	0x3d9a1524	0.075235635
65	0xbe02fed5	-0.12792523
66	0x3d941a08	0.072315276
67	0xbdf0cf4a	-0.11758287
68	0xbd4a519a	-0.049394228
69	0x3e172f71	0.14764191
70	0xbe01f4b3	-0.12691002
71	0xba2e6b18	-0.00066535315
72	0xbb21b523	-0.0024674616
73	0x3cbb6809	0.022876756
74	0xbdb09a07	-0.086231284
75	0xbd772e8a	-0.060347117
76	0x3d6a7a81	0.057245735
77	0x3e4d0383	0.20020871
78	0x3d346132	0.044038005
79	0xbdb4c10c	-0.08825883
80	0x3d8e50b3	0.06948986
81	0x3e3bd6a3	0.18343596
82	0x3a4f60c9	0.00079108455
83	0x3e0a751e	0.13521239
84	0x3d573341	0.052539114
85	0xbdb8a564	-0.09015921
86	0x3d24331a	0.040087797
87	0x3d920978	0.07130712
88	0xbb9aa4a5	-0.004719334
89	0xbe0050cd	-0.12530823
90	0xbde39e66	-0.111141965
91	0x3b4f1062	0.0031595458
92	0x3c3724d8	0.011178218
93	0xbc854954	-0.016270317
94	0xbd57ba2b	-0.052667778
95	0x3d362289	0.04446653
96	0x3c00e7b2	0.0078677405
97	0xbdcbc057	-0.09948795
98	0xbdf6aa66	-0.1204422
99	0x3de72118	0.11285609
100	0x3c142298	0.009041451
101	0x3d160ad7	0.03663143
102	0x3dc2fe96	0.09521215
103	0x39154008	0.00014233601
104	0x3d826df3	0.063686274
105	0x3d82c1a3	0.063845895
106	0x3e026296	0.1273292
107	0xbdd0eeaa	-0.102017716
108	0x3c7ccf0b	0.015430222
109	0xbd974935	-0.0738701
110	0x3d9feb19	0.07808513
111	0x3aa20af9	0.0012362889
112	0xbd94264d	-0.07233868
113	0xbb74938a	-0.0037319385
114	0xbe501ed4	-0.2032426
115	0xbdea7836	-0.1144871
116	0x3c281d22	0.010260852
117	0x3e016c8a	0.1263906
118	0xbd1f0194	-0.038819864
119	0xbe1e63be	-0.15467736
120	0x3e3273b4	0.1742695
121	0x3d920657	0.071301155
122	0x3e014d4d	0.12627144
123	0x3d43b7a6	0.047782563
124	0x3e2f6eca	0.17132106
125	0x3c7aa720	0.015298635
126	0x3cb557b9	0.022136556
127	0x3e1e2de3	0.15447192
128	0x3c517e57	0.012786469
129	0x3deda8ae	0.11604439
130	0xbe0e25d8	-0.13881624
131	0x3dfe75ea	0.12424834
132	0xbd0df444	-0.034656778
133	0xbd99a4bb	-0.07502123
134	0x3db48efd	0.08816335
135	0x3cc18d31	0.023626896
136	0xbd62d33a	-0.055377223
137	0x3d47d717	0.04878911
138	0x3d1b7bc0	0.037959814
139	0xbca71a01	-0.020398142
140	0xbdba8705	-0.09107784
141	0x3dd0530b	0.10172089
142	0xbd044adf	-0.032297965
143	0x3e02ea9e	0.12784812
144	0xbdb3b92d	-0.08775554
145	0x3ad6dc93	0.001639264
146	0x3e2cd29f	0.1687722
147	0x3e331b5d	0.17490907
148	0x3e3258af	0.17416643
149	0xbccc0394	-0.02490405
150	0x3e1b2528	0.15150893
151	0xbd06b134	-0.032883838
152	0x3d4f40f4	0.050599054
153	0x3e2bb6c4	0.16768938
154	0x3e4c7909	0.19968046
155	0x3da97317	0.08273905
156	0x3dcab36c	0.09897503
157	0xbda83c61	-0.08214641
158	0xbdfd139f	-0.12357258
159	0x3e186fb2	0.14886358

model.rnn.bias_hh_l0 f4 [160]
0	0xbe2f5339	-0.1712159
1	0xbd9fec96	-0.07808797
2	0x3d1a23c1	0.037631754
3	0x3c4155a3	0.011800203
4	0xbaa308a4	-0.0012438488
5	0x3d86aaf4	0.065755755
6	0xbcd7934e	-0.026315358
7	0xbd8555b0	-0.06510484
8	0x3dc1dd4d	0.09466038
9	0x3e10dbf1	0.14146401
10	0xbd85f98f	-0.0654174
11	0xbb2c188f	-0.0026259755
12	0xbd908aac	-0.070576996
13	0xbc9e700d	-0.01934054
14	0x3db2de2f	0.087337844
15	0xbe19a251	-0.15003325
16	0xbd345a3d	-0.04403137
17	0x3defc252	0.117069855
18	0x3d187457	0.037220325
19	0x3d05c0e9	0.032654677
20	0x3e471732	0.19442442
21	0xbda62e2c	-0.08114275
22	0x3dd7c4a7	0.10535555
23	0xbc92eff2	-0.01793668
24	0x3d9e983c	0.0774388
25	0xbcf0e8c5	-0.029407868
26	0xbdbf4cb7	-0.09340804
27	0xbd10ccdd	-0.035351623
28	0xbc6c06fb	-0.014405961
29	0x3da45951	0.08024848
30	0x3d0f71bd	0.03502058
31	0xbbef8605	-0.0073096775
32	0xbda832b5	-0.082127966
33	0x3c931bc2	0.017957572
34	0x3c56a0a9	0.013099828
35	0xbd842b47	-0.06453567
36	0x3e08cb2f	0.13358758
37	0x3da26608	0.07929617
38	0xbe0cffd8	-0.13769472
39	0x3d97a050	0.07403624
40	0x3dd1cfbf	0.102447025
41	0xbdf005ba	-0.11719842
42	0xbce776d6	-0.028254908
43	0xbd037a98	-0.032099336
44	0xbcb25382	-0.021768335
45	0xbd5b33cb	-0.05351619
46	0x3932a719	0.00017037652
47	0xbd8a9c88	-0.06768137
48	0x3d8697f8	0.065719545
49	0x3e0c9588	0.13728917
50	0xbc91a9b3	-0.017781114
51	0x3dd93604	0.10606006
52	0x3d67aff0	0.05656427
53	0xbd41a599	-0.047277067
54	0xbdd8fcfd	-0.10595129
55	0x3d79438b	0.06085543
56	0x3c852820	0.016254485
57	0xbcdf6963	-0.027271932
58	0x3d64e969	0.05588666
59	0x3d3dd44f	0.04634505
60	0x3e2d8951	0.16946913
61	0x3c891436	0.01673327
62	0x3cdb8bf7	0.026800139
63	0x3df5ee91	0.120083936
64	0xbd0c88bc	-0.034310088
65	0xbda3758f	-0.07981407
66	0x3dfdbf5a	0.12390013
67	0x3d498b3e	0.049205057
68	0xbd7efd45	-0.062253255
69	0x3e0eae6d	0.13933726
70	0xbdb7c266	-0.089726254
71	0x3d0b57e2	0.03401936
72	0x3de5d89f	0.11222958
73	0x3d522457	0.051304188
74	0xbd5345e3	-0.05158032
75	0x3e0a5437	0.13508688
76	0xbe0e915c	-0.13922638
77	0x3d23cd30	0.039990604
78	0x3c1bed19	0.009516978
79	0x3e3ce631	0.18447186
80	0xbc1f0d70	-0.009707794
81	0x3e2b01b6	0.16699871
82	0x3d87e679	0.06635756
83	0xbdfc6433	-0.12323799
84	0x3d04c332	0.032412715
85	0x3e084b86	0.1331006
86	0x3dce7a17	0.100818805
87	0xbd0e2120	-0.03469956
88	0x3cf684d8	0.030092642
89	0x3c58ecf4	0.013240088
90	0x3dd8fe71	0.10595406
91	0x3dcd772d	0.100324966
92	0xbc5607ff	-0.01306343
93	0x3d31bcbb	0.043392878
94	0x3dc2d205	0.09512714
95	0x3e58fe1a	0.21190682
96	0xbda773c1	-0.08176375
97	0x3e0c0a09	0.13675703
98	0x3d7eeb49	0.062236104
99	0xbdd1ead7	-0.1024987
100	0x3d8490c4	0.06472924
101	0xbb66273a	-0.0035118596
102	0xbd2d867f	-0.042364594
103	0xbd814e17	-0.063137226
104	0x3d7fac45	0.06242015
105	0x3c066300	0.008202314
106	0x3cde37c9	0.02712621
107	0x3a31dab2	0.00067846023
108	0xbdfa3940	-0.12217951
109	0xbdcd78d5	-0.100328125
110	0x3d8280ee	0.06372248
111	0xbda220a2	-0.079163805
112	0xbcb69810	-0.022289306
113	0x3cba781e	0.022762354
114	0xbd211eb8	-0.039335936
115	0xbd8f07e9	-0.069839306
116	0xbdea2a10	-0.11433804
117	0x3d38e25a	0.04513774
118	0x3e57248d	0.21010037
119	0x3dd6538c	0.10465154
120	0xbd90723d	-0.07053039
121	0x3d84ce51	0.06484664
122	0x3e10800d	0.14111347
123	0x3d213ca0	0.039364457
124	0xbc249333	-0.010044861
125	0xbd39221a	-0.045198537
126	0x3e57f0e9	0.21087994
127	0xbe09fb6e	-0.13474819
128	0x3db570d0	0.08859408
129	0x3d7de9d1	0.061990563
130	0x3e0aa400	0.13539124
131	0xbdad4569	-0.084605046
132	0xbd9c0ca9	-0.07619602
133	0xbb391775	-0.0028242741
134	0xbbda3af4	-0.00665986
135	0x3dbff212	0.09372343
136	0xbd32e6df	-0.043677207
137	0xbdad5682	-0.08463766
138	0x3d7e4037	0.06207296
139	0x3de3fc82	0.111321464
140	0xbc5615db	-0.013066734
141	0x3df7b0f3	0.12094297
142	0x3e27cafb	0.16386025
143	0x3e50a7df	0.20376538
144	0x3ddaff3b	0.106932126
145	0x3e0c4656	0.13698706
146	0x3dd10111	0.102052815
147	0xbd40942b	-0.047016304
148	0x3db041fb	0.08606335
149	0x3e485ffb	0.19567864
150	0xbd41d939	-0.0473263
151	0xbdb69589	-0.0891524
152	0x3dd26cbb	0.10274645
153	0x3dc635b1	0.096782096
154	0xbd8ae472	-0.06781854
155	0x3d6e9b36	0.05825349
156	0x3d86bcc6	0.065789744
157	0x3d0bb2f9	0.03410623
158	0x3de831f3	0.11337652
159	0x3e1bc101	0.15210344

model.rnn.weight_ih_l1 f4 [160, 40]
0	0xbdab4ffc	-0.08364865
1	0x3debf3c9	0.11521108
2	0x3d93bf81	0.07214261
3	0x3de7b0d7	0.113130264
4	0x3d7f4597	0.062322225
5	0xbdb91e66	-0.09039001
6	0x3d3e069d	0.046393026
7	0x3c179ff3	0.009254443
8	0x3de42f4e	0.11141835
9	0xbdb5fd47	-0.088861994
10	0xbd9a3330	-0.075292945
11	0x3e2c8343	0.16846947
12	0x3db349ff	0.08754348
13	0xbd052f7b	-0.032515984
14	0x3de06953	0.10957589
15	0xbe10624b	-0.14099996
16	0xbd5459f6	-0.051843606
17	0x3dcce6a8	0.10004932
18	0x3d0df4fe	0.03465747
19	0xbe2c4e23	-0.16826682
20	0xbbed24d5	-0.0072370567
21	0xbd193e10	-0.037412703
22	0xbd9e7275	-0.07736675
23	0x3e21f39f	0.1581559
24	0x3e2e2d4d	0.17009468
25	0x3b01f8af	0.0019832065
26	0xbd99342a	-0.07480653
27	0x3d829131	0.06375349
28	0x3e287868	0.16452181
29	0x3d4efcda	0.050534107
30	0xbb8cde74	-0.0042989794
31	0xbe21d29e	-0.15803
32	0x3ca5faae	0.020261135
33	0xbdcff2c9	-0.101537295
34	0x3e3c2538	0.18373573
35	0x3d21ac40	0.03947091
36	0x3ca5f022	0.020256106
37	0x3d72e9c6	0.059304975
38	0x3d519ecb	0.051176827
39	0xbd2f8e0e	-0.042860083
40	0x3dd41c8f	0.103570096
41	0xbe2dabd2	-0.16960075
42	0x3c9ef866	0.019405555
43	0xbc6a033d	-0.014282999
44	0x3c117f57	0.008880458
45	0xbe2614f5	-0.16218932
46	0xbc89b5e9	-0.016810374
47	0xbdb6fe56	-0.089352295
48	0x3e04a796	0.12954554
49	0xbd108df6	-0.035291635
50	0x3d860869	0.06544573
51	0x3c8b1f4b	0.016982695
52	0xbd89460a	-0.06702812
53	0xbd5e2cde	-0.054242007
54	0x3e08be2d	0.13353796
55	0x3d684e58	0.05671534
56	0xbd0dce15	-0.034620363
57	0x3e0e7023	0.13909964
58	0x3e3ede21	0.18639423
59	0x3da50430	0.08057439
60	0xbda135cb	-0.07871588
61	0x3dec3ce7	0.11535054
62	0xbd19090a	-0.037362136
63	0x3e389593	0.18025808
64	0xbc2d1bff	-0.010565757
65	0xbe098911	-0.13431193
66	0xbde82321	-0.11334825
67	0x3e2988bd	0.16556068
68	0x3d94ae3c	0.07259795
69	0xbdc31dd1	-0.095271714
70	0x3d0dd412	0.034626074
71	0xbdefeb01	-0.11714745
72	0xbd23cc03	-0.039989483
73	0x3d97539e	0.073889956
74	0x3d861a78	0.06548017
75	0x3e059172	0.13043764
76	0x3e4c5f3a	0.19958201
77	0xbc9e959c	-0.019358449
78	0xbe194969	-0.1496941
79	0x3e050880	0.12991524
80	0x3e243800	0.16036987
81	0xbe2536b7	-0.16134153
82	0xbb92791f	-0.004470005
83	0xbdf0f81f	-0.11766075
84	0xbd3dadd9	-0.046308372
85	0xbd8bcd80	-0.068263054
86	0x3c9e67fd	0.019336695
87	0xbd43c5f2	-0.047796197
88	0xbda31695	-0.079632916
89	0x3d9b8626	0.07593946
90	0x3baf749a	0.005354476
91	0x3df7630c	0.120794386
92	0x3dfa5cd3	0.12224736
93	0x3dc43c92	0.09581865
94	0x3d723529	0.05913273
95	0xbde6e07b	-0.11273285
96	0xbe486d76	-0.19573006
97	0xbd626007	-0.05526736
98	0xbdb5cf2c	-0.088774055
99	0x3d2fb78a	0.042899646
100	0x3c18d1aa	0.009327332
101	0x3db295aa	0.087199524
102	0xbd7f49eb	-0.062326353
103	0x3d7da25c	0.061922416
104	0x3de1f980	0.110339165
105	0x3d95ddc8	0.07317692
106	0xbe0bba34	-0.1364525
107	0xbe13e9a5	-0.14444597
108	0xbdb3d5aa	-0.087809876
109	0xbdc5b7f4	-0.09654227
110	0x3db161d9	0.08661241
111	0xbbab79c2	-0.0052330205
112	0xbe0322d5	-0.12806256
113	0xbdd28556	-0.10279338
114	0xbdf2b55e	-0.11850999
115	0x3d7ec70c	0.062201545
116	0x3c40640f	0.011742606
117	0x3c1c9d30	0.009558961
118	0x3d122067	0.035675433
119	0x3e39f432	0.1815956
120	0x3e075d42	0.13219169
121	0xbe158b17	-0.1460384
122	0x3dc3631e	0.095403895
123	0x3abcb12e	0.0014396065
124	0x3d3326ae	0.04373806
125	0x3e2cc10b	0.16870515
126	0xbd9112a0	-0.070836306
127	0xbdee1c34	-0.11626473
128	0xbbf25861	-0.0073957895
129	0x3d5ecf9c	0.05439721
130	0xbce422d6	-0.027848642
131	0xbda52e5e	-0.080654845
132	0xbde1013b	-0.10986563
133	0x3de5c8be	0.11219929
134	0xbda9330f	-0.08261692
135	0x3d570e28	0.052503735
136	0xbc149199	-0.009067916
137	0xbc88d09c	-0.016701035
138	0x3db9542d	0.090492584
139	0xbd0a3224	-0.033739224
140	0xbb17b812	-0.0023150486
141	0x3c326573	0.010888445
142	0x3c27dc51	0.010245399
143	0x3e01c6f6	0.12673554
144	0x3ac7f0a9	0.0015254217
145	0x3c7fe5c7	0.015618748
146	0x3d86a5fc	0.06574628
147	0xbdd75383	-0.105139755
148	0xbdc675a8	-0.0969041
149	0x3e0d1d5e	0.13780734
150	0xbc13a552	-0.009011583
151	0x3e1a7bdc	0.15086311
152	0xbe2144ca	-0.15748897
153	0x3d01cbd6	0.031688534
154	0xbc8fdbde	-0.017560896
155	0xbd9412b5	-0.072301306
156	0xbd157621	-0.03648961
157	0xbd958ac4	-0.07301858
158	0xbcab68a8	-0.020923927
159	0x3dc444b5	0.09583417
160	0x3e285d06	0.16441736
161	0x3dba5b5f	0.09099459
162	0xbbe60872	-0.0070200497
163	0xbe3e2025	-0.1856695
164	0x3da8612f	0.08221661
165	0x3df4d157	0.11953991
166	0x3e2a9d1d	0.16661496
167	0xbc2c4c1b	-0.010516192
168	0x3d8efee4	0.0698221
169	0x3da16450	0.07880461
170	0x3d3f2cb4	0.04667349
171	0x3d8fc107	0.07019239
172	0xbe1684b0	-0.14699054
173	0x3d0a39e8	0.03374663
174	0x3da4ed9b	0.08053132
175	0x3c11d038	0.008899741
176	0xbe3ddfdb	-0.18542425
177	0x3de8acbd	0.11361072
178	0xbddefe8b	-0.10888394
179	0xbc9a3f5c	-0.01882904
180	0xbd497424	-0.049183026
181	0xbe2040df	-0.15649746
182	0x3c318e99	0.010837221
183	0x3e0a70ab	0.13519542
184	0xbe0b16d9	-0.13582934
185	0x3d34ef6c	0.044173643
186	0x3d2e8296	0.042605005
187	0x3dd6f796	0.10496442
188	0xbdcd2e61	-0.10018612
189	0x3def5d43	0.1168771
190	0x3cf2db0d	0.029645467
191	0x3e387f62	0.18017343
192	0xbe00cc5e	-0.1257796
193	0xbdbaa3a0	-0.0911324
194	0x3d91ebdb	0.07125064
195	0x3b858613	0.004074821
196	0x3e08387f	0.13302802
197	0xbdce0f01	-0.100614555
198	0x3b094216	0.0020943931
199	0xbde8eedd	-0.113736846
200	0x3c7edd5f	0.015555709
201	0x3d4efea9	0.05053583
202	0x3d0d15d2	0.034444638
203	0xbd176e0f	-0.036970194
204	0xbded3f0b	-0.1158429
205	0x3d4903b7	0.04907581
206	0x3e29f8b4	0.16598779
207	0xbc66eeca	-0.014095018
208	0xbdbfc84a	-0.09364374
209	0x3c41901e	0.011814145
210	0xbcb4c218	-0.022065207
211	0x3dc7c175	0.09753696
212	0x3d91b6fb	0.07114979
213	0xbd1e98f6	-0.038720094
214	0x3a995e0d	0.0011701003
215	0xbdf299f1	-0.11845768
216	0xbdb08705	-0.08619503
217	0xbd7fffb3	-0.062499713
218	0xbdeb03a3	-0.11475303
219	0xbe3dd2b8	-0.18537414
220	0xbb0260fd	-0.0019894235
221	0x3cde8308	0.02716209
222	0xbe3caeec	-0.18426102
223	0x3ce7428c	0.028229974
224	0xbd53db9a	-0.0517231
225	0xbb117c98	-0.0022199508
226	0xbd3d5eb3	-0.04623289
227	0xbdd710a8	-0.10501224
228	0xbe1152a0	-0.14191675
229	0x3dd2b911	0.10289205
230	0xbcc316bf	-0.023814557
231	0x3bdf0d59	0.006807011
232	0xbd59cba5	-0.053172726
233	0x3e4073c2	0.18794158
234	0xbe1373fe	-0.14399716
235	0x3d7c4e65	0.0615982
236	0xbdf77f6c	-0.12084851
237	0xbd7e1f77	-0.062041726
238	0xbdc6165a	-0.09672232
239	0x3dfe043d	0.12403152
240	0xbdc7cc16	-0.09755723
241	0x3c735d9b	0.01485386
242	0x3de5755a	0.11204024
243	0xbb806be7	-0.003919113
244	0x3d73e120	0.059540868
245	0x3b6e22c5	0.0036336642
246	0x3dc23621	0.094829805
247	0x3d7d0d31	0.06178016
248	0xbe32a023	-0.174439
249	0xbbbeef3d	-0.0058268593
250	0xbd9fa388	-0.07794863
251	0xbd7549d5	-0.059884865
252	0x3e2d70a8	0.16937506
253	0x3e376c6a	0.1791245
254	0x3d9747cd	0.07386742
255	0xbd0f49ce	-0.034982495

model.rnn.weight_hh_l1 f4 [160, 40]
0	0xbd56e21d	-0.052461732
1	0xbdf21516	-0.11820428
2	0xbe4824f0	-0.1954534
3	0x3d9f3f89	0.0777579
4	0xbb114628	-0.002216706
5	0xbc9d943c	-0.019235723
6	0x3dbd527f	0.092442505
7	0xbe1573cc	-0.14594954
8	0xbb82b96f	-0.0039893906
9	0xbd320e5a	-0.043470718
10	0x3d80f3f4	0.0629653
11	0x3dde7fb3	0.108642004
12	0x3e352e3a	0.17693415
13	0xbe37e806	-0.17959604
14	0xbe4e1ea2	-0.20128873
15	0x3dff4efb	0.12466236
16	0x3d9e939b	0.07742997
17	0x3e1b042a	0.15138307
18	0x3c110ce7	0.008853174
19	0x3d99b7b5	0.075057425
20	0x3dc1fe7d	0.09472368
21	0xbdb5b626	-0.08872633
22	0xbb14686f	-0.0022645255
23	0x3e0416bb	0.12899296
24	0x3d51c9cc	0.05121784
25	0xbe27475d	-0.16335817
26	0x3e0da8a6	0.13833866
27	0x3d88fa91	0.06688417
28	0xbdf2b6f0	-0.11851299
29	0x3defd793	0.117110394
30	0x3e17da35	0.14829333
31	0x3cbe0629	0.023196297
32	0x3e045da7	0.1292635
33	0x3e15f319	0.14643516
34	0xbd4dcf54	-0.05024655
35	0x3e32898a	0.1743528
36	0xbd6fcb4f	-0.0585435
37	0x3d22d0cd	0.03974991
38	0xbd2bcc96	-0.041943155
39	0xbe3d9f9a	-0.18517914
40	0x3e55ef12	0.2089198
41	0x3c5308af	0.012880488
42	0xbd7237fe	-0.05913543
43	0x3e4274b3	0.1898983
44	0x3d91877a	0.07105918
45	0x3cf76717	0.030200524
46	0x3c7966b1	0.015222237
47	0x3e028855	0.12747319
48	0xbd979e99	-0.07403297
49	0xbe01409c	-0.12622303
50	0x3e32d409	0.17463697
51	0x39c9d032	0.00038492825
52	0xbccf0308	-0.02527
53	0xbcb6a6fd	-0.022296423
54	0x3ca6e221	0.020371499
55	0xbde3925f	-0.111119024
56	0x3db014a3	0.08597686
57	0x3e52d6c5	0.2058974
58	0xbbb24801	-0.0054407124
59	0x3dfb575e	0.12272523
60	0x3de2e2d4	0.1107842
61	0xbda92ef9	-0.082609124
62	0xbd666e6c	-0.05625765
63	0x3dd3d87c	0.103440255
64	0xbdc2a391	-0.09503854
65	0xbd5cf5e3	-0.053945433
66	0x3e00e9e0	0.12589216
67	0xbe2fed9e	-0.17180488
68	0xbe4ba141	-0.19885732
69	0x3dea3ae7	0.11437016
70	0xbdc13fe9	-0.09436018
71	0x3d18c8b7	0.03730079
72	0x3e5991d7	0.2124704
73	0x3d4f77da	0.05065141
74	0x3d565df6	0.052335702
75	0x3d1dc0e7	0.038514044
76	0xbe3f3f63	-0.18676524
77	0x3c0eaf7b	0.00870883
78	0x3d54b6fc	0.05193232
79	0x3da3176b	0.07963451
80	0xbd87388f	-0.066025846
81	0x3d75839f	0.059939977
82	0xbe03fade	-0.12888667
83	0xbd06474e	-0.032782845
84	0x3dc7c302	0.09753992
85	0xbdd594b2	-0.10428752
86	0xbe4754ce	-0.19465944
87	0xbe11a6ac	-0.14223737
88	0x3d15234a	0.036410607
89	0xbd19cb8b	-0.03754763
90	0xbe1d4f25	-0.15362222
91	0xbdfec383	-0.12439635
92	0x3d3b3faf	0.04571503
93	0x3e0eae03	0.13933568
94	0xbd9ffd5a	-0.07811995
95	0xbe3ad327	-0.1824461
96	0x3d86c4dd	0.065805174
97	0x3c3e2c81	0.01160729
98	0x3c86d936	0.016460996
99	0xbe3ec2ce	-0.18629
100	0xbd012caf	-0.031536754
101	0xbde682eb	-0.11255439
102	0xbdcb4b92	-0.09926523
103	0xbd991b7e	-0.07475947
104	0x3df27510	0.11838734
105	0x3dc1f935	0.094713606
106	0xbd888fe0	-0.06668067
107	0x3daad0f4	0.08340636
108	0x3d8c316d	0.06845365
109	0xbd5e7044	-0.054306284
110	0xbdf7abb6	-0.12093298
111	0x3e55230e	0.20814154
112	0x3e06c880	0.13162422
113	0x3e28346a	0.16426244
114	0x3db13616	0.08652894
115	0xbdce6abb	-0.10078951
116	0xbcb186f8	-0.021670803
117	0x3c0787c9	0.00827212
118	0xbd68a823	-0.056800973
119	0x3e0c5e28	0.13707793
120	0x3dff80e9	0.124757595
121	0xbca28d05	-0.019842634
122	0xbd3debd0	-0.046367466
123	0xbd80c6d9	-0.06287927
124	0x3cb17a39	0.021664726
125	0x3d257f4e	0.04040461
126	0x3e050d7b	0.12993424
127	0x3b65a106	0.0035038604
128	0xbdac59e5	-0.084155835
129	0x3c7e32dc	0.0155150555
130	0xbda7df23	-0.08196857
131	0x3e123720	0.14278841
132	0xbcd25e28	-0.025679663
133	0x3df76d93	0.120814465
134	0xba699477	-0.00089103676
135	0xbd6f9cd1	-0.05849916
136	0x3e08fb13	0.13377027
137	0x3c1cd5ac	0.009572428
138	0x3e0ecfa5	0.13946398
139	0xbc921abf	-0.01783502
140	0x3e23b8da	0.15988484
141	0xbc304b8c	-0.010760199
142	0x3df6d6cc	0.12052688
143	0x3c84de7b	0.016219368
144	0x3c5d0da7	0.0134920245
145	0x3bf44435	0.00745442
146	0x3dfb5282	0.122715965
147	0x3d2a81d6	0.041627727
148	0x3d17b173	0.037034463
149	0xbd5cdc1d	-0.053920854
150	0xbdc22f4f	-0.0948168
151	0xbdddb0fc	-0.10824773
152	0x3e18f43e	0.14936921
153	0x3d93e92e	0.0722221
154	0x3dcf3072	0.10116662
155	0xbd817613	-0.06321349
156	0x3cd0d244	0.025490887
157	0x3c7c8416	0.015412351
158	0x3e39b4e1	0.18135406
159	0xbdb90569	-0.09034235
160	0x3d39d13c	0.045365557
161	0x3d2ea760	0.04264009
162	0x3bbedd20	0.0058247
163	0x3bf7410f	0.0075455974
164	0xbd93ea41	-0.07222415
165	0xbdd5c460	-0.10437846
166	0xbd0e0543	-0.034672987
167	0x3deaa486	0.114571616
168	0x3bc7219c	0.0060770046
169	0xbdca710f	-0.098848455
170	0xbe25bcbb	-0.16185276
171	0xbdda9b8c	-0.106741995
172	0xbddb0dd4	-0.10695997
173	0x3e130992	0.1435912
174	0x3dc1548f	0.094399564
175	0xba8f78e8	-0.0010946067
176	0x3d815743	0.06315472
177	0xbd5ece13	-0.054395746
178	0xbc7d15f9	-0.015447133
179	0xbcd1f72a	-0.025630552
180	0xbd2da908	-0.04239753
181	0x3d99de9a	0.07513161
182	0xbcb6744e	-0.022272255
183	0xbd406680	-0.04697275
184	0xbd685583	-0.056722175
185	0x3d1d2173	0.038361978
186	0x3db7003a	0.0893559
187	0x3cd6d467	0.026224328
188	0x3da4e109	0.080507345
189	0x3dd0f071	0.102021106
190	0xba4e66ed	-0.00078736135
191	0x3e2581e7	0.16162835
192	0xbe17ac28	-0.14811766
193	0x3de87280	0.11349964
194	0xbbfab8dd	-0.007651432
195	0xbe0022a9	-0.12513222
196	0xbdcce97c	-0.10005471
197	0x3d2eb24e	0.042650513
198	0x3e3e11b4	0.1856144
199	0x3e1f3f61	0.15551521
200	0x3e48d0df	0.19610928
201	0x3e0c0981	0.136755
202	0x3e119858	0.14218271
203	0xbdc4764d	-0.095928766
204	0x3db0b856	0.08628909
205	0x3e0e978f	0.13925003
206	0xbccd8e09	-0.025092142
207	0xbde398e2	-0.111131445
208	0xbdc637b3	-0.096785925
209	0x3dfb23ad	0.12262664
210	0xbd8d90e8	-0.06912404
211	0x3dacefee	0.084442005
212	0x3da76d79	0.08175177
213	0xbca27d2f	-0.019835083
214	0x3c675512	0.014119403
215	0xbd5b433e	-0.053530924
216	0x3e450e5a	0.19243756
217	0x3e3f8a59	0.18705119
218	0xbd38221a	-0.044954397
219	0xbe367ac9	-0.17820276
220	0xbe1f6294	-0.15564948
221	0xbce86836	-0.028370004
222	0x3c14f173	0.009090769
223	0x3d1ab1ba	0.03776715
224	0xbd58605d	-0.052826274
225	0x3d904c3c	0.070457906
226	0x3e22b164	0.15887982
227	0x3db61f56	0.088926956
228	0x3c9e80e7	0.019348575
229	0x3d1a8464	0.037723914
230	0xbe2261a0	-0.15857553
231	0x3d9429ab	0.0723451
232	0x3cdbd2ce	0.026833918
233	0x3dae2486	0.0850306
234	0x3dafc914	0.085832745
235	0x3db026ad	0.08601127
236	0x3c76c02b	0.015060465
237	0xbd6f64ef	-0.058445867
238	0x3e2b5bb7	0.16734205
239	0x3deae386	0.11469178
240	0xbca71546	-0.020395886
241	0xbc76ee69	-0.01507149
242	0xbbd98b15	-0.0066388943
243	0x3da0284d	0.07820187
244	0xbe36360e	-0.17794058
245	0x3e1aa0d2	0.1510041
246	0xbe28ef89	-0.16497625
247	0xbdd61f0d	-0.10455141
248	0x3d88351b	0.06650754
249	0xbe30fc8b	-0.17283837
250	0xbe2509a6	-0.16116962
251	0xbce447f7	-0.027866347
252	0x3db44103	0.088014625
253	0x3d5f46f2	0.054511018
254	0xbcfcf445	-0.030878196
255	0x3d85771f	0.06516861

model.rnn.bias_ih_l1 f4 [160]
0	0xbdbb9cc6	-0.091607615
1	0x3cbcbd4a	0.023039479
2	0xbd7e1cf5	-0.062039334
3	0xbd832fac	-0.06405577
4	0x3d92c0db	0.071656905
5	0xbd827f9e	-0.06371997
6	0x3e36a0a5	0.17834719
7	0x3e2b63d0	0.16737294
8	0xbd818547	-0.06324249
9	0xbc8569f5	-0.016285876
10	0x3e3e6800	0.1859436
11	0x3e1ed565	0.15511091
12	0xbd40f5dc	-0.04710947
13	0xbceb107e	-0.028694388
14	0xbd6c8632	-0.057745166
15	0x3d9c86d9	0.07642908
16	0xbd81a569	-0.063303776
17	0x3d655f70	0.05599922
18	0xbcbeec6f	-0.0233061
19	0x3e307085	0.17230423
20	0xbcdc80ef	-0.02691695
21	0xbdb4dd46	-0.08831267
22	0x3e3630fb	0.17792122
23	0x3e114b83	0.14188962
24	0xbd7e68c9	-0.06211165
25	0x3d8750f0	0.066072345
26	0xbd59da2b	-0.053186577
27	0xbb83913f	-0.0040151174
28	0x3dd8acb3	0.10579815
29	0x3dbfc1f6	0.09363167
30	0xbd6b3d2b	-0.05743138
31	0x3da90673	0.08253183
32	0x3d4d978c	0.050193354
33	0xbd2204b2	-0.03955526
34	0xbd41e652	-0.04733879
35	0xbc8b3910	-0.016994983
36	0xbd53d834	-0.05171986
37	0x3d89b9f4	0.06724921
38	0x3d70ad67	0.05875912
39	0x3e0998b8	0.13437164
40	0x3bd4bd5e	0.006492301
41	0xbb358b04	-0.0027701268
42	0xbc135e27	-0.008994616
43	0x3d2b38eb	0.041802328
44	0x3e0b11b3	0.1358097
45	0xbdb2be7b	-0.087277375
46	0x3e21c033	0.15795974
47	0x3d0de4cc	0.034642026
48	0x3dbb52a7	0.09146624
49	0xbe09e8da	-0.13467732
50	0x3d9edb2d	0.07756648
51	0x3e301a94	0.17197639
52	0xbdacbfef	-0.08435046
53	0x3e36a780	0.17837334
54	0xbdd70014	-0.10498062
55	0x3d1ed871	0.038780633
56	0xbd503228	-0.050829083
57	0x3cdf1074	0.027229525
58	0xbdc955f6	-0.09830849
59	0xbcb6592a	-0.022259314
60	0xbda8bcc2	-0.08239128
61	0x3e302eae	0.17205307
62	0x3e0bbf9d	0.13647313
63	0x3b96038c	0.0045780595
64	0x3e1adc7d	0.15123172
65	0x3e31a5c7	0.17348395
66	0x3d35cca2	0.044384606
67	0xbddccce7	-0.107812695
68	0xbd719ba4	-0.05898632
69	0x3e2785f5	0.16359694
70	0xbd2a7ca7	-0.041622784
71	0x3dfc62c2	0.12323524
72	0x3dce5f15	0.10076729
73	0x3e39e663	0.18154292
74	0xbd87e88e	-0.06636153
75	0x3c8a907c	0.016914599
76	0xbd776d58	-0.060407013
77	0xbdffb9b3	-0.12486591
78	0xbccbf09e	-0.024895009
79	0xbc04dcfd	-0.008109328
80	0xb9ae1982	-0.0003320687
81	0xbe1d1248	-0.15339005
82	0x3de3c7de	0.11122106
83	0xbda18d83	-0.07888319
84	0xbd4e8950	-0.05042392
85	0x3bb21564	0.005434679
86	0x3c8308d4	0.01599542
87	0xbce81cbe	-0.028334018
88	0x3cee5042	0.029091004
89	0xbdcf68fe	-0.101274475
90	0xbd5337fb	-0.05156706
91	0xbd885938	-0.06657642
92	0x3d9c4053	0.07629456
93	0x3c5f0899	0.01361289
94	0xbdfb80a4	-0.122803956
95	0xbca52b85	-0.020162353
96	0x3e175ff7	0.14782701
97	0x3e370f70	0.17876983
98	0x3d1fb2f0	0.038989007
99	0xbe2c7dc8	-0.16844857
100	0x3e01ea5e	0.1268706
101	0xbd89dad1	-0.06731189
102	0xbd658c31	-0.0560419
103	0xbd49f9f7	-0.04931065
104	0x3d788728	0.06067577
105	0x3e0ed82b	0.13949649
106	0x3e012de3	0.1261516
107	0xbe07fe15	-0.13280518
108	0x3e07f765	0.13277967
109	0xbdcafddc	-0.09911701
110	0x3bac6d08	0.005262021
111	0xbdbdecab	-0.092736565
112	0x3db3ac9b	0.08773156
113	0x3d9e6c0e	0.077354535
114	0xbe490703	-0.19631581
115	0x3c326096	0.010887286
116	0xbb386426	-0.0028135865
117	0x3e16e7f2	0.14736918
118	0x3e24adc5	0.16081913
119	0x3d0160a0	0.03158629
120	0xbc92fe16	-0.017943423
121	0x3e30cdc3	0.17265992
122	0x3ce88ae4	0.02838654
123	0x3df7788e	0.12083541
124	0x3d274201	0.04083443
125	0xba8e7a96	-0.0010870274
126	0x3e17dd03	0.14830403
127	0x3cc4034c	0.023927353
128	0x3e0849c9	0.13309397
129	0xbd680e07	-0.056654003
130	0xbdad9878	-0.08476347
131	0xbd6a012e	-0.05713003
132	0x3d5d5157	0.05403265
133	0x3d8b7a48	0.06810433
134	0xbd5078d4	-0.05089648
135	0x3e11f157	0.1425222
136	0xbd0c35ae	-0.03423088
137	0x3e16fc4a	0.14744678
138	0xbdaab117	-0.083345585
139	0x3dd01970	0.10161102
140	0x3e54cbd6	0.20780882
141	0x3e11b89a	0.14230576
142	0x3cb475d4	0.022028841
143	0x3e0418f4	0.12900144
144	0x3c1af1bf	0.009457051
145	0x3e2bea20	0.1678853
146	0x3e5059d8	0.20346773
147	0xbd7c97ab	-0.06166808
148	0x3e453579	0.1925868
149	0x3d88ecfe	0.06685828
150	0x3ce3dcc9	0.02781524
151	0xbcd65bdc	-0.026166849
152	0xbd9778e6	-0.073961064
153	0xbd9eacc7	-0.077477984
154	0x3deee069	0.116638966
155	0x3dfb108d	0.12259016
156	0x3e4402f0	0.19141746
157	0xbdd250d2	-0.102693215
158	0xbcc8abc9	-0.024495976
159	0x3ddae122	0.10687472

model.rnn.bias_hh_l1 f4 [160]
0	0x3d58f5b1	0.052968685
1	0x3dd4a9a4	0.10383919
2	0x3b84406b	0.0040359995
3	0x3ccb2d90	0.024802
4	0xbda5b9c6	-0.08092074
5	0x3c28503f	0.010273038
6	0x3d884f99	0.06655807
7	0xbcc70010	-0.024292022
8	0x3cc4ef44	0.024039872
9	0xbd89c2f3	-0.06726637
10	0xbd68f8c9	-0.056877885
11	0x3e2b23c7	0.16712867
12	0x3e2f1719	0.17098655
13	0x3e0df09c	0.13861316
14	0x3e22ad55	0.15886433
15	0xbd407b2e	-0.046992473
16	0x3db3a9bb	0.08772608
17	0x3dc2719e	0.09494327
18	0xbcece5b5	-0.028918127
19	0x3e1231e8	0.1427685
20	0x3dc448b8	0.095841825
21	0x3e14f61d	0.1454701
22	0xbd787177	-0.060655084
23	0xbcb4ea47	-0.022084368
24	0x3e35623f	0.17713259
25	0x3c2e3d63	0.010634753
26	0x3df6e1a0	0.12054753
27	0x3e371a5e	0.17881152
28	0x3d2c938e	0.042132907
29	0xbd5b36fb	-0.05351923
30	0xbca931bd	-0.0206536
31	0x3dbb9df5	0.09160987
32	0xbd7660a8	-0.060150772
33	0x3e173025	0.1476446
34	0x3d842d4c	0.06453952
35	0xbdb34481	-0.087533005
36	0xbd09f886	-0.033684276
37	0x3e10aaa4	0.14127594
38	0xbce6f826	-0.028194498
39	0x3d0ac22d	0.033876587
40	0xbde31b41	-0.11089183
41	0x3cd98545	0.026552806
42	0x3e42fb20	0.19041109
43	0x3e02ae9c	0.1276192
44	0xbd90396e	-0.07042204
45	0x3e060ec8	0.13091576
46	0xbd26bce9	-0.040707503
47	0xbd3067fb	-0.043067914
48	0xbdf12e8d	-0.11776457
49	0xbe0ca2b1	-0.13733937
50	0x3d57d6d6	0.052695118
51	0x3c527190	0.012844458
52	0x3c477606	0.012174135
53	0xbc814748	-0.01578106
54	0x3d95f011	0.0732118
55	0xbd3ad061	-0.04560888
56	0x3e3bf88a	0.18356529
57	0x3d1a4e39	0.037672255
58	0x3c84ea10	0.016224891
59	0xbcc7f66c	-0.024409495
60	0x3e1a2298	0.15052259
61	0x3e3189bf	0.17337702
62	0x3e300ac5	0.17191608
63	0x3cae2fa7	0.021262957
64	0x3df9d26e	0.121983394
65	0x3da168c9	0.07881314
66	0x3d39b57f	0.045339104
67	0xbdd92435	-0.10602609
68	0xbdffe5ce	-0.12495004
69	0x3e145ee9	0.1448933
70	0xbce4e6d4	-0.027942099
71	0xbd80a546	-0.062815234
72	0xbd7ef077	-0.062241044
73	0x3c1a74ea	0.009427289
74	0x3e3023b0	0.17201114
75	0x3e0416d8	0.12899339
76	0xbd88a55e	-0.06672166
77	0x3da045d3	0.07825818
78	0xbc0f9ad1	-0.008764938
79	0xbdadb2ce	-0.0848137
80	0x3e005d9c	0.12535709
81	0x3e106460	0.1410079
82	0xbd28e0f3	-0.041230153
83	0xbc85e0cc	-0.016342543
84	0xbd11f746	-0.03563621
85	0x3c869c5e	0.016431984
86	0xbdfe9d5f	-0.1243236
87	0xbdb4dd0c	-0.08831224
88	0xbdd1d1b5	-0.102450766
89	0xbe224449	-0.15846361
90	0xbdfbc8cf	-0.122941606
91	0x3d908842	0.07057239
92	0x3db63708	0.08897215
93	0xbc0cb1b9	-0.008587294
94	0x3db9b8a2	0.09068419
95	0xbbe34975	-0.006936247
96	0x3e529113	0.20563154
97	0x3e447421	0.19184925
98	0x3df27e9a	0.118405536
99	0xbd846ef9	-0.06466479
100	0xbd49bd5a	-0.049252845
101	0xbdad10ee	-0.08450495
102	0xbdfc5e4e	-0.12322675
103	0x3e10cc76	0.14140496
104	0x3de2c99d	0.11073611
105	0xbde537d9	-0.11192293
106	0x3e40bf0e	0.18822882
107	0xbc078f18	-0.008273862
108	0x3d785e6b	0.06063692
109	0x3dcc080c	0.09962472
110	0xbb4de30a	-0.0031415843
111	0x3df17145	0.117891826
112	0x3dc25aff	0.094900124
113	0x3e2d3da6	0.16918048
114	0x3d58446e	0.052799635
115	0xbda63f60	-0.081175566
116	0x3c06d8b7	0.00823038
117	0x3cdfe8f0	0.027332753
118	0x3db3124b	0.087437235
119	0xbccb5eee	-0.02482554
120	0x3de315e5	0.110881604
121	0x3e3cf345	0.18452175
122	0x3cc20b49	0.023687022
123	0x3e347f1c	0.17626613
124	0x3dd6642e	0.104683265
125	0xbd0272b1	-0.03184766
126	0x3d88e3a1	0.06684042
127	0xbdbe1a7d	-0.09282396
128	0xbb2f25f8	-0.0026725512
129	0xbd855f22	-0.06512286
130	0xbdd876f0	-0.105695605
131	0x3de33139	0.11093373
132	0x3d2ba779	0.04190776
133	0x3be54d90	0.0069977716
134	0xbd476b3f	-0.048686262
135	0x3d0042a8	0.03131357
136	0x3dd8c183	0.105837844
137	0x3e1b6eaa	0.15178934
138	0xbdf8e163	-0.12152364
139	0x3d3b2702	0.045691498
140	0x3da8f3ec	0.082496494
141	0x3d610da3	0.054944646
142	0xbd5473da	-0.051868297
143	0x3d9c8a4b	0.07643565
144	0x3e17fd2f	0.14842676
145	0xbc773ce8	-0.015090205
146	0x3e45f16b	0.19330375
147	0xbde8ffa9	-0.11376888
148	0x3d4dd4e8	0.05025187
149	0xbdd471d3	-0.10373273
150	0xbde01e34	-0.10943261
151	0xbcf69a24	-0.030102797
152	0x3d1792e0	0.037005305
153	0x3da2c893	0.07948413
154	0x3e420a4f	0.18949245
155	0xbc03c42a	-0.008042375
156	0x3e1c2e7b	0.15252106
157	0xbd27828d	-0.040895987
158	0xbb074ce9	-0.0020645207
159	0x3d9c6cca	0.07637937
