lightning_logs/version_1/checkpoints/epoch=5-step=300.ckpt (torch, 59806 bytes, 21 tensors)

model.param_proj.proj.0.weight f4 [1, 14]
000000 d6 7f 94 bd bf 79 a2 3d ee 7f cb bc 69 df 8a 3e
       -0.07250945 0.079333775 -0.024841275 0.27123573
000010 ee 21 82 ba 59 b9 11 be f2 f1 1c be c1 20 d8 3e
       -0.0009928325 -0.14230861 -0.1532667 0.4221249
000020 9b 8f e3 3d f7 18 85 be 54 04 d8 3d f0 2e 92 be
       0.11111375 -0.2599561 0.105477005 -0.28551435
000030 19 aa 2e 3d ba 6f ae be
       0.042642687 -0.34069616

model.param_proj.proj.1.weight f4 [1, 14]
000000 ff ec 09 3e 88 78 84 3a 19 ad 94 bd c8 07 ad 3d
       0.13469313 0.0010106722 -0.07259578 0.0844875
000010 e6 e6 a5 ba d9 78 82 bd 24 02 a4 bd fe 53 96 be
       -0.0012657314 -0.06370706 -0.08008221 -0.29360956
000020 b0 41 b2 3d dc 17 73 3e eb 20 98 3e e4 6b a9 3e
       0.08703935 0.2373957 0.29712614 0.33090127
000030 e9 6f eb bd 02 aa c7 3d
       -0.114959545 0.09749223

model.param_proj.proj.2.weight f4 [1, 14]
000000 66 37 8a 3d 00 ac 90 3e e5 1c 5c 3e 68 a7 91 3e
       0.06748848 0.28256226 0.21495397 0.28448033
000010 f6 49 a5 3e eb d2 01 3e 6a 11 96 3d e2 e8 c5 3d
       0.3228299 0.12678115 0.0732754 0.096635595
000020 7f d7 22 3e 36 1a 10 3e d8 19 87 be 4c 29 2b 3e
       0.15902518 0.14072499 -0.26386905 0.16714972
000030 85 ae c2 3e 91 41 87 be
       0.38023773 -0.2641721

model.rnn.weight_ih_l0 f4 [56, 48]
000000 e8 b1 95 3b f9 c4 ae 3e de 2e 24 3e e2 cd 7d 3e
       0.004568327 0.34134653 0.16033503 0.2478557
000010 77 de 0e be 84 88 3c be 9c 19 fb 3d 41 09 e3 bd
       -0.13952051 -0.18411452 0.12260744 -0.110857494
000020 58 f4 c3 bd 7b ac 50 3e 97 4a 71 bc 33 3d 0b 3c
       -0.09568089 0.20378296 -0.014727256 0.008498478
000030 96 ea 3e be dd 69 6c 3d 4f 26 95 3d b6 7e 4e 3e
       -0.18644175 0.057718147 0.072826974 0.20165524
000040 b6 80 6f be aa 0f 03 3e 3c 2e 0b 3e a4 4d 21 3e
       -0.23388943 0.12798944 0.13591856 0.15752274
000050 14 14 84 3d 9f e6 08 3e 4b a6 89 bd f7 cc 8c 3d
       0.06449142 0.13369225 -0.06721171 0.068750314
000060 5c ad c4 3d c6 4a cd 3d 5d cc 08 3d a9 0b 95 3d
       0.09603378 0.100240275 0.03339802 0.072776146
000070 2d a6 4c bd 77 57 e6 3d ba 13 40 be 7d a7 16 3d
       -0.049963165 0.11247151 -0.18757525 0.036780823
000080 a9 90 19 3e 03 9a 27 3e 5a 0d 0d be d8 7a 41 be
       0.1499659 0.16367345 -0.13774624 -0.18894517
000090 d8 cb 12 3e 10 ee ad 3c 7f ca 5c bd 61 4a 6e 3e
       0.14335573 0.021231681 -0.053904053 0.23270561
0000a0 27 91 f2 3d 2e a9 00 bd 69 0b 00 be e9 9e 53 3e
       0.11844092 -0.031411342 -0.12504353 0.20666088
0000b0 5e 93 c9 bd a4 6b 10 bd 2a cf 50 bb 53 62 4e 3e
       -0.09842561 -0.035258904 -0.003186176 0.20154695
0000c0 85 e0 9a bd aa 02 93 3e d6 fb 13 bd 0d 12 67 3e
       -0.07562355 0.2871297 -0.03612884 0.2256548
0000d0 86 de 37 be a7 e9 6d 3e ee 87 54 3e dd 61 56 bd
       -0.1795598 0.23233663 0.20754978 -0.052339423
0000e0 7a a5 9b 3b d8 1b 91 bd bd 09 6b be 4a d3 82 3d
       0.004749951 -0.07085389 -0.22952934 0.063879564
0000f0 61 f5 e5 3c a9 07 46 be 36 5b 31 3b 3a 23 7f bb
       0.028071107 -0.1933886 0.0027062423 -0.0038930909
000100 ce 01 90 3e 05 23 22 3e 6d 42 6c 3d 04 9f 34 3c
       0.28126377 0.15833671 0.057680536 0.01102424
000110 04 c0 5d 3e 3d d1 2e 3e ab 35 5e 3d e5 1b de 3d
       0.2165528 0.17072006 0.0542504 0.10845164
000120 26 07 fb 3c 85 0e 77 3e 9f 0a 26 be ca af 87 3e
       0.030643057 0.24126633 -0.16214989 0.26501304
000130 d4 a4 9c bd 8d 33 0b be 65 73 70 bd 80 df dc 3d
       -0.07648626 -0.13593884 -0.0587038 0.10784817
000140 65 17 8c 3e 77 87 8e 3c 29 03 ec 3d 82 7a 67 3e
       0.273616 0.017398579 0.1152404 0.22605327
000150 6e cd 2e 3e 3b 9c 4f bc 68 40 1c be c9 ef 6f 3e
       0.17070553 -0.012671526 -0.15258944 0.23431315
000160 e5 56 d8 3d dd 1b af bd e4 1d cd 3d 2e bd 3a 3e
       0.10563449 -0.085502364 0.10015467 0.18236229
000170 19 a0 69 3e a4 1a bc bd 7d 96 ef bd 84 06 29 bd
       0.22814979 -0.09184769 -0.11698625 -0.04126598
000180 7b 86 b8 bd fc 78 e3 3d 28 71 8b bc 77 16 00 3a
       -0.09010025 0.1110706 -0.01702173 0.000488616
000190 d7 2b 14 be 1e 96 f7 bb ce 82 78 3e e8 a5 97 3e
       -0.14469849 -0.007555737 0.24268648 0.29618764
0001a0 65 7b 0b be 11 7b 85 3e e6 c3 3e be de 92 d7 3c
       -0.1362129 0.26070455 -0.18629417 0.026315149
0001b0 fc 76 7d 3e f7 21 37 3e 8e a7 37 be 18 64 61 be
       0.2475242 0.1788405 -0.17935011 -0.22010839
0001c0 2e 25 0c be 7d 83 f9 bc 66 5d c7 3d ab dc 25 3e
       -0.13686058 -0.030458206 0.09734611 0.1619746
0001d0 64 9e 1c be 77 17 7a 3e f5 62 3a be 7c 98 b4 3d
       -0.15294796 0.24423014 -0.18201812 0.088181466
0001e0 a9 b1 33 be 1d 77 9a 3d cf c8 77 be 29 9f 88 3e
       -0.1754824 0.0754225 -0.24197696 0.2668393
0001f0 20 64 20 bd 61 68 cf bd 91 b0 37 be 51 02 d6 bd
       -0.039157987 -0.101273306 -0.17938448 -0.104496606
000200 90 e3 54 be df e2 d6 bc 18 5e 5c 3d fd fc 26 be
       -0.20789933 -0.026231227 0.053800672 -0.16307445
000210 6a ca 7a bd 7d 3f 7e be ec c1 2a 3e f7 6d 63 be
       -0.061228193 -0.24828906 0.16675538 -0.22209917
000220 3f 5d 1b 3e f1 a7 16 3e c6 bd bd ba 1f be 8e 3e
       0.1517229 0.14712502 -0.0014476113 0.27879426
000230 86 98 61 be 0f 14 15 3e d5 82 30 3e 19 f2 53 be
       -0.2203084 0.14558433 0.17237408 -0.20697822
000240 5e 0a 34 3e 0b e1 56 be 7a e1 23 3e 77 3a bc bc
       0.1758208 -0.20984285 0.16003981 -0.022977097
000250 24 da 4a be 96 10 f5 bd 43 95 1b 3e 17 5d 02 3d
       -0.19809777 -0.11966054 0.15193658 0.03182706
000260 a4 12 36 be 7b 0f 04 be c2 1e c4 bd df 9c 30 be
       -0.17780548 -0.1289653 -0.09576179 -0.17247342
000270 3d b3 4b 3e cb bb 19 be ae 35 50 3d 5c 34 3b be
       0.19892593 -0.15013044 0.050832443 -0.18281692
000280 50 95 27 3d 54 42 56 bb 2f 6b 16 3e 4b b4 46 be
       0.04091388 -0.0032693343 0.14689325 -0.19404714
000290 a2 cc d3 3d d0 18 25 be 80 8e 84 be 19 39 2a be
       0.10341765 -0.16122746 -0.2588997 -0.16623344
0002a0 70 aa d6 3d 8b 8d 2a 3e 38 1e 44 bd 36 fb bb 3d
       0.10481727 0.16655557 -0.04788038 0.09178774
0002b0 bc ae 04 3e e5 f8 64 be 5d 73 11 be f8 3b e8 bd
       0.12957281 -0.2236057 -0.14204164 -0.11339563
0002c0 d2 1c e7 3d 99 6c 60 3e b7 cc 46 3d a5 60 ae bc
       0.11284794 0.21916427 0.048535075 -0.021286318
0002d0 2b f3 a4 3d a6 f0 9a bd 29 04 36 3e bf 64 be bd
       0.08054193 -0.07565431 0.17775024 -0.092965595
0002e0 39 d6 dd bc 35 f4 a2 bd 12 78 bd 3d c3 b3 93 3c
       -0.027079688 -0.07956735 0.09251417 0.018030053
0002f0 e2 0c 75 be eb 92 90 3d 11 5e f4 bd a1 7f dc bd
       -0.23930696 0.070592724 -0.11932004 -0.10766531
000300 5c 8e 5d be fe af 0a bd 64 c6 35 be 22 9f d2 bd
       -0.21636337 -0.033859245 -0.17751461 -0.102842584
000310 57 1a 12 3e fb cf 1c be fe f5 c7 bd 70 c7 e8 bd
       0.1426786 -0.15313713 -0.09763716 -0.11366165
000320 ab 55 b9 bd 10 7c 92 bc 60 cd 4f bc f3 75 5f bd
       -0.09049543 -0.017881423 -0.012683243 -0.054555845
000330 e0 89 cf bd d9 be 3e 3e cd c8 19 be 3a a7 3d 3e
       -0.101337194 0.1862749 -0.15018006 0.18520823
000340 f2 1f 00 3e b4 24 1f be 83 5f f8 bd ff 24 8f 3d
       0.12512186 -0.15541345 -0.121275924 0.06989478
000350 2e 8a 15 3d 04 89 79 3e aa 84 c9 3d 63 60 a1 3e
       0.03650873 0.24368674 0.09839757 0.3151885
000360 94 78 28 bb 8b ab 88 3e 77 0f 77 3d 97 85 4c be
       -0.0025706636 0.26693377 0.060317483 -0.19972835
000370 0d 3a 66 3d da 0c 63 3e 8f 90 57 bd e5 e4 3a 3e
       0.056207705 0.22172871 -0.052628096 0.18251379
000380 11 cb f8 bd 2a 50 af 3c 50 11 6d 3c a9 d6 4b 3c
       -0.12148107 0.02140053 0.01446946 0.012441316
000390 6a 30 f1 3d 7d c1 8c 3e ce 6f 21 bc 89 01 13 3e
       0.117768124 0.2749137 -0.0098533165 0.14356054
0003a0 60 d7 94 3c fe 8e 3f 3e 30 94 6a 3e f9 0d 39 3e
       0.018169105 0.18706891 0.22908092 0.18071736
0003b0 fd 65 33 3e 63 2d ac 3d 88 f2 d7 bd 3d be 9e bd
       0.17519374 0.08407094 -0.10544306 -0.07751129
0003c0 35 07 47 be e6 7b e1 3c 4d d4 f2 bd c4 a8 dd bd
       -0.19436343 0.0275249 -0.118568994 -0.10823205
0003d0 f8 80 22 bd dd ab 45 be 8e 63 43 3c 89 1e c5 3e
       -0.039673775 -0.19303842 0.011925591 0.3849986
0003e0 7a c8 27 3e 33 a1 16 3e b4 e8 83 3e 64 6a 94 3e
       0.1638507 0.1470993 0.25763476 0.2898742
0003f0 24 d8 05 3e 56 16 11 be d8 1a d4 bd 6b 77 a3 3e
       0.13070732 -0.14168677 -0.103566825 0.31927046

model.rnn.weight_hh_l0 f4 [56, 14]
000000 65 14 ad 3d 24 02 35 3e 57 b0 56 be da b7 73 3e
       0.084511556 0.17676598 -0.20965706 0.23800603
000010 62 e3 3e bd c2 f7 7c 3e 7c 14 56 3d 28 d1 37 3e
       -0.046603568 0.24703887 0.05226563 0.1795088
000020 86 2b 10 3e 2c 6e 1c be f9 46 81 3e 7b cc 49 3e
       0.14079103 -0.15276402 0.2524946 0.1970691
000030 f0 9b 94 bc 2f 98 53 bd e2 eb 3e bd b9 28 25 be
       -0.018140763 -0.051658805 -0.046611674 -0.16128816
000040 0d 88 27 bd f1 4e cd 3d f5 55 78 be e2 10 3c 3d
       -0.040901233 0.100248225 -0.2425154 0.04591454
000050 2f d9 2e 3c a7 bc af bc 26 36 08 3e c9 f7 34 3e
       0.010671898 -0.021452261 0.13301906 0.17672648
000060 a9 81 da bd 90 1d 5e bc 84 31 a1 bc 49 bb 97 3e
       -0.10669262 -0.013556853 -0.019676931 0.29635075
000070 95 9f 31 be ba 5b 00 be e2 b4 76 be ce ea 06 be
       -0.17346032 -0.12534991 -0.24092439 -0.13175508
000080 e9 e1 09 3d d6 da 8a bd 2d b8 6c 3d 98 f1 e5 bd
       0.03366271 -0.06780021 0.05779283 -0.11227721
000090 a8 5b 4b be 08 62 27 3e 7b fc 2c bd 7d 2d 66 3e
       -0.19859183 0.1634599 -0.04223297 0.2247829
0000a0 bd 0e b9 3d 90 d9 9e be 6c a3 04 3e ee c0 0c 3c
       0.09036014 -0.31025362 0.12952965 0.00859092
0000b0 14 13 7a be ff 71 1e 3e b4 5a d0 3c ec 95 05 be
       -0.2442134 0.15473174 0.025433876 -0.13045472
0000c0 b8 dc ed 3d 1a b7 26 3e 09 11 87 3d f9 ab 64 3e
       0.116143644 0.16280785 0.06595046 0.22331227
0000d0 07 af ca 3d fd ef b1 bd 84 c0 1d 3d e7 e1 b5 3b
       0.09896665 -0.08688352 0.038513675 0.0055506113
0000e0 bc 6d c5 bd ff c3 bf bd 87 d0 3d 3d 9c 4e 01 3e
       -0.09640071 -0.09363555 0.046341445 0.12627643
0000f0 d0 4f b0 3d 4c 21 a5 be 72 23 05 be f7 14 b8 3c
       0.08608973 -0.32251966 -0.13001803 0.022470934
000100 af 87 99 bd 71 52 4e 3e a9 56 ff 3d 10 e6 5c 3e
       -0.07496583 0.20148636 0.12467701 0.21572137
000110 5f 8e 0f be 1f 50 10 be bc 89 35 3e 5e 36 a2 be
       -0.14019154 -0.14093064 0.17728323 -0.31682104
000120 2d b1 8d be eb e6 89 be c7 1b cb 3d 15 e8 bb bd
       -0.27674237 -0.2693399 0.099174075 -0.091751255
000130 fe a6 3a 3e ba 95 c7 3d 84 33 b4 bd 99 69 cd bc
       0.18227765 0.09745355 -0.08798888 -0.025074767
000140 12 2c a4 bb 6e b0 a6 3e 8e 43 ad bd 19 4d 60 3e
       -0.0050101364 0.3255648 -0.08460151 0.2190441
000150 bc f0 ce 3c 02 e4 ef 3d 5c 39 57 3e ae 44 5f 3e
       0.025261275 0.11713411 0.21017975 0.21803543
000160 e9 18 b8 bd 81 0d 59 3e 62 46 3c bb f9 59 85 bc
       -0.08989126 0.21196558 -0.0028728475 -0.016278254
000170 c9 8c 5e 3e 0b 9c d0 3d 71 96 e3 3b 07 fe 7b 3e
       0.21733393 0.10186013 0.0069454242 0.24608622
000180 f4 39 e0 3d d1 d3 2b bc 54 0b 48 3e cc fb 2d be
       0.10948554 -0.010487513 0.19535571 -0.16990584
000190 07 a6 9d bc a3 97 fe bd ae 93 26 3d b1 0e 62 3d
       -0.019244207 -0.12431266 0.040668182 0.055189792
0001a0 14 60 99 be 62 8f c9 3d 5f ec 82 3e 07 b6 2b 3e
       -0.29956114 0.09841801 0.25570962 0.16768657
0001b0 3e a5 42 be 9a 7e b1 be ba 8c 02 3e 4b f9 c4 3e
       -0.19008347 -0.34666902 0.12748995 0.38471445
0001c0 cd e8 c2 bd f8 59 e0 3d d4 b9 f1 bc df 6a de bd
       -0.095170595 0.1095466 -0.029507555 -0.10860228
0001d0 e3 4a c0 3d 63 cd 96 3e 1d b8 64 be 03 c6 26 3e
       0.093892835 0.29453573 -0.22335859 0.16286473
0001e0 c0 2e 1f 3d 1a c2 7a 3e 6d 9a 7f bd 44 06 10 3e
       0.038862944 0.24488106 -0.06240313 0.1406489
0001f0 55 14 eb bc 22 81 a3 3d 59 17 16 3c 49 0c ab bd
       -0.028696219 0.079836145 0.00916084 -0.083519526
000200 8a 56 96 3d ac f0 2c 3e d0 d3 1c be 8b 82 69 3e
       0.07340725 0.16888684 -0.15315175 0.22803704
000210 09 a9 cc bd ce fa 36 3e 20 e9 9a 3d 39 25 67 3e
       -0.099931784 0.17869112 0.07563996 0.22572793
000220 53 d6 29 3e a5 13 72 3e 9a ce 29 3e c0 69 10 be
       0.16585664 0.23640306 0.16582718 -0.1410284
000230 3f 27 5d be 92 e1 9b bc d0 5d 4c be 9d d0 48 3e
       -0.21597002 -0.019028459 -0.19957662 0.1961083
000240 1a e1 85 be 6e 8b 4b 3e eb 0c 39 be 1a 1a 84 3e
       -0.261483 0.19877407 -0.18071334 0.25801164
000250 cb f8 87 3e e1 4c 45 be c8 19 66 bd 06 84 78 3e
       0.26557 -0.19267608 -0.05617693 0.24269113
000260 6a 5d 80 be b8 a9 33 be 9a 49 cc bd 07 91 b1 be
       -0.2507127 -0.17545211 -0.09974976 -0.3468096
000270 0c 2f 16 be 0a ec cd 3d d5 e4 8b be 5d 57 b9 be
       -0.14666384 0.100547865 -0.27323022 -0.36199465
000280 85 4a 88 3d db 10 a3 3e bf 09 13 3d 2c e3 c9 bc
       0.066548385 0.31848797 0.035897966 -0.024644457
000290 c4 19 2a 3e 14 40 19 be 73 b9 9f be fa 65 bc 3c
       0.16611391 -0.1496585 -0.31196174 0.022997845
0002a0 ff 15 43 bd 10 40 0d be b7 16 43 be da 96 c3 3b
       -0.0476284 -0.13793969 -0.19051634 0.0059689106
0002b0 aa 34 99 be ce ec 72 be 3f 91 60 3e c6 69 7f bd
       -0.29922992 -0.23723146 0.21930407 -0.062356733
0002c0 42 6b c6 bd ab 28 35 be 67 df cc 3c 85 59 64 be
       -0.096884266 -0.17691295 0.02500887 -0.22299774
0002d0 7d aa 2f 3d cc 91 f6 3d 89 e8 82 bd bf 90 d0 3d
       0.0428872 0.12039527 -0.06392009 0.10183858
0002e0 52 cf 8f bd a2 5c 5e 3e 23 23 f7 3d eb 60 26 3d
       -0.07021965 0.21715024 0.12067249 0.040619772
0002f0 b6 2d 0f 3e 01 3f 66 be 94 ea bc 3d 16 06 67 be
       0.13982281 -0.22484972 0.0922443 -0.22560915
000300 8f cb 54 be c2 b3 0d be 88 cd 20 be d2 c9 68 3e
       -0.20780776 -0.13838103 -0.15703404 0.22733238
000310 ee 81 34 3b 2a 77 6b bd c2 ce 21 bd e7 73 1a 3d
       0.0027543264 -0.05748669 -0.03950382 0.03770819
000320 08 ff 32 3e 29 c8 03 be 79 19 f2 b9 45 51 c5 3d
       0.17480099 -0.12869324 -0.00046176816 0.096346416
000330 7b 5a 0f 3e 5f f2 03 3d 1c 60 8b bd a7 51 9b 3e
       0.1399936 0.032213565 -0.06805441 0.30335733
000340 99 9c 74 3e d7 44 a7 3c 06 58 ed bd f3 ea 42 3e
       0.23887862 0.020418568 -0.11589055 0.19034939
000350 2f 73 53 be c7 fc 82 3c 97 23 7b bd 00 96 a1 3a
       -0.20649408 0.015989674 -0.061313238 0.0012328029
000360 c0 85 6b be 11 7c bc bd 36 d8 0e be 11 20 4b 3e
       -0.2300024 -0.09203351 -0.13949665 0.19836451
000370 65 ba ca 3d eb 1b 61 bd cb cf 9d be 54 a5 61 3e
       0.09898833 -0.054958265 -0.30822596 0.22035724
000380 fa 71 c2 bd 3d 7c f3 3d 6f 41 37 bc 3e 35 88 3e
       -0.094943956 0.11888931 -0.011185034 0.2660312
000390 f4 c5 cd bd 14 6f 9f be b9 8b d5 bd 0d a8 dc bd
       -0.10047522 -0.31139433 -0.104270406 -0.10774241
0003a0 a6 dc 91 39 da 45 6b bd 7f b6 41 3b 9b 49 eb 3d
       0.0002782095 -0.057439663 0.002955824 0.114886485
0003b0 5d 60 80 be e7 67 19 3d 3d 2f 82 3e 51 e1 0d 3e
       -0.2507352 0.037452605 0.25426665 0.13855483
0003c0 8d 1d dd 3d 5e 68 f1 bd e4 14 78 be 74 ad 46 be
       0.10796652 -0.117874846 -0.24226719 -0.19402105
0003d0 db 4b 17 3e d5 67 91 3d ce 91 5b 3d 0e 5e ea bd
       0.1477503 0.070998825 0.053605847 -0.11443721
0003e0 81 de 3b 3e c3 92 2e bd 64 bc 66 be 97 bb 04 3e
       0.18346597 -0.04262043 -0.22532803 0.12962185
0003f0 8e 40 87 3d 9e ff 9f be da 94 4f be 32 02 e1 bd
       0.0660411 -0.31249708 -0.20271626 -0.10986747

model.rnn.bias_ih_l0 f4 [56]
000000 89 62 64 be 12 cf 7e bd f3 a9 04 3e f2 45 15 be
       -0.22303213 -0.062209196 0.12955455 -0.14577463
000010 bb 24 82 3e 17 62 0c 3e 69 ab 84 3e c8 86 66 3e
       0.25418648 0.13709293 0.25912026 0.22512352
000020 67 d6 66 3e 55 6c 42 3d be ed 35 be 6b 21 4c 3e
       0.22542726 0.047466595 -0.17766473 0.19934623
000030 79 c9 02 3c f5 93 37 be ed c3 70 be 11 e3 9c 3e
       0.007982605 -0.17927535 -0.2351224 0.30641988
000040 51 a2 dc bc e2 7e 2c 3d fb 6c 0c 3e 5d c9 16 be
       -0.026932867 0.042113192 0.13713448 -0.14725251
000050 a8 17 1b be d1 98 99 be b9 78 9a 3d 90 8b 8b bd
       -0.15145743 -0.29999402 0.07542557 -0.06813729
000060 8a 35 4b 3e cd af 82 3e c1 ce 7a 3e 8e 7d 1c 3d
       0.19844642 0.2552475 0.24492933 0.038205676
000070 8b 11 30 bd 1f ed 8d be 36 ec 96 be b1 96 56 be
       -0.04298548 -0.27719972 -0.2947709 -0.20955922
000080 ec f2 73 be 3c 08 cf bd 65 a3 f7 bd 90 1d 62 bd
       -0.23823136 -0.101089925 -0.12091712 -0.055203974
000090 d9 04 d2 3b 27 f3 c3 3d f1 91 85 3d 61 91 2c 3e
       0.0064092693 0.09567862 0.06521977 0.16852333
0000a0 20 85 8d 3c bd 4f e2 bd 4f 27 4f 3d bf 1c e2 3d
       0.017275393 -0.11050365 0.050574597 0.11040639
0000b0 f0 17 f5 38 49 cc 5a bd 72 14 fd 3d 37 f8 90 3e
       0.00011686969 -0.053417478 0.12357415 0.28314373
0000c0 e6 11 a4 3b df cb 07 be d5 7e 84 3d 6c 9b 26 be
       0.0050070165 -0.13261364 0.06469504 -0.16270226
0000d0 f3 36 15 3d 4c 98 85 3c e6 2d f3 3d c2 9f 13 3e
       0.036429357 0.016307972 0.11873989 0.14416412

model.rnn.bias_hh_l0 f4 [56]
000000 b4 6e 1c 3e 0c d8 dd bd 13 7b 39 3e 65 22 4d 3d
       0.15276605 -0.10832223 0.18113355 0.05008163
000010 0c 44 b3 bd 61 5c 01 3e 7a 29 e1 3c 19 7b 9c 3e
       -0.08753213 0.12632896 0.027485598 0.30562666
000020 6d ca ab bd ca 8a 99 3e 33 38 32 be 88 10 68 3d
       -0.08388219 0.299887 -0.17404251 0.05665639
000030 ca e2 95 3e 6c b1 84 3e a7 1b 40 3e ad 18 80 3d
       0.2927459 0.25916612 0.18760549 0.062547065
000040 79 e4 74 3e 37 36 de bd a3 7c a4 bd f1 9d f1 3d
       0.2391528 -0.108501844 -0.08031585 0.11797703
000050 91 69 ec bc d6 8b 80 be 9e b2 f7 bd 8d 7b 96 bd
       -0.028858932 -0.25106686 -0.120946154 -0.07347784
000060 36 59 53 3e 3f 52 44 be 09 99 08 3e 84 85 61 be
       0.206395 -0.19172 0.13339628 -0.22023588
000070 20 04 88 3e ce 79 80 be e7 e7 0b 3d 3a 3e 87 3d
       0.26565647 -0.2509293 0.034156706 0.06603666
000080 e9 43 42 bd 4d 80 69 3e c3 99 15 3e 42 50 83 3e
       -0.047428045 0.22802849 0.14609437 0.2564717
000090 16 ee c7 ba ef de f6 bd 77 f0 33 bd 44 a6 70 bd
       -0.001525345 -0.1205424 -0.043930497 -0.058752313
0000a0 1d 45 63 3e 25 86 2d bd fa 3e c5 be ac 60 55 bd
       0.22194333 -0.04236426 -0.3852461 -0.052094147
0000b0 6e 81 80 be 58 57 42 3e 52 c2 02 3e 03 33 b5 3e
       -0.25098747 0.18978631 0.1276944 0.3539048
0000c0 56 00 64 3d c2 d8 72 3e 78 80 7f 3e 63 28 a0 be
       0.055664383 0.23715499 0.2495135 -0.31280813
0000d0 21 a1 31 be 4f fd b3 bd cc 78 11 be 9b bb 39 3e
       -0.17346622 -0.08788549 -0.14206237 0.18137972

exp_avg f4 [1, 14]
000000 4d 36 37 3c 07 37 56 bc 40 bd 0f bc 22 7a ec bb
       0.01118238 -0.013074643 -0.008773148 -0.007216708
000010 ea 76 52 bc 83 89 a4 bb b2 53 0f bc 7a 30 ff bb
       -0.012845734 -0.0050212755 -0.008747982 -0.0077877613
000020 0e 1f 25 3b f6 32 1c 3c 04 ff 4e 3c 68 1b 26 3c
       0.0025195512 0.009533634 0.012634043 0.01013837
000030 cd ed 4d bc 8f 47 51 3c
       -0.012568903 0.012773409

exp_avg_sq f4 [1, 14]
000000 cf 85 fe 38 87 d9 65 39 63 74 48 39 ea 3c 2d 38
       0.000121365876 0.00021920177 0.00019116844 4.1303145e-05
000010 4a 3e 5c 39 51 11 cf 38 43 80 90 38 be 44 36 38
       0.0002100404 9.8737546e-05 6.890346e-05 4.3456203e-05
000020 a7 9e 4e 37 5b 90 cb 38 ff 1c 3d 39 f0 9a c1 38
       1.2315496e-05 9.7066826e-05 0.00018035246 9.2318165e-05
000030 ed 85 56 39 a4 ab 34 39
       0.00020458522 0.00017230079

exp_avg f4 [1, 14]
000000 6e f3 6c be 22 3b c9 3e c6 34 80 3e 95 cc b7 3e
       -0.23139736 0.39302927 0.25040263 0.3589827
000010 a5 9f ca 3e bd e3 db 3e 4e 1a 30 3e b6 d6 ca bc
       0.39574924 0.42947188 0.17197534 -0.024760585
000020 af 2c 39 3e f6 a0 dd bd 80 f8 81 be 64 01 10 3e
       0.18083452 -0.108217165 -0.25384903 0.1406303
000030 a3 82 cb 3e 34 a1 c9 be
       0.39748105 -0.393808

exp_avg_sq f4 [1, 14]
000000 3c a6 f6 3d 54 2e c7 3e af 89 ad 3e 5b 72 3a 3e
       0.120434254 0.38902533 0.33894107 0.18207686
000010 71 6a c8 3e 61 8a 8e 3e fb 11 ff 3d ff f5 66 3d
       0.39143708 0.2783995 0.124546014 0.056386944
000020 36 75 d0 3d dd 52 a3 3d c5 27 96 3e 59 f8 71 3d
       0.10178606 0.07974789 0.29327217 0.059074733
000030 25 dc b2 3e 5f 07 a3 3e
       0.34933582 0.3184156

exp_avg f4 [1, 14]
000000 40 02 ce bd 68 e3 d8 3d 15 0b 7d 3d 3f b2 43 3d
       -0.10059023 0.10590249 0.061778147 0.04777741
000010 c8 1b cf 3d 00 ba a1 3b 4c 39 b0 3d 70 86 a2 3d
       0.10112721 0.004935503 0.086046785 0.07935798
000020 e5 e0 16 bd 78 1f ad bd 7c 9d de bd cc c8 e2 bd
       -0.03683557 -0.08453268 -0.108698815 -0.11073455
000030 28 f8 d1 3d 68 60 dd bd
       0.1025241 -0.10809404

exp_avg_sq f4 [1, 14]
000000 76 e9 c2 3c 24 76 5a 3d 78 1f 43 3d 9d fe 11 3c
       0.023792963 0.053335324 0.047637433 0.008910802
000010 fe 8e 53 3d 05 8c e9 3c 24 80 68 3c 1c 9c b4 3b
       0.05165004 0.02850915 0.014190707 0.0055117738
000020 62 5d e1 3b 6f f9 7f 3c d5 9d 2a 3d 5b 15 0a 3c
       0.006877587 0.015623434 0.041654427 0.008427943
000030 e8 32 41 3d 06 45 0a 3d
       0.04716769 0.033757232

exp_avg f4 [56, 48]
000000 1a 19 13 bb 38 ca ea ba 78 62 d5 ba bb c1 e6 ba
       -0.0022445382 -0.0017913049 -0.0016279956 -0.0017605344
000010 fa 67 06 bb ba df 18 bb ff 68 1f bb ec d5 c8 ba
       -0.0020508752 -0.002332671 -0.0024324057 -0.0015322543
000020 70 c8 ac ba eb 0d 7a ba 1b 89 25 ba 4a f1 1c ba
       -0.0013182294 -0.0009538817 -0.0006314681 -0.00059868826
000030 8c 6a d0 b9 30 36 43 ba c8 74 2f ba ef 0f 00 ba
       -0.00039752235 -0.0007446734 -0.0006693122 -0.0004885187
000040 27 5d 3b ba f0 9b 1c ba d7 c1 e1 b9 c7 e4 30 ba
       -0.00071473647 -0.0005974164 -0.00043059766 -0.00067479577
000050 89 ad 0f ba 8d 95 d4 b9 bf ee 8e ba 56 a3 5c ba
       -0.0005480876 -0.00040547215 -0.0010904892 -0.0008416673
000060 35 9c 1c ba c2 67 c8 ba 20 01 9c ba 6e 64 56 ba
       -0.00059742044 -0.0015289711 -0.0011902191 -0.00081784173
000070 d4 ad aa ba c6 14 8f ba 48 4f 65 ba f8 19 3b ba
       -0.0013021776 -0.0010916225 -0.00087474706 -0.00071373535
000080 c4 8f 16 ba 1e 93 f1 b9 84 5f ac b9 a5 86 82 b9
       -0.00057434686 -0.00046076713 -0.0003287756 -0.0002489585
000090 4c 5b 36 b9 ac 15 86 b8 ab 70 6b b8 74 c0 dd b7
       -0.00017390883 -6.3936546e-05 -5.6133296e-05 -2.6434871e-05
0000a0 2c 22 80 ba 07 62 ae af 74 cf 9c ba 4f e6 8f 39
       -0.0009775809 -3.1720068e-10 -0.0011963681 0.0002744668
0000b0 92 41 45 38 28 f0 3d b8 e7 20 34 3a 96 65 60 bb
       4.7029527e-05 -4.5284774e-05 0.0006871358 -0.0034240237
0000c0 0a 64 da b5 86 f6 90 b8 25 1e ce b8 f0 87 f4 b8
       -1.6271381e-06 -6.912374e-05 -9.82846e-05 -0.00011660147
0000d0 14 08 02 b9 1a 86 11 b9 6c 04 1a b9 a7 16 cc 37
       -0.00012400775 -0.00013878234 -0.00014688232 2.4329243e-05
0000e0 b0 4e 75 b6 d1 99 69 b8 f4 9d ce 38 bb e7 56 38
       -3.6553647e-06 -5.569478e-05 9.8522665e-05 5.123739e-05
0000f0 d0 53 e4 b7 36 ae 92 38 be de c0 37 d2 7e 0d b8
       -2.7218746e-05 6.994272e-05 2.2991906e-05 -3.373513e-05
000100 89 f8 b7 37 7d ea b0 b6 a8 3a 10 b8 2c 5f a6 34
       2.1931033e-05 -5.2725068e-06 -3.4386903e-05 3.0989156e-07
000110 11 ae aa b7 00 da 08 b8 9c e3 6b b7 11 ef a4 b7
       -2.0346635e-05 -3.2627955e-05 -1.4060086e-05 -1.9661647e-05
000120 71 c3 de b7 43 40 ae b6 98 79 14 b7 f5 f3 b1 b7
       -2.6555472e-05 -5.193085e-06 -8.849798e-06 -2.1213646e-05
000130 e7 a5 bb b7 2a 68 b7 b7 b7 d7 dd b7 62 80 3b b7
       -2.2369391e-05 -2.1863805e-05 -2.6445703e-05 -1.117596e-05
000140 d5 a2 17 b7 0f f2 4d b7 73 28 a2 b6 47 a2 a9 b6
       -9.038214e-06 -1.2275311e-05 -4.832685e-06 -5.055484e-06
000150 c6 b3 b7 b6 c2 41 5e b6 bf 7e 79 b6 20 e7 86 b6
       -5.4747534e-06 -3.3118854e-06 -3.7177667e-06 -4.0204177e-06
000160 28 ac 90 b8 56 34 6d b0 8e d1 41 b9 df 0d 70 37
       -6.898522e-05 -8.629447e-10 -0.0001848398 1.4308344e-05
000170 e1 77 13 b8 db 14 45 37 4a a9 4d 38 92 01 8f b9
       -3.5159177e-05 1.1746971e-05 4.903347e-05 -0.00027276255
000180 52 10 86 3b 39 6d 97 3b fa 2d 9c 3b ce a6 81 3b
       0.004091301 0.0046211747 0.004766223 0.0039566522
000190 14 73 2b 3b fc f6 d2 3a c6 e6 a1 3a 8c d3 be 3b
       0.0026161121 0.0016095336 0.0012352101 0.005823558
0001a0 f6 c0 c2 3b 35 78 b8 3b ac f6 02 3c bc 6b 05 3c
       0.005943413 0.005629564 0.0079933815 0.008143362
0001b0 30 83 f1 3b 27 f1 0a 3c c7 4e 0e 3c 41 ba 01 3c
       0.007370375 0.008480347 0.008685774 0.007917942
0001c0 92 4a 09 3c 01 3c 0d 3c d6 a7 fd 3b 94 af 02 3c
       0.008379595 0.008620263 0.007740955 0.007976431
0001d0 dc 95 05 3c 48 0c f2 3b 2a 19 e3 3b ee 80 ea 3b
       0.008153405 0.007386718 0.00693049 0.007156483
0001e0 bb 5b de 3b f9 3f a7 3b f8 63 aa 3b 59 05 a8 3b
       0.0067858375 0.0051040617 0.0051999055 0.0051275906
0001f0 3b d0 99 3b 81 c0 98 3b 40 5c 95 3b 94 09 76 3b
       0.0046940125 0.00466162 0.004558116 0.003754233
000200 14 71 71 3b bc 68 6e 3b da e6 08 3b 0f b7 05 3b
       0.0036841081 0.0036378345 0.0020889551 0.00204033
000210 32 6a 03 3b 92 fe 03 3b dc e4 03 3b 34 6f f9 3a
       0.002005231 0.002014075 0.0020125424 0.0019030333
000220 48 32 1d 3b 96 f7 cb 30 bb d8 bf 3c 1a 3f 17 3a
       0.0023986269 1.4840562e-09 0.023418775 0.0005769596
000230 2f 3b 2c b9 69 52 b4 39 c0 dd d1 ba 2c 41 34 3c
       -0.00016425246 0.00034393676 -0.0016011521 0.011001866
000240 f8 25 83 3c 0e e6 4a 3c 4a 16 28 3c 39 f0 0d 3c
       0.016009316 0.012383951 0.01025922 0.008663231
000250 e1 93 e7 3b 6c 6c b3 3b 39 37 70 3b b8 30 8f 3c
       0.007067189 0.0054755714 0.003665401 0.017479286
000260 d8 ad 7a 3c 87 d2 4f 3c 12 b8 82 3c b8 96 6a 3c
       0.015300237 0.012684471 0.015956912 0.014318161
000270 14 fd 46 3c f7 ea 8d 3c b4 db 7b 3c 7b 5e 52 3c
       0.012145299 0.017323954 0.0153722055 0.012839909
000280 85 94 8d 3c e8 99 7a 3c 18 87 53 3c 2e 89 86 3c
       0.017282734 0.015295483 0.012910627 0.016422834
000290 f2 15 67 3c 5a cc 37 3c d6 1e 86 3c 58 c6 61 3c
       0.014104353 0.011218155 0.016372126 0.013780199
0002a0 d3 52 34 3c 81 2c 92 3c fd 5d 7b 3c 32 63 4c 3c
       0.011006075 0.017843487 0.015342233 0.012474822
0002b0 90 91 75 3c 9a 0f 56 3c e2 b6 33 3c aa 2f 21 3c
       0.014988318 0.013065243 0.010968896 0.009838024
0002c0 b5 59 0e 3c 9b 3e f0 3b 78 f0 a8 3b 8f f5 95 3b
       0.00868838 0.007331682 0.0051556192 0.004576392
0002d0 f6 f8 7e 3b f0 fd 1f 3b 63 5f 0f 3b 67 47 eb 3a
       0.0038905717 0.0024412833 0.0021876923 0.0017950357
0002e0 18 88 71 3b 82 c0 5c b0 80 25 aa 3b b9 cc 79 39
       0.00368548 -8.0309104e-10 0.0051924586 0.00023822756
0002f0 48 fa 35 3a 75 9b d3 3a de dd 20 bb e2 57 8a 3c
       0.0006941897 0.0016144352 -0.0024546306 0.016887609
000300 ae ee d1 39 f3 28 ad 39 ec 6f 99 39 6d b7 98 39
       0.00040041417 0.0003302764 0.00029265822 0.00029128362
000310 b1 c7 a3 39 72 64 94 39 fa 0f 4f 39 14 41 5d 39
       0.00031238564 0.00028303597 0.0001974701 0.00021100446
000320 35 05 53 39 72 42 3a 39 3d 45 5f 39 33 56 64 39
       0.00020124468 0.00017763095 0.0002129273 0.00021775886
000330 86 1b 56 39 bb 1c 37 39 8a c3 48 39 61 a7 43 39
       0.00020418884 0.00017462943 0.0001914633 0.00018659003
000340 0f dc cb 38 1e 16 fc 38 e3 5c d3 38 e3 a5 d7 b7
       9.7207834e-05 0.00012020416 0.000100785655 -2.5707244e-05
000350 ab 03 9c b7 76 4d 0b b8 e9 fb e9 b7 96 30 b9 b7
       -1.8598357e-05 -3.3212324e-05 -2.789307e-05 -2.2076343e-05
000360 34 ba 96 b7 84 d1 bf 37 6c a9 24 38 c2 a4 1f 38
       -1.7968101e-05 2.2866538e-05 3.9258433e-05 3.8061997e-05
000370 4f be e1 b7 96 60 c4 b7 b8 8d 0d b8 10 13 4d 37
       -2.691071e-05 -2.3409997e-05 -3.3749006e-05 1.22233905e-05
000380 de 11 d5 37 c0 d0 90 37 e1 ce 9c b6 3e b6 cb b6
       2.5399899e-05 1.7263344e-05 -4.673246e-06 -6.0710872e-06
000390 4a 7f d2 b6 a4 0d e2 b6 dc d7 ed b6 c9 eb 06 b7
       -6.273306e-06 -6.736913e-06 -7.0882797e-06 -8.04192e-06
0003a0 56 8d 67 37 48 a1 01 31 5a f5 21 39 b3 1a ec 38
       1.380158e-05 1.8863648e-09 0.00015445557 0.0001125833
0003b0 6d a3 37 b8 1f 6a bc b8 6a 0b a7 b7 d7 82 ba b8
       -4.3782802e-05 -8.984305e-05 -1.9913266e-05 -8.893542e-05
0003c0 e2 56 e0 3a ba 06 ee 3a 30 c5 ea 3a 43 fc e2 3a
       0.0017115737 0.0018159964 0.001791155 0.0017317611
0003d0 90 55 ca 3a 0d 05 a9 3a bc b0 89 3a 7e 2b a6 b9
       0.0015436877 0.0012895182 0.0010504941 -0.00031694392
0003e0 97 13 3f b9 2d bb 22 b9 d3 88 01 ba 5f 33 9a b9
       -0.00018222477 -0.00015519252 -0.0004941348 -0.00029411443
0003f0 b6 34 62 b9 b4 1a f2 b9 0a 27 69 b9 71 e3 ed b8
       -0.00021572676 -0.00046177732 -0.00022235155 -0.00011343405

exp_avg_sq f4 [56, 48]
000000 cf d0 fc 35 16 54 e1 35 6c 2d d9 35 7b 11 e4 35
       1.8836234e-06 1.6788279e-06 1.6180979e-06 1.6992411e-06
000010 e6 35 02 36 61 a3 06 36 93 bd 17 36 4b 51 ec 35
       1.9402883e-06 2.0062655e-06 2.26111e-06 1.760703e-06
000020 f6 0d db 35 ab 58 cb 35 2f b2 cc 35 54 a6 c3 35
       1.6320835e-06 1.5150484e-06 1.5251043e-06 1.457704e-06
000030 10 de be 35 33 91 b6 35 1b 02 ab 35 17 e8 a6 35
       1.4220732e-06 1.3602315e-06 1.2741106e-06 1.2435511e-06
000040 a6 92 d8 35 f9 38 a6 35 9e 4b 9f 35 89 8a b9 35
       1.6135934e-06 1.2384545e-06 1.1868431e-06 1.3823893e-06
000050 e1 cb 95 35 56 30 92 35 23 35 bb 35 cc 1a 91 35
       1.1160702e-06 1.0891915e-06 1.394805e-06 1.0811141e-06
000060 2e 97 8a 35 c6 f9 a7 35 1a 40 8f 35 85 c3 84 35
       1.03258e-06 1.2515163e-06 1.0672986e-06 9.89167e-07
000070 8c d0 d7 34 23 9b bb 34 a2 38 a7 34 72 ac c0 33
       4.0198609e-07 3.494434e-07 3.114738e-07 8.972064e-08
000080 fd 6a 9a 33 bf 4b 85 33 04 e9 04 33 d8 be d5 32
       7.190645e-08 6.207073e-08 3.094557e-08 2.488325e-08
000090 5a 7a b2 32 aa ab 89 32 e0 80 7b 32 9a 63 65 32
       2.0777566e-08 1.6026963e-08 1.4639426e-08 1.3352201e-08
0000a0 10 dc 76 35 f0 d0 21 1f 64 56 e6 38 d2 c6 71 33
       9.1962374e-07 3.4265905e-20 0.00010983346 5.629301e-08
0000b0 48 b3 13 33 b9 bb 54 33 9d 77 03 35 07 3f 65 37
       3.438916e-08 4.953083e-08 4.8975363e-07 1.3664138e-05
0000c0 d5 49 6b 35 c1 b3 5c 35 f7 74 5a 35 95 5f 5c 35
       8.765176e-07 8.2217963e-07 8.1381535e-07 8.2095477e-07
0000d0 d4 64 5d 35 5b 77 5f 35 70 98 64 35 4c 31 71 35
       8.247564e-07 8.324766e-07 8.5158445e-07 8.985123e-07
0000e0 b3 27 6a 35 1f 1c 5b 35 d8 9c 68 35 f5 59 5e 35
       8.7229563e-07 8.162478e-07 8.665497e-07 8.283235e-07
0000f0 f9 2e 4f 35 05 92 47 35 8d 09 40 35 99 cf 37 35
       7.7181863e-07 7.4345763e-07 7.153947e-07 6.8474907e-07
000100 43 83 22 35 81 bd 1b 35 3e 57 17 35 13 8b 0f 35
       6.0540714e-07 5.8017764e-07 5.637884e-07 5.347403e-07
000110 54 20 0a 35 a7 79 06 35 72 5c 04 35 3f df 00 35
       5.145605e-07 5.009592e-07 4.930836e-07 4.800858e-07
000120 a8 af f8 34 5e 3f f4 34 94 57 ee 34 af f0 e2 34
       4.6321406e-07 4.5494647e-07 4.4394676e-07 4.22709e-07
000130 93 02 87 34 a8 59 83 34 12 83 7a 34 14 92 91 33
       2.5147583e-07 2.4465885e-07 2.3330747e-07 6.77866e-08
000140 66 69 8c 33 e6 47 88 33 a0 db c8 32 d1 4a c2 32
       6.53843e-08 6.346072e-08 2.3382938e-08 2.2618595e-08
000150 ed d9 bc 32 5a 26 8e 32 bc 2f 89 32 98 cc 84 32
       2.1985182e-08 1.6548416e-08 1.5970606e-08 1.5459861e-08
000160 43 55 ab 34 92 30 93 20 8b 6e 1e 37 10 a0 8c 31
       3.1913268e-07 2.493491e-19 9.443272e-06 4.0927333e-09
000170 b8 b5 8f 31 39 24 e3 32 7f 80 46 34 bd 6d b2 36
       4.182507e-09 2.644275e-08 1.8486934e-07 5.3175886e-06
000180 18 7f df 37 53 c7 da 37 dc 4d d4 37 b9 17 c9 37
       2.6642854e-05 2.6080443e-05 2.5308625e-05 2.3972114e-05
000190 1c be bc 37 7b 64 b5 37 a2 89 b1 37 1a ae ea 37
       2.2499873e-05 2.1623671e-05 2.1164135e-05 2.7976046e-05
0001a0 c8 3a e3 37 7b 76 d8 37 08 77 f2 37 a3 47 eb 37
       2.708788e-05 2.5804378e-05 2.8904076e-05 2.8047541e-05
0001b0 7b 6e da 37 07 0a f4 37 01 2a ed 37 5c a8 db 37
       2.6039072e-05 2.9091736e-05 2.8272161e-05 2.6185233e-05
0001c0 0a 05 ec 37 c1 e2 e3 37 6d fb cf 37 c1 3d d7 37
       2.8135739e-05 2.71661e-05 2.4793402e-05 2.5658754e-05
0001d0 e3 5a cf 37 b9 65 be 37 f9 3a c3 37 dd 38 bc 37
       2.4718645e-05 2.2697133e-05 2.3273273e-05 2.2437825e-05
0001e0 6b 68 b1 37 2d 03 a8 37 70 62 a2 37 c3 cf 9a 37
       2.1148668e-05 2.002864e-05 1.9357743e-05 1.8454977e-05
0001f0 13 67 40 37 58 27 39 37 5e 63 31 37 41 f7 ba 36
       1.1468091e-05 1.103602e-05 1.0573158e-05 5.572016e-06
000200 d5 12 b3 36 01 72 ad 36 7b 73 13 36 4a 5e 0d 36
       5.336808e-06 5.1690736e-06 2.1971925e-06 2.106552e-06
000210 57 46 08 36 d8 13 c9 35 6b 87 c1 35 e4 cb b8 35
       2.0306522e-06 1.4981442e-06 1.4419032e-06 1.3768408e-06
000220 4c 53 1a 37 4b 16 56 21 82 c0 14 3a e1 fe 44 33
       9.198509e-06 7.2535525e-19 0.0005674438 4.5866617e-08
000230 dc 64 28 33 14 a2 70 34 6a f3 a7 36 1e 35 2c 39
       3.920728e-08 2.2410705e-07 5.005325e-06 0.00016422986
000240 84 61 f5 39 6d 21 e4 39 2e 92 d9 39 43 bb cf 39
       0.00046802696 0.00043512453 0.00041498378 0.00039621638
000250 da e0 c6 39 8e dc bf 39 dc c1 b9 39 f1 4f f6 39
       0.0003793303 0.00036594685 0.00035430386 0.00046980337
000260 82 01 eb 39 3e eb dd 39 bb b8 e9 39 7d bb e1 39
       0.00044823816 0.00042327674 0.00044578858 0.00043055034
000270 80 ad d6 39 f1 c3 f2 39 8a c6 e8 39 bc 39 db 39
       0.00040946528 0.00046303825 0.0004439841 0.0004181395
000280 a1 37 f6 39 77 c2 ea 39 04 19 dc 39 86 f7 f4 39
       0.00046962223 0.00044776846 0.00041980308 0.00046723726
000290 65 45 e7 39 cc 2f d6 39 e8 a3 ee 39 1d bb dd 39
       0.00044111456 0.00040852872 0.00045517017 0.00042291815
0002a0 27 05 cc 39 76 2e e2 39 ea 36 d1 39 1f 3c be 39
       0.0003891375 0.00043140695 0.000399045 0.00036284418
0002b0 a6 33 66 39 b2 18 52 39 ad 33 3e 39 af e1 a6 38
       0.0002195375 0.0002003636 0.00018139063 7.957534e-05
0002c0 b4 3f 9c 38 1b 1a 90 38 d9 0c d9 37 6e a0 c9 37
       7.450525e-05 6.8713176e-05 2.5874398e-05 2.4035773e-05
0002d0 50 5f b7 37 89 a1 75 37 ea c2 66 37 2d bc 54 37
       2.1859683e-05 1.4640748e-05 1.375445e-05 1.2679998e-05
0002e0 e2 e3 1a 39 0c 67 7f 20 d9 18 dd 3b b7 f4 b4 35
       0.00014771477 2.1633436e-19 0.006747347 1.3482266e-06
0002f0 2a cf ed 35 0e 29 0e 36 f7 08 99 38 f6 d1 23 3b
       1.7718169e-06 2.1183546e-06 7.297278e-05 0.0024996973
000300 cd 34 13 37 dc 86 13 37 fd 7a 15 37 c1 fe 17 37
       8.774176e-06 8.793282e-06 8.9097275e-06 9.059616e-06
000310 28 d9 19 37 e1 56 1a 37 51 74 1b 37 37 30 0f 37
       9.170071e-06 9.199343e-06 9.265802e-06 8.53469e-06
000320 da 87 0f 37 16 e8 10 37 9d b0 0a 37 54 c1 0a 37
       8.555095e-06 8.637106e-06 8.266562e-06 8.270454e-06
000330 8c 67 0b 37 da fd 02 37 cf fe 02 37 e8 f6 03 37
       8.3091545e-06 7.807708e-06 7.807931e-06 7.865696e-06
000340 c3 29 f8 36 6d aa f7 36 55 59 f9 36 38 62 e2 36
       7.3958377e-06 7.381014e-06 7.431178e-06 6.746759e-06
000350 74 60 e2 36 98 4b e3 36 52 39 cf 36 ca 17 cf 36
       6.7465535e-06 6.7739275e-06 6.1757537e-06 6.17185e-06
000360 bf a2 cf 36 be 52 bf 36 80 5a bf 36 6e ba bf 36
       6.188027e-06 5.701876e-06 5.702779e-06 5.713947e-06
000370 53 9f 44 36 42 0c 44 36 89 ff 43 36 9b 5e 9a 35
       2.9299015e-06 2.921341e-06 2.9206005e-06 1.1501428e-06
000380 85 88 99 35 14 06 99 35 c0 90 b7 34 aa c2 b5 34
       1.1439121e-06 1.1401157e-06 3.4191726e-07 3.3855514e-07
000390 9f a3 b4 34 66 d6 57 34 59 a9 55 34 21 2a 54 34
       3.3646663e-07 2.0101433e-07 1.9898779e-07 1.9759365e-07
0003a0 ca dd 53 36 f3 4f ab 21 77 df 20 39 08 50 9d 32
       3.1570548e-06 1.1608573e-18 0.00015342036 1.83136e-08
0003b0 0b ae 71 32 e9 9d 51 33 99 2a ee 35 fb 45 6e 38
       1.4067619e-08 4.8805223e-08 1.7744779e-06 5.6808796e-05
0003c0 06 ff d5 35 0a 3c dd 35 b9 8b d9 35 72 8c db 35
       1.5943958e-06 1.6483257e-06 1.6208425e-06 1.6357646e-06
0003d0 73 2d dd 35 c9 59 e4 35 79 80 ea 35 cf 35 a1 35
       1.6479011e-06 1.7013455e-06 1.7471749e-06 1.2011095e-06
0003e0 1b 3a 9f 35 1d fd 9f 35 17 f3 6f 35 2e 6b 66 35
       1.1863334e-06 1.1920089e-06 8.938818e-07 8.5837644e-07
0003f0 28 df 68 35 8f d0 2f 35 90 5c 25 35 4c 7e 25 35
       8.675147e-07 6.5496073e-07 6.1601986e-07 6.1651076e-07

exp_avg f4 [56, 14]
000000 ed e1 24 ba e8 0e b5 3a 55 5b 81 3a a3 90 8f 3a
       -0.0006289769 0.0013813647 0.0009869138 0.0010953139
000010 ab ea b7 3a 2f 0a a9 3a fa 45 d4 39 b6 7d 87 b9
       0.0014031728 0.0012896712 0.00040487928 -0.00025842868
000020 30 da 40 3a c1 02 85 b9 10 48 5d ba ca 2d 8c 3a
       0.0007356731 -0.0002536979 -0.0008441219 0.0010694799
000030 08 16 b6 3a 08 2d b3 ba e0 bc c9 b7 39 68 3b 38
       0.0013892064 -0.0013670037 -2.4049019e-05 4.468134e-05
000040 91 3d 2b 38 20 f6 17 38 d9 0e 18 38 ae c9 a0 38
       4.0826915e-05 3.6230427e-05 3.6253452e-05 7.66696e-05
000050 74 00 e7 37 00 5c 0d b6 07 70 18 38 1d 7f ff b6
       2.7537557e-05 -2.1064188e-06 3.6343958e-05 -7.61439e-06
000060 90 cf 01 b8 a3 b8 00 b8 19 6c 50 38 64 0e 07 b8
       -3.0949304e-05 -3.0689534e-05 4.969174e-05 -3.219991e-05
000070 b9 ce 2c 3b 38 dc 84 bb 8a f6 25 bb 77 1c 10 bb
       0.0026368333 -0.0040545724 -0.002532395 -0.0021989623
000080 9c d5 84 bb a4 9d ac 3a c2 da 0e bb 69 23 11 bb
       -0.0040537845 0.0013169539 -0.002179787 -0.002214635
000090 35 0d ab 3a f6 35 2c 3b fa 33 88 3b 3e 6e 2f 3b
       0.0013050201 0.002627728 0.0041565867 0.002676859
0000a0 fe df 6f bb ac 29 51 3b 77 2b 8b 3b 5c 5c bc bb
       -0.0036602016 0.0031915708 0.004247125 -0.005748315
0000b0 f6 57 8d ba f2 c2 e2 bb 2a e8 b8 bb a8 e7 c0 3a
       -0.0010783661 -0.006920212 -0.0056429105 0.0014717476
0000c0 08 8d a8 bb 51 64 90 bb 42 6c ba ba ab 5b 60 3b
       -0.0051437654 -0.00440649 -0.0014222937 0.0034234326
0000d0 c2 22 ad 3b 23 33 a0 3a a1 53 b1 bb 6a b5 c8 3b
       0.0052836845 0.0012222271 -0.0054115807 0.006125142
0000e0 61 9e f8 38 32 b0 1e b9 5b 03 07 b9 46 9d 80 b7
       0.00011855062 -0.00015133692 -0.00012875853 -1.5332025e-05
0000f0 93 bb 10 b9 2a 80 0f b9 f9 06 ca b6 23 a6 bb b7
       -0.00013802787 -0.00013685288 -6.020881e-06 -2.23695e-05
000100 0f 57 0a b8 12 fd c3 38 e3 3b bf 38 9e 7c c5 38
       -3.2982844e-05 9.3454626e-05 9.1187445e-05 9.416904e-05
000110 4f c4 30 b9 67 07 13 39 37 d5 0b 3a de bf f0 b9
       -0.00016857799 0.0001402177 0.00053342007 -0.0004591932
000120 a6 a2 9d b9 fc fe 37 3a d6 e7 f1 b9 bf 6c 18 b9
       -0.00030066556 0.00070188916 -0.00046139833 -0.0001453636
000130 ef fc 1f 39 9e 24 c6 38 e1 bd 95 38 18 73 90 39
       0.00015257647 9.448196e-05 7.140241e-05 0.00027551572
000140 10 cf 9e 39 f8 7e 12 3a f7 1f 0e ba 1a f6 88 39
       0.00030290382 0.0005588378 -0.0005421633 0.000261233
000150 6f af 16 3a 92 31 9e ba 40 e1 81 b7 8a 72 1a bb
       0.00057481875 -0.0012069216 -1.5482889e-05 -0.0023566806
000160 91 7a 93 ba 98 33 59 ba ff 99 ef ba 9d 3f b7 ba
       -0.0011251738 -0.0008285581 -0.0018280147 -0.001398075
000170 3e 62 07 bb ce b0 27 3a d0 8a 98 3a 38 38 3f b9
       -0.0020657922 0.00063968904 0.0011638049 -0.00018236123
000180 5e 27 7f ba ba 36 8f 3a 6b 12 76 3a a8 dd d1 ba
       -0.0009733344 0.0010926344 0.00093869 -0.0016011493
000190 24 e7 a5 ba f1 52 07 b9 ca b9 d3 ba ea 54 17 ba
       -0.0012657386 -0.00012905501 -0.0016153392 -0.0005772846
0001a0 a0 b3 71 36 c4 4a 00 3a db 82 94 b8 4e 57 0f 3a
       3.6016354e-06 0.00048939534 -7.081564e-05 0.00054680265
0001b0 b1 94 85 3a 9c 66 06 38 aa 8b d2 ba 9a 25 93 3a
       0.0010191408 3.2043652e-05 -0.0016063352 0.0011226416
0001c0 f0 3f 5b 3a e8 37 17 bb 62 77 05 bb 5d 21 24 bb
       0.00083637144 -0.0023074094 -0.0020365347 -0.00250443
0001d0 95 a2 18 bb 0d 63 58 bb 57 e8 8e ba 4a 78 d5 3a
       -0.0023290266 -0.0033018023 -0.0010902983 0.0016286459
0001e0 b0 db 32 ba a4 f0 16 3a fd 0f a4 3a 40 e2 18 bb
       -0.0006822897 0.0005757904 0.0012516972 -0.0023328215
0001f0 74 63 0d bb 7f c9 28 3b 81 8b d5 b7 99 54 14 38
       -0.0021574171 0.0025754867 -2.545654e-05 3.5364737e-05
000200 96 25 e0 37 c2 65 3b b6 29 73 19 38 ab d0 91 37
       2.6720383e-05 -2.7924402e-06 3.6585294e-05 1.7382516e-05
000210 0e 63 2c 35 ed ef 28 36 5d 29 85 b5 35 6e ab b7
       6.4219137e-07 2.5173606e-06 -9.92131e-07 -2.0436108e-05
000220 05 a4 d9 b7 f3 f6 a8 b7 6d ae f7 37 7f ca c9 b7
       -2.5944793e-05 -2.0142155e-05 2.9525918e-05 -2.4055362e-05
000230 d7 fe 04 bb c7 e0 4d 3b 0b b4 16 3b 6a f8 f1 3a
       -0.0020293498 0.0031414495 0.0022995498 0.0018460874
000240 ac b7 45 3b 84 01 51 3b 0c 59 b4 3a 0e 79 4e 3a
       0.0030169291 0.0031891773 0.0013759448 0.0007876315
000250 f0 08 24 3a d9 9e c3 ba 38 ef c0 ba 5e 5b 46 ba
       0.00062574353 -0.001492466 -0.001471973 -0.00075667154
000260 e7 4f 41 3b 3e 7b 30 bb aa e2 4f 39 b6 c3 fd b9
       0.0029497088 -0.0026928927 0.00019825497 -0.00048401736
000270 bc 60 cb b9 b5 36 38 ba 9e 28 e0 b9 a8 7f 53 ba
       -0.0003879125 -0.0007027195 -0.00042754872 -0.00080680335
000280 18 e0 e1 b9 31 b7 53 39 60 4e 88 b9 5c 91 09 38
       -0.00043082307 0.00020190772 -0.00025998335 3.279872e-05
000290 e9 b0 a9 39 c4 89 fb b9 ee dd 16 ba 08 7e 4c 3a
       0.00032366 -0.00047977094 -0.0005755116 0.00078007625
0002a0 a9 8b a6 39 d0 7f ba b9 b9 2b 4f b9 56 0a 70 b9
       0.00031766042 -0.00035571912 -0.00019757346 -0.00022892034
0002b0 0a 22 b5 b9 80 af dd b8 f2 d2 9e b9 23 19 88 b9
       -0.0003454837 -0.000105707906 -0.00030293275 -0.0002595867
0002c0 b7 0d e1 38 21 93 a1 39 b3 be c0 39 97 2f ad 39
       0.00010731391 0.00030817933 0.00036763176 0.00033032589
0002d0 93 f1 a8 b9 b3 65 cf 39 94 e9 43 3a 7c 5e c2 ba
       -0.00032223444 0.00039557889 0.00074734655 -0.0014829184
0002e0 27 ee a2 ba c0 69 77 b9 b6 8c d0 ba 66 a1 4f ba
       -0.0012430594 -0.0002359515 -0.0015911076 -0.00079204736
0002f0 2e de b6 b7 1a 84 82 39 ac f7 3a b9 a6 c7 1d 3a
       -2.1799551e-05 0.00024893956 -0.00017830607 0.00060188246
000300 d4 02 83 3a a0 c3 2b 39 00 6d b2 ba 2c 79 29 3a
       0.000999535 0.00016380707 -0.0013612807 0.00064648944
000310 38 8c 92 ba 3e 3a 0e 3b 12 5f cc 3a f8 99 d9 3a
       -0.0011180704 0.0021702196 0.0015592298 0.0016601672
000320 63 c4 11 3b 4f c1 08 3b 68 02 54 3a 1a 54 fd b9
       0.00222423 0.0020867174 0.0008087517 -0.0004831858
000330 37 94 80 3a fd 72 e2 b9 98 5a b2 ba b8 33 b2 3a
       0.0009809796 -0.00043191752 -0.0013607321 0.0013595736
000340 0c c5 0d 3b 47 06 01 bb 66 79 f1 b7 44 30 3d 38
       0.0021632342 -0.001968758 -2.878597e-05 4.5106062e-05
000350 aa 7e 82 38 fd 82 8e 38 8a 18 12 38 4c 92 31 39
       6.222476e-05 6.795486e-05 3.4831966e-05 0.00016934535
000360 86 a0 a1 38 fd 96 5b 36 27 de 90 38 44 7a 52 36
       7.706978e-05 3.272143e-06 6.907834e-05 3.1363606e-06
000370 94 95 3d b8 9b 24 92 b8 2b af 97 38 04 01 52 b8
       -4.5200417e-05 -6.968641e-05 7.232869e-05 -5.0068847e-05
000380 94 0e 04 3b b6 a7 51 bb 2f 48 0d bb 29 8f c2 ba
       0.002015029 -0.0031990833 -0.0021557917 -0.001484369
000390 cf 25 52 bb c6 be ff 3a 46 6c d2 ba fa e8 e4 ba
       -0.0032065993 0.0019511811 -0.0016053997 -0.0017464452
0003a0 fd 4e da 3a c7 31 0f 3b cd 26 58 3b 20 2d 26 3b
       0.001665562 0.0021849738 0.0032982111 0.0025356486
0003b0 36 c9 37 bb 34 e3 16 3b 9c 94 27 3b 82 3b a4 bb
       -0.0028043515 0.0023023607 0.0025570756 -0.0050119767
0003c0 2e 26 9c ba 05 b5 f4 bb b6 20 a3 bb b0 d6 ef 39
       -0.0011913234 -0.0074678683 -0.0049782647 0.00045745587
0003d0 1a 51 8a bb 03 ae 29 bb 2a 10 f7 ba e1 05 1b 3b
       -0.004221094 -0.0025891073 -0.0018849422 0.0023654627
0003e0 22 c2 93 3b 8d 3d dd ba 1e 7f 94 bb a8 db ab 3b
       0.0045092264 -0.0016879305 -0.004531755 0.005244691
0003f0 42 4a 17 39 48 77 39 b9 39 eb 15 b9 84 bf 9d 35
       0.00014428145 -0.0001768741 -0.00014297375 1.175315e-06
